model1.pt (torch_old, 763093 bytes, 14 tensors)

weight f4 [6, 3, 5, 5]
0	0x3d0290b4	0.03187628
1	0xbdb0446c	-0.086068004
2	0x3c543ef2	0.01295446
3	0x3b8c80dd	0.0042878226
4	0xbc091fb8	-0.008369379
5	0xbd4bf713	-0.049796175
6	0xbc07ed9c	-0.008296397
7	0x3dccc29c	0.09998056
8	0xbdd049c2	-0.10170318
9	0x3dac8904	0.08424571
10	0xbcd5428e	-0.026032712
11	0x3ceb1b8a	0.028699655
12	0x3d2b81cc	0.04187183
13	0x3c7f11ef	0.015568241
14	0x3ccef5df	0.025263725
15	0x3da89cc6	0.08233027
16	0xbde8110e	-0.11331378
17	0xbd1b3611	-0.03789336
18	0xbda4055e	-0.08008836
19	0xbb9179ad	-0.0044395537
20	0x3b0a47e3	0.0021099977
21	0x3dc2f1b8	0.095187604
22	0x3d8f9a88	0.07011896
23	0x3d061306	0.032732986
24	0xbd829cba	-0.063775495
25	0x3dc545fe	0.096324906
26	0xbc8b33bc	-0.016992442
27	0x3cdf5c19	0.027265595
28	0x3d904bba	0.07045694
29	0x3deb9200	0.11502457
30	0x3dc3205e	0.09527658
31	0xbcf3d770	-0.029765815
32	0x3da1c073	0.07898035
33	0x3d422c98	0.04740581
34	0xbdcdac32	-0.10042609
35	0xbd715314	-0.05891712
36	0xbc99e009	-0.018783586
37	0xbb482b0e	-0.003054324
38	0xbd3f8692	-0.046759196
39	0x3d41109e	0.047134988
40	0x3d06c01f	0.032898065
41	0x3d04a07f	0.032379624
42	0x3ca2dca1	0.019880595
43	0xbbd59c13	-0.0065188496
44	0xbde9b04a	-0.114105776
45	0xbd58dbe8	-0.052944094
46	0x3cce51b8	0.02518545
47	0x3cde1990	0.027111799
48	0xbddede0e	-0.10882197
49	0xbc815243	-0.015786296
50	0xbd9112e7	-0.070836835
51	0x3da5db7b	0.08098503
52	0xbcd53d3e	-0.02603018
53	0x3d2eabfd	0.04264449
54	0xbdd6b898	-0.10484427
55	0x3d8668c8	0.06562954
56	0x3da1a983	0.0789366
57	0xbddeaa88	-0.1087237
58	0xbc69bde5	-0.014266466
59	0xbd5bdb84	-0.053676143
60	0xbb4320b3	-0.002977413
61	0xbbaa1fda	-0.0051917853
62	0x3dca5298	0.09879035
63	0xbdb010cb	-0.08596953
64	0xbdb011c6	-0.0859714
65	0x3cd3add8	0.025839731
66	0x3de6b0f6	0.11264221
67	0x3dc5caf2	0.09657849
68	0xbd9afce0	-0.07567763
69	0x3d61b2f2	0.055102296
70	0x3de05274	0.10953227
71	0x3d85bf3c	0.06530616
72	0xbd9e7d78	-0.07738775
73	0x3dcb8eef	0.09939372
74	0x3d2cc2fe	0.042178147
75	0x3c8da917	0.017292542
76	0xbcf664c0	-0.030077338
77	0x3b02c25b	0.001995227
78	0xbce138ac	-0.027492844
79	0xbd94df25	-0.07269124
80	0x3dc032b5	0.093846716
81	0xbd045951	-0.03231174
82	0xbd810208	-0.062992156
83	0x3c1a3868	0.009412862
84	0xbd00f4ee	-0.031483583
85	0xbc382857	-0.0112400865
86	0xbd936cc7	-0.07198482
87	0x3d5ca111	0.053864542
88	0xbd815203	-0.063144706
89	0xbd08320f	-0.033250865
90	0x3bc3dc36	0.005977179
91	0xbd5317f4	-0.051536515
92	0xbdd77f29	-0.10522301
93	0x3daa6e53	0.08321824
94	0xbd600be2	-0.054698832
95	0x3d8b3191	0.067965634
96	0x3da0de26	0.078548715
97	0x3d8da26b	0.069157444
98	0xbd1b1041	-0.037857298
99	0x3de5b259	0.11215658
100	0x3cf22df4	0.029562928
101	0x3d14102b	0.03614823
102	0xbd8b2cf1	-0.06795681
103	0xbdad2d36	-0.08455889
104	0xbcece802	-0.028919224
105	0x3dd7e3be	0.10541485
106	0x3da8561e	0.082195505
107	0xbd5ee9ec	-0.054422304
108	0xbc8a5909	-0.016888158
109	0xbcd8304b	-0.026390215
110	0xbcc9d071	-0.024635525
111	0x3ce338c7	0.027737034
112	0x3a2a2393	0.00064902863
113	0x3d1ec19c	0.03875886
114	0xbc0f17ae	-0.008733673
115	0xbd977563	-0.073954366
116	0xbcb55291	-0.022134097
117	0x3bf1bdb8	0.0073773526
118	0xbda046f9	-0.07826037
119	0x3d7e6255	0.062105495
120	0xbd630cf4	-0.055432275
121	0xbd4355df	-0.047689315
122	0x3d27d0f6	0.040970765
123	0x3dd6d1c8	0.10489231
124	0x3ca1200e	0.019668605
125	0xbdca7139	-0.09884877
126	0x3ccbd5bc	0.02488219
127	0xbddf0b46	-0.10890822
128	0xbd93076b	-0.07179149
129	0xbcedb731	-0.029018017
130	0xbcef8b65	-0.029241273
131	0xbd1cd408	-0.038288146
132	0xbd9aada8	-0.075526536
133	0x3cbd4e27	0.023108555
134	0x3dc7220d	0.097232915
135	0xbd02db2b	-0.031947296
136	0x3ba02e49	0.00488833
137	0xbd5923e8	-0.05301276
138	0x3dc78801	0.097427376
139	0x3cdfc70a	0.027316589
140	0x3d5c8055	0.053833324
141	0x3dbbcfbf	0.09170484
142	0xbb8b0574	-0.0042425934
143	0x3b82bb32	0.0039896006
144	0xbc8baea3	-0.017051047
145	0xbde8f44f	-0.11374723
146	0x3d7f1914	0.062279776
147	0x3da53044	0.080658466
148	0xbcd9ec53	-0.026601946
149	0x3c9c9166	0.0191123
150	0xbd929400	-0.07157135
151	0x3d38a0ad	0.045075107
152	0xbdaa77c0	-0.08323622
153	0x3de7b4fa	0.113138154
154	0x3d757122	0.059922345
155	0x3da0b406	0.07846837
156	0x3d86905c	0.06570503
157	0xbd7a6312	-0.061129637
158	0x3de69ab9	0.1125998
159	0xbde04ab8	-0.109517515
160	0xbc959b93	-0.01826266
161	0x3d926688	0.071484625
162	0xbcebaf5b	-0.02877014
163	0xbdd3aa63	-0.10335233
164	0x3a97a01e	0.0011568104
165	0xbdd0fbe0	-0.10204291
166	0xbd48f5df	-0.049062606
167	0x3d4b5f06	0.04965117
168	0x3de7bed3	0.11315694
169	0xbbd48422	-0.006485478
170	0xbd8178b3	-0.0632185
171	0xbd8d8781	-0.06910611
172	0xbd3df5b0	-0.046376884
173	0x38ab0ea9	8.156646e-05
174	0xbdcdf701	-0.10056878
175	0xbdbfcdcb	-0.09365424
176	0xbd81042e	-0.06299625
177	0xbbc8a2ca	-0.0061229216
178	0x3ccb29aa	0.02480014
179	0x3da908ff	0.08253669
180	0x3ca813c1	0.020517232
181	0x3cbc2253	0.022965586
182	0x3c81aa57	0.015828295
183	0xbd3a0b0e	-0.0454207
184	0x3dd91f50	0.106016755
185	0xbd676bad	-0.056499172
186	0x3df2b195	0.11850277
187	0x3de796d3	0.11308064
188	0xbda9604e	-0.08270322
189	0x3d8be9e3	0.0683172
190	0xbd18a21a	-0.037263967
191	0x3d1c6d0f	0.038189944
192	0xbd5f4771	-0.05451149
193	0xbd6055f8	-0.054769486
194	0xbd604d69	-0.054761324
195	0x3b4c90da	0.0031214268
196	0x3dae9e63	0.085263036
197	0x3cc009bc	0.023442142
198	0xbda853a1	-0.08219076
199	0xbd1e7925	-0.03868975
200	0x3dee340e	0.116310224
201	0x3d873a8a	0.06602962
202	0xbd59f230	-0.053209484
203	0x3d0c2967	0.03421917
204	0x3d9b3fed	0.07580552
205	0xbda5d1d8	-0.08096665
206	0xbda2f9c9	-0.07957799
207	0x3be8d1de	0.0071050962
208	0xbddbdc65	-0.10735396
209	0x3c9830c8	0.018577948
210	0x3dd83435	0.10556833
211	0xbcb4ddd8	-0.02207844
212	0xbd10d221	-0.035356645
213	0x3dafd43c	0.08585402
214	0x3d826610	0.06367123
215	0xbd2c8584	-0.042119518
216	0xbddc6300	-0.1076107
217	0x3c41a59f	0.011819272
218	0xbd93aa5a	-0.07210226
219	0xbde3c754	-0.11122003
220	0xbd8dfcc1	-0.069329746
221	0x3de30ea6	0.11086778
222	0xbc80b19b	-0.015709689
223	0xbdbab1d2	-0.09115948
224	0x3ddbccfd	0.10732458
225	0x3ba85718	0.0051373355
226	0x3cb45530	0.022013277
227	0x3db85d8b	0.09002217
228	0x3db7daab	0.089772545
229	0x3db7902f	0.08963048
230	0x3c285f44	0.010276619
231	0x3da64d79	0.081202455
232	0x3d3becd8	0.04588017
233	0x3c1602ff	0.009155988
234	0x3dc7cf88	0.0975638
235	0x3cc6101f	0.024177609
236	0x3d2c0119	0.041993234
237	0x3c4c1b66	0.012457704
238	0x3ccaf6a4	0.02477581
239	0xbcae0b4b	-0.02124562
240	0x3d96bc39	0.073601194
241	0x3d208a94	0.03919466
242	0xbd5838dd	-0.052788604
243	0x3dd6902b	0.104767166
244	0xbd5c0628	-0.05371681
245	0x3bd69b86	0.0065493016
246	0xbdce33ab	-0.10068449
247	0xbdc477fc	-0.09593198
248	0x3d8f36a1	0.069928415
249	0x3d5fdd64	0.054654494
250	0x3d8bcbc6	0.06825976
251	0x3bf4efd2	0.007474878
252	0xbdb89546	-0.09012847
253	0xbdade7f5	-0.08491508
254	0xbd55da96	-0.052210413
255	0xbd0d6263	-0.034517657

bias f4 [6]
0	0xbdcf54d0	-0.101235986
1	0x3daf4908	0.085588515
2	0x3d9ab1fa	0.075534776
3	0x3b43e648	0.0029891897
4	0x3c95e811	0.018299134
5	0x3d4339c8	0.047662526

weight f4 [16, 6, 5, 5]
0	0x3d4a70f3	0.049424123
1	0x3c7cda20	0.015432864
2	0xbcc538b7	-0.024074895
3	0xbc67b3cd	-0.014141989
4	0x3c9a199b	0.018811038
5	0x3d6202e7	0.05517855
6	0xbb516b6a	-0.0031954893
7	0xbda4d640	-0.080486774
8	0x3d3572aa	0.044298805
9	0xbd76f96c	-0.06029646
10	0xbc9e6e2e	-0.019339647
11	0xbd8eb150	-0.069674134
12	0xbb8c609b	-0.004283977
13	0x3da2072d	0.07911525
14	0x3d472a86	0.048624538
15	0x3d4e22ca	0.050326146
16	0xbd98295e	-0.07429765
17	0xbb99dacc	-0.004695272
18	0x3da29927	0.07939368
19	0x3d6ba703	0.05753232
20	0xbd87bb6a	-0.06627543
21	0xbd80a7f1	-0.06282032
22	0xbda23877	-0.07920926
23	0xbc8addde	-0.016951498
24	0x3d5b8cbc	0.05360101
25	0x3d92643d	0.07148025
26	0xbd758ddc	-0.05994974
27	0xbd5701fb	-0.052492123
28	0x3d603013	0.054733347
29	0x3c60ee49	0.013728687
30	0x3c4ba8ec	0.012430411
31	0xbd75e811	-0.06003577
32	0x3d8cf6ed	0.06883035
33	0xbd7abc93	-0.061214995
34	0x3a28cf91	0.0006439621
35	0xbce68533	-0.028139686
36	0xbd30778a	-0.04308275
37	0xbcd6584d	-0.026165152
38	0x3bc0206b	0.0058632395
39	0xbd65079e	-0.055915467
40	0xbd440935	-0.047860343
41	0xbd395d07	-0.045254733
42	0xbd390237	-0.045168128
43	0x3d7b41aa	0.06134192
44	0x3d86e277	0.065861635
45	0xbd3add3a	-0.045621134
46	0x3d66a33a	0.05630801
47	0xbc89dc9f	-0.016828833
48	0x3bef7fcf	0.007308937
49	0x3d4d73e8	0.050159365
50	0x3d67bbb8	0.056575507
51	0x3cfdb9dd	0.030972416
52	0x3c953f93	0.018218791
53	0xbcf9f91f	-0.030514298
54	0x3d2f6ac0	0.042826414
55	0x3d09327a	0.033495404
56	0xbd80f917	-0.0629751
57	0xbd84e4dc	-0.06488964
58	0x3d4f22d6	0.05057033
59	0xbd2a9e8e	-0.041655116
60	0xbd9c3ce4	-0.076288015
61	0x3ceb5c24	0.02873046
62	0xbc761c61	-0.0150214145
63	0xbd80dd07	-0.062921576
64	0xbcd31dac	-0.025770985
65	0xb9a51972	-0.0003149021
66	0x3cfe5711	0.031047376
67	0xbc49b6a5	-0.012311612
68	0x3d95bb7d	0.07311151
69	0xbc8e042d	-0.017335976
70	0x3daae0e9	0.083436795
71	0xbcd53a3a	-0.026028741
72	0xbd13ae50	-0.03605491
73	0x3d7da667	0.06192627
74	0x3cea250a	0.028582115
75	0x3da72a89	0.0816241
76	0x3c0023e6	0.007821059
77	0xbc6fe709	-0.014642485
78	0xbda1f0cb	-0.07907256
79	0xbcbba7dc	-0.02290719
80	0x3d00a35c	0.03140579
81	0xbda0a71e	-0.07844375
82	0xbd9262ff	-0.07147788
83	0x3d54b6c4	0.05193211
84	0x3d58e976	0.05295702
85	0xbc0deab0	-0.008661911
86	0xbd933ca5	-0.071893014
87	0x3ce07e54	0.027403988
88	0xbd93a575	-0.07209293
89	0xbd9720b4	-0.073792845
90	0x3d8fc78b	0.07020482
91	0xbd09f9f2	-0.033685632
92	0x3d31a4a7	0.043369915
93	0x3d8ad0af	0.067780845
94	0x3d9744b4	0.07386151
95	0x3dab2586	0.083567664
96	0x3d9c2724	0.07624653
97	0xbd9e9d49	-0.077448435
98	0x3da6e16e	0.08148466
99	0xbc5bd588	-0.013417609
100	0x3d42d4fd	0.047566403
101	0xbd9591e6	-0.073032185
102	0xbd4c3ae4	-0.04986085
103	0x3d22f974	0.03978868
104	0x3c4d8df3	0.01254605
105	0xbcff3214	-0.031151809
106	0x3da1a2be	0.07892369
107	0xbd2a7592	-0.04161603
108	0x3d2a035e	0.041507117
109	0x3c8ac8f5	0.016941527
110	0xbd2b6a99	-0.041849706
111	0xbcad561d	-0.021159226
112	0xbc807f9d	-0.01568585
113	0x3bd6fe82	0.0065611014
114	0xbd33ccab	-0.04389636
115	0x3d908d52	0.07058205
116	0xbd80e85d	-0.0629432
117	0xbc0cf766	-0.008603906
118	0x3d0f8956	0.035043083
119	0x3d715ae7	0.05892458
120	0x3cf92920	0.030415118
121	0xbb0cb3b2	-0.0021469411
122	0xbd35e158	-0.044404358
123	0x3c10dacb	0.008841227
124	0x3bb56e7e	0.0055368533
125	0x3c820b5d	0.015874559
126	0x3d89e702	0.06733514
127	0xbc95e94b	-0.01829972
128	0xbd7f8c1d	-0.06238948
129	0x3d90a5f6	0.070629045
130	0x3cc58692	0.02411202
131	0xbd33a9b3	-0.04386301
132	0xbd32f2a4	-0.04368843
133	0xbc3bc97d	-0.011461613
134	0xbc86c332	-0.016450498
135	0x3d90ea73	0.07075968
136	0x3b2cc9a2	0.00263653
137	0x3d4ddddc	0.05026041
138	0x3d1a72e0	0.03770721
139	0x3bed3f9a	0.007240248
140	0xbcd2279c	-0.025653653
141	0x3d8e0f73	0.069365405
142	0x3c167eaa	0.0091854725
143	0xbd224956	-0.03962072
144	0xbcf6e776	-0.030139666
145	0xbd0ea28a	-0.034822978
146	0x3d2cea7c	0.04221581
147	0x3d58c8bd	0.052925814
148	0xbd8ff8c5	-0.07029871
149	0xbc14da2a	-0.0090852175
150	0x3d069c09	0.03286365
151	0xbc9fd5aa	-0.019511063
152	0xbc5e3bac	-0.013564032
153	0x3d07ac2c	0.03312318
154	0x3d711bbe	0.058864348
155	0xbc4d79d7	-0.012541256
156	0xbd4adb4a	-0.049525537
157	0xbcb2ea27	-0.021840168
158	0x3d72ad34	0.05924721
159	0x3d5d499b	0.054025274
160	0x3d17df75	0.03707834
161	0x3d88e625	0.066845216
162	0x3da43ade	0.080190405
163	0x3cde63f8	0.027147278
164	0x3ca7e218	0.020493552
165	0xbab2bc49	-0.0013636436
166	0xbd471a71	-0.0486092
167	0x3c4f53a3	0.012654218
168	0xbcf1c452	-0.029512558
169	0x3cc2673d	0.023730868
170	0x3c56ec1e	0.013117818
171	0x3c844e37	0.016150577
172	0x3b5522f2	0.003252205
173	0xbc571a62	-0.013128849
174	0xbda11cf6	-0.07866852
175	0xbc15d4cd	-0.009144974
176	0x3b05db5c	0.0020424938
177	0x3d3300dd	0.043701995
178	0x3c246764	0.010034416
179	0xbd194756	-0.037421547
180	0xbd7471a2	-0.05967868
181	0xbd994f53	-0.07485833
182	0x3d8dfb11	0.06932653
183	0xbd5b8592	-0.05359418
184	0x3cfc131f	0.030770836
185	0x3d4025d9	0.046911094
186	0xbd3b0b77	-0.04566523
187	0x3d559075	0.052139718
188	0x3d49522d	0.049150635
189	0xbd41aeb2	-0.047285743
190	0x3d790794	0.060798243
191	0xbd646085	-0.05575611
192	0xbd5c3587	-0.053761985
193	0xbacd2d88	-0.0015653828
194	0x3bf7a312	0.0075572813
195	0xbd614388	-0.054996043
196	0x3d7b955e	0.061421745
197	0x3d442f5a	0.04789672
198	0x3d3aa8d0	0.04557115
199	0xbd38ba9e	-0.045099847
200	0x3cd8087a	0.02637123
201	0x3c59d933	0.013296413
202	0x3da4660d	0.08027277
203	0x3cc905c3	0.02453888
204	0xbd92822f	-0.07153737
205	0xbb45c0eb	-0.0030174803
206	0xbd8328b2	-0.064042464
207	0x3c5a40b0	0.013321087
208	0xbbaf51c6	-0.0053503243
209	0xbda021e2	-0.07818963
210	0x3ca60eef	0.020270793
211	0x3bf377a3	0.0074300333
212	0xbccd8d36	-0.025091749
213	0x3c9541ee	0.018219914
214	0x3d7bba15	0.06145676
215	0xbd6e0c01	-0.058116917
216	0x3d9f0ae0	0.07765746
217	0xbaf768a1	-0.0018875786
218	0xbd98e973	-0.07466402
219	0x3da81f6f	0.082091205
220	0xbbf986c3	-0.007614942
221	0xbd83457f	-0.0640974
222	0xbd827d23	-0.06371524
223	0x3c93afa7	0.018028094
224	0x3c10ee17	0.008845828
225	0xbc9365a6	-0.017992806
226	0x3d82b9a6	0.06383066
227	0xbd3f826e	-0.046755247
228	0x3c59dd4a	0.013297388
229	0xbc0666dd	-0.008203235
230	0xbcba62ac	-0.022752129
231	0x3d6eea7f	0.0583291
232	0x3d61d2e8	0.055132776
233	0x3d15b6e6	0.03655138
234	0xbc63826a	-0.013886074
235	0x3cf103af	0.029420702
236	0xbd8048c1	-0.06263877
237	0xbd8a06d6	-0.06739585
238	0xb9d9f8fd	-0.00041574976
239	0xbd1aa21c	-0.037752256
240	0x3d831592	0.064005986
241	0xbd2b5603	-0.041830074
242	0xbca6ab8d	-0.020345474
243	0x3d76c003	0.06024171
244	0x3cbbca9d	0.022923762
245	0x3c84e222	0.01622111
246	0x3d43f3e3	0.04784001
247	0x3d864de5	0.06557826
248	0x3d078f14	0.033095434
249	0xbd8e5bc4	-0.06951097
250	0x3d28b4e9	0.041188154
251	0x3d4b2afa	0.049601533
252	0x3d40e2fc	0.04709147
253	0x3d6d9940	0.05800748
254	0xbd0f9c54	-0.035061195
255	0x3d027c6c	0.03185694

bias f4 [16]
0	0x3d1e7908	0.038689643
1	0x3cf0f137	0.029411895
2	0x3c0aebf2	0.008479105
3	0xbc374015	-0.011184712
4	0x3d197443	0.03746439
5	0x3d8210be	0.063508496
6	0xbb853896	-0.0040655835
7	0x3d965a58	0.073414505
8	0x3cfaabb7	0.030599458
9	0xbd928bda	-0.07155581
10	0x3c1d5d35	0.009604742
11	0x3d31e412	0.043430395
12	0xbc7520ac	-0.014961403
13	0x3d5c9d1c	0.05386077
14	0xbd763ac8	-0.060114652
15	0xbb4a8be4	-0.0030906135

weight f4 [8, 16, 5, 5]
0	0x3b0f48e3	0.0021863512
1	0xbd14b22c	-0.03630273
2	0xbc31d56d	-0.010854107
3	0xbcf51ccd	-0.02992096
4	0x3bb89e2a	0.005634089
5	0x3c9b0adc	0.018926077
6	0x3d2fca2f	0.042917427
7	0x3d2d12aa	0.042254128
8	0xbd325b74	-0.043544248
9	0xbcf10d07	-0.029425157
10	0x3c21522b	0.0098462505
11	0x3d2dd700	0.042441368
12	0xbc289a18	-0.010290645
13	0xbd0f1394	-0.03493078
14	0xbd333df9	-0.043760274
15	0x3c34ae81	0.011027933
16	0xbd304927	-0.043038514
17	0xbd3b2998	-0.045693964
18	0x3c99d4dc	0.018778257
19	0x3cfb6974	0.030689932
20	0xbd23389a	-0.0398489
21	0xbb73f417	-0.0037224346
22	0xbbab3faf	-0.0052260975
23	0x3b330d65	0.0027321216
24	0x3adae06f	0.0016698967
25	0x3c2e29e0	0.010630101
26	0xbd2f2a43	-0.042764913
27	0xbca0855e	-0.019594844
28	0x3d2fb5b5	0.0428979
29	0x3d0227ee	0.03177636
30	0x3ce40970	0.027836531
31	0x3c7155a5	0.014729892
32	0xbca34153	-0.01992861
33	0xbd205310	-0.039141715
34	0xbc160d7a	-0.0091584865
35	0x3c4f6ec4	0.012660686
36	0xbd42aea7	-0.047529843
37	0xbb964f01	-0.0045870547
38	0xbc903e7b	-0.017607918
39	0xbc06284e	-0.00818832
40	0x3c15af42	0.009136023
41	0x3d120347	0.035647657
42	0xbc22573a	-0.009908492
43	0xbcbe2cd2	-0.023214731
44	0x3c59840d	0.013276112
45	0xbd28b147	-0.04118469
46	0xbce4ec2a	-0.027944643
47	0x3bf1a20a	0.007374053
48	0x3d29c271	0.0414452
49	0xbc7f8d29	-0.01559762
50	0xbce9d109	-0.028542059
51	0x3c9d5104	0.01920367
52	0x3d4a866a	0.049444593
53	0xbc7d5f99	-0.015464687
54	0xbbd9851d	-0.006638183
55	0x3c51cf17	0.012805722
56	0xbd190553	-0.037358593
57	0xbc966866	-0.018360328
58	0x3c8f40e9	0.017487006
59	0x3d289a27	0.041162636
60	0xbd0fbf2d	-0.03509443
61	0xbce793d1	-0.028268727
62	0x3c6f8a04	0.014620308
63	0x3c89cf34	0.016822435
64	0x3c1b7852	0.009489136
65	0x3d1e33ce	0.038623624
66	0x3c7db088	0.015483983
67	0xbd281b09	-0.041041408
68	0x3cbbff14	0.02294878
69	0xbcbf31e0	-0.023339212
70	0xbbd9114e	-0.0066243773
71	0xbc7d12e9	-0.015446403
72	0x3d327071	0.043564264
73	0xbb459b08	-0.003015222
74	0xbd0eeb4f	-0.034892377
75	0x3ac6aa36	0.0015156928
76	0xbd01e41f	-0.031711694
77	0xbc5edbf1	-0.013602243
78	0xba9c5cf9	-0.0011929563
79	0xbcca7eca	-0.02471866
80	0xbcb0696e	-0.021534648
81	0x3d37c3be	0.04486441
82	0xbc4de1b5	-0.01256602
83	0x3c820067	0.015869332
84	0x3ca20dbe	0.019781943
85	0xbd0bc604	-0.03412439
86	0xbd38078f	-0.044929083
87	0x3d14abc9	0.03629664
88	0xbcc9d842	-0.024639253
89	0xbcb19afd	-0.02168035
90	0xbb927e09	-0.004470591
91	0xbc2c6773	-0.010522711
92	0x3d534ecb	0.051588815
93	0x3ceed254	0.029153027
94	0xbba10a8c	-0.0049145874
95	0x3b75483f	0.0037427095
96	0x3ccd7321	0.025079312
97	0x3ca1832f	0.019715874
98	0xbccb8f7e	-0.024848696
99	0x3a8006d3	0.0009767659
100	0x3cb1f009	0.021720903
101	0x3d3021eb	0.043001097
102	0xbc99cde1	-0.018774929
103	0x3c5874cb	0.013211439
104	0xbc065a34	-0.008200217
105	0xbc402afd	-0.011728999
106	0xbd35d8da	-0.04439626
107	0x3d54bd81	0.051938538
108	0xbcc83620	-0.024439871
109	0x3c6fb609	0.014630803
110	0x3cb392a9	0.021920519
111	0xbcb5c9da	-0.022190977
112	0xbd26b6a5	-0.040701527
113	0x3c1b390a	0.009474048
114	0x3c7ade66	0.015311813
115	0x3c1bef77	0.009517542
116	0x3b367217	0.0027839
117	0xbd1033fb	-0.035205822
118	0xbd11e576	-0.03561922
119	0x3d013dad	0.03155296
120	0x3cefb939	0.029263126
121	0x3c65342a	0.013989488
122	0x3d244c95	0.040112097
123	0xbd015231	-0.031572524
124	0x3d2faa75	0.04288717
125	0x3c2526f2	0.010080086
126	0x3d3c6845	0.045997877
127	0xbd420452	-0.0473674
128	0xbc5456b4	-0.012960125
129	0xbc89f9ed	-0.016842807
130	0xbbec7d85	-0.0072171115
131	0xbd2114ec	-0.039326593
132	0x3cc9b29a	0.024621297
133	0x3c0cf280	0.008602738
134	0xbc46fe2b	-0.012145559
135	0x3d2a0a87	0.041513946
136	0x3d277c24	0.040889874
137	0x3cab0def	0.020880667
138	0x3cbec598	0.02328758
139	0xbd080885	-0.03321125
140	0xbc36fb41	-0.011168302
141	0xbc02e17e	-0.007988332
142	0x3cb37624	0.02190692
143	0x3d36b001	0.044601444
144	0x3d25f331	0.04051513
145	0xbc7729c5	-0.015085642
146	0x3cc60b34	0.024175264
147	0xbc64f9db	-0.013975586
148	0x3c8fb980	0.017544508
149	0xbc8bf0bd	-0.017082566
150	0xbcb9a9ad	-0.022663916
151	0x3d0144e9	0.03155986
152	0x3d2b4e25	0.04182257
153	0xbccb2fb4	-0.02480302
154	0xbd15613e	-0.03646969
155	0x3c8b79f4	0.017025925
156	0x3d088f6b	0.0333399
157	0xbd189e67	-0.03726044
158	0xbc5ec0fd	-0.013595817
159	0xbc9cdda5	-0.019148657
160	0xbc969ef8	-0.01838635
161	0x3cf2b67f	0.029628037
162	0xbd0a6805	-0.033790607
163	0x3d041c0f	0.03225332
164	0xbc83a534	-0.016069986
165	0x3d0f7966	0.035027884
166	0xbc77354a	-0.015088389
167	0xbcdafe82	-0.026732687
168	0x3c3f1f4e	0.011665178
169	0xbcaf5450	-0.021402508
170	0xbc9c1f56	-0.01905791
171	0x3c8d7b27	0.017270638
172	0xbd386af2	-0.045023866
173	0xbd166bdd	-0.03672396
174	0x3ccac312	0.02475122
175	0x3ae84cfc	0.0017723138
176	0x3d0fd1c4	0.035112157
177	0x3c07dfaf	0.008293076
178	0x3cebfebb	0.028807988
179	0x3cfefc7b	0.031126251
180	0xbca6fbca	-0.020383734
181	0xbc80c5a2	-0.015719239
182	0xbb723e48	-0.0036963392
183	0xbc94dacf	-0.018170742
184	0xbb191b64	-0.0023362273
185	0xbd39e62d	-0.04538553
186	0xbd300d69	-0.04298154
187	0x3cb6494b	0.022251746
188	0x3c7258a2	0.0147916395
189	0xbb9590ce	-0.004564381
190	0x3c6cda6b	0.014456372
191	0xbc21d736	-0.00987797
192	0xbd21672a	-0.039405026
193	0xbd0b8aff	-0.034068104
194	0xbcb17ef8	-0.021666989
195	0x3c7ce5d8	0.015435658
196	0x3caa4aa0	0.020787537
197	0x3cf86cb0	0.030325264
198	0x3d2b97c3	0.041892778
199	0xbbb1a34f	-0.005421079
200	0xbc526717	-0.012841961
201	0x3ca0780d	0.019588495
202	0x3d243a92	0.04009492
203	0xbb4e0d5b	-0.0031441066
204	0xbce2fccd	-0.027708435
205	0x3984802c	0.00025272497
206	0xbcd03fff	-0.02542114
207	0x3c1f6a8c	0.009729993
208	0x3bdf74ae	0.006819329
209	0x3cda7008	0.026664749
210	0xbb38e19f	-0.0028210653
211	0xbc37a019	-0.011207604
212	0xbc8010c8	-0.015633002
213	0x3cf2a9fc	0.02962207
214	0xbd18a18a	-0.03726343
215	0xbcedc29c	-0.029023461
216	0xbd38b427	-0.04509368
217	0x3d3d704f	0.046249684
218	0x3c5d7977	0.013517729
219	0xbcc25e55	-0.023726622
220	0x3d55a569	0.0521597
221	0x3c18b92b	0.009321491
222	0xbcc9ad58	-0.02461879
223	0xbd1d8132	-0.03845329
224	0x3cfa5795	0.03055934
225	0x3ba73039	0.005102184
226	0xbc6c8fc4	-0.014438573
227	0x3b2010fe	0.002442419
228	0xbce72e33	-0.028220272
229	0xbd0e753b	-0.03477977
230	0x3d2fde8c	0.042936847
231	0xbc46cd9f	-0.012133985
232	0xbc4a01e7	-0.012329555
233	0x3d073d8f	0.03301769
234	0xbc9ec6d6	-0.019381922
235	0xbca223b3	-0.019792413
236	0xbc7355cc	-0.014851999
237	0x3cfa35a7	0.030543162
238	0xbd1395cf	-0.03603154
239	0xbc2bec5e	-0.010493366
240	0xbc2a634a	-0.010399649
241	0xbd11897b	-0.035531502
242	0xbc53ae38	-0.012919955
243	0xbd318caa	-0.04334704
244	0xbd22fb3b	-0.039790373
245	0xbcb7d294	-0.022439279
246	0x3bfed206	0.0077765016
247	0xbd347cc8	-0.044064313
248	0x3c626fe2	0.01382062
249	0xbd20bf71	-0.039245073
250	0xbd1a8f1a	-0.03773413
251	0x3d43e72c	0.047827885
252	0x3d45efba	0.048324324
253	0x3c6bae0e	0.01438476
254	0x3d5175db	0.051137786
255	0x3b9306d6	0.004486899

bias f4 [8]
0	0x3c13d3d3	0.009022671
1	0xbd1c212c	-0.038117573
2	0xbccd863a	-0.025088418
3	0x3c7af7b3	0.015317845
4	0x3cad0a9a	0.02112322
5	0x3ced8c98	0.028997704
6	0x3d08297e	0.033242695
7	0x3c444c7c	0.011981126

weight f4 [256, 648]
0	0xbd19e3b9	-0.03757069
1	0x3d1cdaf6	0.038294755
2	0xbcb65a44	-0.022259839
3	0xbcf4f9ad	-0.029904211
4	0x3cd137fa	0.025539387
5	0x3c64c39d	0.013962653
6	0x3cb6170b	0.022227785
7	0x3b8aa86a	0.0042315023
8	0x3cea77a5	0.028621504
9	0xbcca1b9e	-0.024671372
10	0x3cda4abd	0.026646966
11	0xbc2a383d	-0.010389385
12	0xbc47256e	-0.01215492
13	0xbcf15c09	-0.029462831
14	0xbcab26e9	-0.020892577
15	0xbcd7962b	-0.026316723
16	0x3b43f67a	0.002990155
17	0x3c9de295	0.019273082
18	0x3c52d752	0.012868719
19	0xbd0020c6	-0.031281255
20	0xbc4b9897	-0.012426517
21	0xbc5e1a34	-0.013556052
22	0xbbe67da3	-0.00703402
23	0x3c781a51	0.015142993
24	0x3cfa851f	0.030581055
25	0x3cc949d0	0.02457133
26	0x3b2f48eb	0.0026746343
27	0x3d05cf19	0.032668207
28	0xbd08b49a	-0.03337536
29	0x3c473a85	0.012159948
30	0xbbe454bf	-0.0069681103
31	0xbd163bf6	-0.036678277
32	0x3c3e4b5b	0.011614646
33	0x3c727236	0.014797738
34	0x3c9fd9fd	0.019513125
35	0x3d122105	0.03567602
36	0x3cb2ef32	0.021842573
37	0xbce7d896	-0.028301518
38	0x3c1e32b5	0.009655644
39	0x3c8271f6	0.015923481
40	0x3bf7a84f	0.0075579057
41	0xbcdb44f7	-0.026766283
42	0xbcd7a8b1	-0.026325556
43	0xbbed326e	-0.0072386777
44	0xbd14ac72	-0.03629727
45	0x3a975770	0.0011546444
46	0x3ba730c5	0.0051022493
47	0x3d0f6681	0.035009865
48	0xba4255d9	-0.0007413305
49	0x3bdc2223	0.0067179366
50	0x3c6f03d0	0.014588311
51	0x3cc9dd19	0.02464156
52	0xbb7c40f1	-0.0038490857
53	0xb82d6ae7	-4.1345975e-05
54	0xbc54a99f	-0.012979894
55	0xbcdaadbb	-0.02669417
56	0x3c8f2806	0.01747514
57	0xbd1462a8	-0.0362269
58	0x3c18f0b9	0.0093347365
59	0xbc72aced	-0.0148117365
60	0xbcbd68d1	-0.02312127
61	0x3d1c52cf	0.03816491
62	0xbc228bfc	-0.00992107
63	0xbbcf2b73	-0.006322318
64	0x3c3d16ce	0.011541082
65	0xbcdaa95b	-0.026692083
66	0xbce16f96	-0.027519029
67	0x3cef86fb	0.029239168
68	0xbcdaad8c	-0.026694082
69	0x3d06874f	0.032843884
70	0xbb283bb6	-0.0025670356
71	0x3c0f49e4	0.008745644
72	0x3cc74d19	0.024328755
73	0x3cb18e66	0.021674346
74	0xbb4473c3	-0.0029976226
75	0xbc731814	-0.014837284
76	0x3cbb17e4	0.02283854
77	0x3bd58bd1	0.0065169116
78	0x3c8689d0	0.016423136
79	0xbb321d5b	-0.0027178142
80	0xbd0d07a8	-0.03443113
81	0x3d051a08	0.03249553
82	0x3c2df554	0.010617573
83	0x3ceaf0a4	0.0286792
84	0x3cbe1928	0.023205355
85	0xb9b1c3c0	-0.00033905916
86	0xbb98ef10	-0.0046671703
87	0x3ce8999f	0.028393565
88	0x3bfad5d8	0.0076548867
89	0xbb224b2b	-0.0024764042
90	0x3cb0bb50	0.021573693
91	0x3ac8bb9a	0.0015314699
92	0xbcdd2d5a	-0.026999164
93	0xbc969d80	-0.018385649
94	0x3c638901	0.013887645
95	0x3ceeeb35	0.02916489
96	0x3b9d29f8	0.004796263
97	0xbce89de3	-0.028395599
98	0xbc28ca0d	-0.010302079
99	0x3c859202	0.016304974
100	0x3cd39e3b	0.025832286
101	0xbcd53d28	-0.026030138
102	0x3b3f17c4	0.0029158453
103	0xbcfe745a	-0.03106134
104	0xbcefe4b7	-0.029283864
105	0x3cf334b6	0.02968822
106	0x3b8a5e81	0.0042226915
107	0x3cf1ce88	0.029517427
108	0x3c11a6e9	0.008889892
109	0xbcd9aa83	-0.026570564
110	0x3c3cb328	0.011517324
111	0x3d0d861e	0.034551732
112	0xbcc997d9	-0.02460854
113	0x3c920253	0.017823374
114	0x3c8043b6	0.015657287
115	0xbd0b68c6	-0.034035467
116	0xbc909222	-0.017647807
117	0xbc592c74	-0.013255227
118	0x3ca87cdc	0.02056735
119	0x3bc2191a	0.0059234025
120	0x3adb9b6f	0.0016754697
121	0xbbdfd8a4	-0.0068312455
122	0xbb3fa7b7	-0.0029244253
123	0x3be8828e	0.0070956415
124	0x3d08191d	0.033227075
125	0xbb5a52f1	-0.0033313597
126	0xbccaf70e	-0.024776008
127	0xbcb1d1cf	-0.02170649
128	0x3c99cea2	0.018775288
129	0xbc059054	-0.008152086
130	0xba454d4c	-0.0007526472
131	0x3c9f6720	0.019458354
132	0x3b824012	0.003974923
133	0x3cb55a92	0.022137914
134	0x3c4c23c3	0.012459698
135	0xbcb3fad3	-0.021970188
136	0xbb1327f7	-0.002245424
137	0x3c8857d3	0.01664344
138	0x3c35145b	0.011052216
139	0x3c3981cb	0.011322449
140	0x3c95ef81	0.01830268
141	0xbc20ae71	-0.009807215
142	0xbced0b4a	-0.028936047
143	0x3b4d7f20	0.003135629
144	0xbb29db79	-0.002591817
145	0x3bc2fb87	0.0059503946
146	0x3cf78c41	0.030218245
147	0x3c16f882	0.009214522
148	0xbab23e26	-0.0013598844
149	0xbd05205b	-0.03250156
150	0xbceeb7f3	-0.029140448
151	0xbc62ed11	-0.013850466
152	0x3ce7ea3d	0.028309936
153	0x3c4363ac	0.011925619
154	0xbd0d06c5	-0.034430284
155	0xbc89aa07	-0.016804708
156	0xbcb7f483	-0.02245546
157	0xbcaf852a	-0.021425802
158	0xbcaf2ea0	-0.021384537
159	0xbd0fc896	-0.035103403
160	0xbc5332ae	-0.012890501
161	0xbce90de9	-0.028449016
162	0x3b994308	0.00467718
163	0xbd0f1dde	-0.034940593
164	0x3d186afa	0.037211396
165	0xbc748d89	-0.014926323
166	0xbca1417a	-0.019684542
167	0x3ca78c99	0.020452784
168	0xbcbabae6	-0.022794198
169	0xbd0422f7	-0.032259908
170	0x3c2f88b8	0.010713749
171	0x3c8d687b	0.017261734
172	0xbca7f972	-0.020504687
173	0x3c0c0401	0.0085458765
174	0x3baf9db8	0.0053593777
175	0xbc85b4ba	-0.016321529
176	0xbc423057	-0.011852345
177	0xbc80ab05	-0.015706548
178	0xbbc11ad5	-0.005893091
179	0x3c3cc7ab	0.011522214
180	0x3b820340	0.0039676726
181	0x3c701c01	0.014655114
182	0x3bb07043	0.0053844764
183	0xbc43fb78	-0.01196181
184	0xba4d6a4f	-0.00078359706
185	0xbc0778f3	-0.008268583
186	0x3cd50f04	0.026008137
187	0xbb67a4f3	-0.003534612
188	0xbc942453	-0.018083727
189	0x3cdd8bb5	0.027044157
190	0x3c4ece57	0.012622437
191	0x3d0725cc	0.03299503
192	0x3b9e955a	0.0048395814
193	0xbbee317f	-0.007269084
194	0xbcf44408	-0.029817596
195	0xbd0a026d	-0.03369372
196	0xbd090b1f	-0.03345787
197	0xbcd04cf8	-0.025427327
198	0x3b3f0d8a	0.0029152357
199	0x3b37942f	0.0028011908
200	0x3d13b844	0.0360644
201	0xba9a5497	-0.0011774477
202	0x3c7095de	0.014684169
203	0xbb974242	-0.004616053
204	0x3d1c67fe	0.038185112
205	0xbcbbf572	-0.022944186
206	0xbd156aba	-0.036478736
207	0x3bb76ece	0.0055979257
208	0xbd027880	-0.0318532
209	0xbcec8298	-0.028870866
210	0xbd2006c9	-0.03906897
211	0xbc0db0c1	-0.008648098
212	0xbb65023f	-0.0034943966
213	0x3cf80df0	0.030280083
214	0x3cfe4153	0.031037008
215	0xbcd9b77b	-0.026576748
216	0x3c8d788b	0.017269393
217	0x3c2ddb67	0.010611392
218	0x3d0b9059	0.034073208
219	0x3cb158b5	0.021648744
220	0xbcb90295	-0.022584239
221	0xbcfdc7c1	-0.03097904
222	0xbd00a7a6	-0.031409882
223	0xbc78ff88	-0.015197642
224	0x3cd6d816	0.026226085
225	0xbb1326fd	-0.0022453659
226	0x3cca261a	0.024676371
227	0x3cd893b4	0.026437618
228	0x3cc73e71	0.024321767
229	0x3cfb1ab1	0.030652376
230	0x3c98fbb6	0.018674713
231	0xbc41c45e	-0.011826603
232	0x3bfd28c2	0.007725806
233	0x3cd8228e	0.026383664
234	0x3d16cb20	0.03681481
235	0xbc0dc1c3	-0.008652153
236	0x3ca87576	0.020563822
237	0xbd0d0a39	-0.034433577
238	0xbcfc49ae	-0.030796852
239	0xbd00c670	-0.031439245
240	0x3ce69132	0.028145406
241	0x3cc30ecb	0.023810765
242	0x3ca51c88	0.020155206
243	0xbc9fdf4b	-0.019515654
244	0x3b523e36	0.0032080538
245	0xbd186e68	-0.037214667
246	0xbcd94ea5	-0.026526758
247	0xbc0bd9cc	-0.008535814
248	0xbcf72a8a	-0.030171651
249	0xbd20f1e5	-0.03929319
250	0xbcc166d9	-0.023608612
251	0x3b46d683	0.0030340261
252	0xbd0ff917	-0.03514966
253	0xbc2cfe17	-0.010558627
254	0x3c9f4ffc	0.01944732
255	0xbbed0f6b	-0.007234504

bias f4 [256]
0	0x3c8c819b	0.017151644
1	0x3d1d7a6e	0.038446836
2	0xbd0b02a7	-0.033938076
3	0xb96db675	-0.00022670052
4	0xbcb6c7c2	-0.022312049
5	0x3be2aaf2	0.006917351
6	0x3ceb0fbe	0.02869403
7	0x3b294b31	0.002583217
8	0x3c7cd2b5	0.015431096
9	0xbd141ad3	-0.036158394
10	0xbcf4690d	-0.029835248
11	0xbc8f36c1	-0.017482163
12	0x3cbc188f	0.02296093
13	0xbcd38d31	-0.025824161
14	0xbb1cb580	-0.0023911893
15	0x3cabafee	0.020957913
16	0xbcecdd23	-0.02891404
17	0xbcd3242b	-0.025774082
18	0xbca36cb6	-0.019949298
19	0xbcd095d9	-0.025462078
20	0x3cebd0cd	0.028786087
21	0x3c70f330	0.014706418
22	0x3cd56ef2	0.02605388
23	0x3d1968e9	0.037453566
24	0xbd1d0068	-0.038330466
25	0x3aa740fe	0.0012760458
26	0x3c345cc1	0.011008442
27	0xbcc3af5f	-0.023887334
28	0x3b934d08	0.004495267
29	0xbc86cb09	-0.016454237
30	0xbceca9fb	-0.028889647
31	0x3c1322ea	0.008980492
32	0xb9b8032c	-0.00035097578
33	0x3ad70d3f	0.0016407146
34	0xbcb18f8b	-0.021674892
35	0x3b157449	0.0022804907
36	0x3cb773af	0.02239403
37	0xbd0376b1	-0.032095615
38	0xbb0f576b	-0.0021872174
39	0xbd1058c2	-0.035240896
40	0x3bb8e10f	0.0056420635
41	0xbccb6184	-0.024826773
42	0x3a9f6f20	0.0012163855
43	0xbcd45a0e	-0.025921848
44	0x3cbce33e	0.023057576
45	0xbc86b74e	-0.016444828
46	0xbcb818bc	-0.022472732
47	0xbc019f43	-0.007911506
48	0x3c006864	0.007837389
49	0x3d1db2cd	0.038500596
50	0x3b2da8e2	0.0026498367
51	0x3c85a359	0.016313242
52	0x3b5a6a51	0.003332753
53	0xbce35a1c	-0.027752928
54	0xbcdab09e	-0.026695546
55	0xbcc2c4e2	-0.023775522
56	0xbcb62146	-0.022232663
57	0xbc5d928e	-0.013523711
58	0x3cc4c292	0.02401856
59	0xbb75977b	-0.0037474323
60	0x3b40a93b	0.0029397744
61	0xbc8928c8	-0.016743079
62	0xbcf26715	-0.029590169
63	0x3ca8e483	0.020616775
64	0xbcc0759e	-0.023493584
65	0x3ba7abde	0.0051169237
66	0x3ac8c806	0.0015318401
67	0x3c46c9f0	0.012133107
68	0xbd015253	-0.03157265
69	0xbbd8ec10	-0.0066199377
70	0xbb63a78b	-0.0034737315
71	0x3c1d4020	0.009597808
72	0xbcae41ec	-0.021271668
73	0x3b5491a3	0.003243544
74	0xbc131926	-0.008978164
75	0xbd077599	-0.033071134
76	0x3cf71e38	0.030165777
77	0x3b1b4775	0.0023693715
78	0x3c02a18b	0.007973085
79	0x3d18f3f6	0.037342034
80	0xbc0392ef	-0.008030637
81	0x3c9e549c	0.019327454
82	0x3d0db9c7	0.034601
83	0x3cd5c49d	0.02609473
84	0x3caa2bd7	0.020772858
85	0xbcfc178e	-0.03077295
86	0xbca4636c	-0.02006694
87	0x3c81201b	0.01576238
88	0x3d1eff0d	0.038817454
89	0x3d0f6a5d	0.035013545
90	0x3c9aa882	0.018879179
91	0xbb956cd8	-0.0045600943
92	0xbd178048	-0.036987573
93	0x3cc2f83d	0.02380001
94	0xbd0de3eb	-0.034641188
95	0xbc9338ec	-0.017971478
96	0x3d03d905	0.032189388
97	0x3ce60907	0.028080476
98	0xbce38b1b	-0.027776292
99	0x3d02fb8d	0.03197818
100	0xbc8a2047	-0.016861094
101	0x3ccc0cb6	0.024908405
102	0xbcc1e0fe	-0.023666855
103	0x3d0a190d	0.033715297
104	0x3c290864	0.010316942
105	0xbb2731f4	-0.0025511952
106	0xbcc61ec6	-0.024184596
107	0xbccf1156	-0.025276821
108	0x3c8fa341	0.0175339
109	0x3b475241	0.0030414017
110	0xbce8e205	-0.028428087
111	0xbc8fc340	-0.017549157
112	0xbc90910e	-0.017647292
113	0xbc66afa9	-0.014079967
114	0xbc6d68d0	-0.014490321
115	0xbc70ca36	-0.014696648
116	0x3d08924b	0.03334264
117	0x3af5a768	0.0018741908
118	0x3ce1139d	0.027475173
119	0xbd1a0798	-0.0376049
120	0xbd07236c	-0.032992765
121	0xbd01ac04	-0.031658188
122	0x3cc94e19	0.024573373
123	0xbd07e63d	-0.033178557
124	0x3d1c3a61	0.038141612
125	0x3d0e04a8	0.03467241
126	0x3c9bfd13	0.019041574
127	0x3d108bff	0.03528976
128	0xbcd44f73	-0.02591679
129	0xbb9d9a5e	-0.004809662
130	0x3cac4a44	0.021031506
131	0xbc5c8810	-0.013460174
132	0x3c92f9bf	0.017941354
133	0x3ca4c2ac	0.020112358
134	0x3d06e4f3	0.032933187
135	0x3c4b1225	0.012394463
136	0xbb6de194	-0.0036297785
137	0x3ca7a823	0.020465916
138	0xbca95bf9	-0.020673739
139	0xbaaf17a0	-0.0013358481
140	0x3c579816	0.013158819
141	0xbc8bba70	-0.017056674
142	0x39e4780b	0.00043576988
143	0x3bc68e48	0.0060594417
144	0x3c9c3bcc	0.019071482
145	0x3c96ead1	0.018422516
146	0xbc8c32d6	-0.017114084
147	0xbd05553e	-0.032551996
148	0x3c882903	0.016621118
149	0x3cc4102c	0.023933493
150	0x3d1077ed	0.03527062
151	0x3d070ccb	0.032971185
152	0x3cce5691	0.025187762
153	0xbc073954	-0.008253414
154	0xbc8467d9	-0.0161628
155	0xbd0cff76	-0.034423314
156	0x3cf52f82	0.02992988
157	0x3c9a03e0	0.018800676
158	0x3b4d5f5a	0.0031337352
159	0x3d1dc7e8	0.038520724
160	0x3c281928	0.010259904
161	0x3cbf0624	0.023318358
162	0x3c2e0f8d	0.010623825
163	0x3bdb021f	0.0066836025
164	0x3d22e137	0.039765563
165	0x3d1af757	0.037833538
166	0x3ccd6723	0.025073593
167	0x3d0e2568	0.034703642
168	0xbca4fd40	-0.02014029
169	0x3ca194ce	0.019724276
170	0x3c9b1592	0.018931184
171	0x3c96a4ef	0.018389193
172	0x3c93b571	0.018030854
173	0xbcd98ee4	-0.026557393
174	0xbcc59224	-0.024117537
175	0x3d11ab79	0.03556392
176	0xbc0a5c4e	-0.008444859
177	0x3d18912b	0.037247818
178	0xbc3aa437	-0.011391691
179	0x3cb774a9	0.022394495
180	0xbcf8cec0	-0.030372024
181	0xbc8b29ef	-0.016987769
182	0xbce121a2	-0.027481858
183	0x3c1c5e8a	0.009544024
184	0xbce22b30	-0.027608484
185	0x3c4de46e	0.012566669
186	0xbcc2329e	-0.023705777
187	0x3c83d335	0.016091922
188	0xbcb14d89	-0.021643417
189	0xbd0b9e17	-0.034086313
190	0xbbf17fd0	-0.0073699728
191	0xbb2a6fdc	-0.0026006615
192	0xbc43c3dc	-0.011948552
193	0x3c43cd44	0.011950795
194	0xbd0a7631	-0.033804122
195	0xbc9c8fcb	-0.019111535
196	0x3ce62b7b	0.028096905
197	0x3cefb6b6	0.029261928
198	0xbca02828	-0.019550398
199	0xbcf67d92	-0.030089173
200	0xbc6a5df9	-0.014304631
201	0x3cbbf67c	0.022944681
202	0xbd11d0df	-0.035599586
203	0xbb3e1a38	-0.0029007327
204	0x3c2728b1	0.010202573
205	0xbc92ff48	-0.017943993
206	0x3b7ee59e	0.0038894187
207	0xbd0c0cab	-0.03419177
208	0xbce942e5	-0.02847428
209	0xbc702741	-0.014657796
210	0x3cd580b8	0.026062354
211	0x3b3b3d26	0.0028570383
212	0x3c8e85a6	0.017397713
213	0xbce0d3b6	-0.027444702
214	0xbc7fa7eb	-0.015604
215	0x3ca240fe	0.019806381
216	0x3d0a33fc	0.033740982
217	0x3cab525e	0.0209133
218	0x3ade828c	0.0016976162
219	0x3cc51c53	0.024061358
220	0xbc44f86b	-0.012022118
221	0xbd1b35f3	-0.037893247
222	0x3c4d1b64	0.012518737
223	0x3ca701de	0.020386633
224	0x3ca648f0	0.020298451
225	0x3d099f1d	0.033599008
226	0xbc4b6193	-0.0124134
227	0xbd178dd6	-0.0370005
228	0x3c44103e	0.011966763
229	0xbbc568dd	-0.0060244636
230	0x3aa5de68	0.0012654783
231	0xbd043e86	-0.03228619
232	0xbb72b7c8	-0.0037035812
233	0x3d088044	0.03332545
234	0xbcf20927	-0.02954538
235	0xbcff2325	-0.031144688
236	0xbb5b4dc6	-0.0033463105
237	0xbbe3f6c5	-0.0069569075
238	0xbc978bae	-0.018499222
239	0xbcbcc2a6	-0.023042034
240	0xbc3a49a6	-0.011370098
241	0xbc1f12c0	-0.00970906
242	0xbd1943e7	-0.037418272
243	0x3b86cbdf	0.004113659
244	0xbbcf96e0	-0.0063351244
245	0x3be325fe	0.0069320193
246	0xbc99c12b	-0.018768867
247	0x3d1e14c3	0.03859402
248	0xbcb28ada	-0.021794725
249	0xbced4a3b	-0.02896606
250	0xbc971f11	-0.01844743
251	0x3b8f698a	0.004376595
252	0x3c93e8d2	0.018055353
253	0x3d22c744	0.039740816
254	0xbca0ada7	-0.019614054
255	0xbc21a195	-0.009865184

weight f4 [64, 256]
0	0xbd67993e	-0.056542628
1	0xbbb9f4f5	-0.005674953
2	0xbc7bbd4b	-0.015364955
3	0xbd22cd62	-0.03974665
4	0xbd4335bf	-0.04765868
5	0xbd4ba63e	-0.049719088
6	0x3c4c57d8	0.012472115
7	0x3d4dbaec	0.05022709
8	0x3d3eac80	0.046551228
9	0x3c4061c3	0.011742058
10	0xbcc96cab	-0.02458795
11	0x3d679850	0.05654174
12	0xbca98df5	-0.020697573
13	0x3d286f1a	0.04112158
14	0x3c0c4f2f	0.008563801
15	0x3d3e986b	0.046532076
16	0xbd711c8c	-0.058865115
17	0xbd730efc	-0.059340462
18	0xbd37eaf2	-0.044901796
19	0x3cda91fa	0.026680935
20	0xbc1ac448	-0.009446211
21	0x3d53bcae	0.05169361
22	0x3d5f2e0e	0.05448728
23	0x3cbe044e	0.023195412
24	0xbd4c4df7	-0.04987904
25	0xbcaa4373	-0.020784115
26	0xbbd1384f	-0.0063848863
27	0x3d3a0ca1	0.0454222
28	0x3d4ff068	0.05076638
29	0x3bf0af90	0.0073451474
30	0xbcc48374	-0.023988463
31	0xbcad3f04	-0.021148212
32	0x3d655e06	0.05599787
33	0xbd08bbf9	-0.03338239
34	0xbd1f290d	-0.03885751
35	0x3d2aba82	0.041681774
36	0x3d3b13be	0.045673124
37	0xbd238b82	-0.039927967
38	0x3cdbeca2	0.026846234
39	0xbd36cc5a	-0.04462848
40	0xbd147ed4	-0.036253765
41	0x3b1a1c40	0.0023515373
42	0x3c6c8eb8	0.014438324
43	0xbd6396a7	-0.055563595
44	0x3c25de15	0.010123749
45	0xbcf41495	-0.02979497
46	0x3d11bd94	0.035581186
47	0x3d195b38	0.03744051
48	0xbc9938f4	-0.018703915
49	0x3d70215a	0.058625557
50	0xbd59ee58	-0.053205818
51	0x3d481590	0.04884869
52	0xbd1a73ec	-0.037708208
53	0x3d758ba8	0.05994764
54	0xbbf10d80	-0.0073563457
55	0x3c771150	0.015079811
56	0x3d247315	0.040148813
57	0x3d2ad81a	0.041709997
58	0xbd24368a	-0.040091075
59	0x3cccb28a	0.024987478
60	0x3c4032b0	0.011730835
61	0xbd7c221c	-0.061555967
62	0xbc9b8fa4	-0.018989392
63	0xbcd06502	-0.02543879
64	0xbd210ff7	-0.039321866
65	0x3c53f2ba	0.0129362885
66	0xbcb88c64	-0.022527881
67	0xbc8f071d	-0.017459447
68	0x3d55f1e5	0.05223264
69	0x3d4e593a	0.05037806
70	0xbcdddb4a	-0.027082104
71	0xbd16519d	-0.036698926
72	0xbd0e5a97	-0.034754362
73	0x3ca0a800	0.019611359
74	0x3d317daa	0.043332733
75	0xbd1b10b1	-0.037857715
76	0x3d085fae	0.033294372
77	0x3d3a4a75	0.045481164
78	0xbc73cb30	-0.014879987
79	0x3c1fa3af	0.009743615
80	0xbbd12946	-0.006383094
81	0x3ceecc8c	0.02915027
82	0x3d527995	0.05138548
83	0x3c969c23	0.018384999
84	0x3d090747	0.033454206
85	0x3d4c811d	0.04992782
86	0x3ccd35c8	0.025050059
87	0xbccd597c	-0.025067084
88	0x3d7139b3	0.058892917
89	0xbce897df	-0.02839273
90	0x3d091098	0.03346309
91	0xbd5657ce	-0.05232983
92	0xbc2241f8	-0.0099034235
93	0x3cbc30f8	0.022972569
94	0xbd192a3e	-0.0373938
95	0xbd5c5aee	-0.053797655
96	0xbc9fabe7	-0.01949115
97	0xbcf7b551	-0.030237826
98	0xbbd3d340	-0.006464392
99	0x3d4fe88d	0.050758887
100	0xbd2ac7ad	-0.041694332
101	0xbd1030b4	-0.035202697
102	0x3d61265a	0.054968216
103	0xbd7e0364	-0.062014952
104	0x3c17017b	0.009216662
105	0xbbd234ca	-0.0064149844
106	0xbd00d89c	-0.031456575
107	0x3d2c39b4	0.042047217
108	0x3d4180e5	0.047242064
109	0xbc31b062	-0.010845276
110	0xbc5d3835	-0.01350217
111	0x3d053e9c	0.032530412
112	0x3ccf7afd	0.0253272
113	0xbd75c059	-0.05999789
114	0xbd4a65b2	-0.04941339
115	0x3d7dc3ce	0.061954312
116	0xbd17037e	-0.036868565
117	0x3d759491	0.059956137
118	0x3d1af49e	0.03783094
119	0x3d0981cc	0.03357105
120	0xbd2f57e9	-0.042808447
121	0x3d5ff102	0.054673202
122	0x3d0841d2	0.033265896
123	0xbc301840	-0.010747969
124	0x3d3eca2a	0.046579517
125	0x3d4f724c	0.05064611
126	0xbcdb32f4	-0.026757695
127	0xbc5c9621	-0.013463528
128	0x3d28e272	0.04123158
129	0x3d652c3a	0.05595038
130	0x3cbaf26b	0.022820672
131	0xbd365443	-0.044513952
132	0xbcbbba63	-0.022916025
133	0xbcf50b2c	-0.029912554
134	0xbcc443a0	-0.023958027
135	0xbd7e1dac	-0.062040016
136	0x3d23a234	0.03994961
137	0x396bd862	0.00022491955
138	0xbd3b3737	-0.045706954
139	0x3c6c0e48	0.014407702
140	0xbd40e410	-0.047092497
141	0x3d1f664a	0.03891591
142	0x3d700c22	0.05860532
143	0xb6aae34d	-5.092856e-06
144	0x3cbdf774	0.023189284
145	0x3d12b0f6	0.035813294
146	0x3d7e0fb8	0.06202671
147	0x3b45ae40	0.0030163676
148	0x3d06ac45	0.032879133
149	0x3cf95349	0.030435221
150	0xbce022d6	-0.027360361
151	0xbd0f9886	-0.035057567
152	0xbb89e0c7	-0.0042077038
153	0xbd3c8b4d	-0.046031285
154	0xbc1ff2e8	-0.009762503
155	0x3d6f3df8	0.058408707
156	0x3d357e6e	0.044310026
157	0xbcc9d089	-0.02463557
158	0x3c36b038	0.011150412
159	0x3d06cb36	0.03290864
160	0xbcaf4260	-0.021393955
161	0x3d67e5e4	0.056615725
162	0x3b56a575	0.0032752429
163	0x3d5e78ac	0.0543143
164	0xbd5f6212	-0.054536887
165	0x3c8c9620	0.017161429
166	0x3cbb2360	0.022844017
167	0xbd4abb05	-0.049494762
168	0xbd29135f	-0.04127824
169	0xbd2e9d14	-0.04263027
170	0xbc225c19	-0.009909653
171	0xbc97ef01	-0.018546583
172	0xbc40ef9d	-0.011775878
173	0xbd7d2d5c	-0.061810836
174	0xbd7de904	-0.0619898
175	0x3d2d9dec	0.042386934
176	0x3d00b9e7	0.03142729
177	0x3d5ced55	0.053937275
178	0xbd4021e9	-0.04690734
179	0xbd6a6abf	-0.057230707
180	0x3d46c75a	0.04852996
181	0xbd2be706	-0.041968368
182	0x3ca58ad4	0.0202078
183	0xbd57a8dc	-0.05265127
184	0x3d7244bd	0.059147585
185	0xbd337db3	-0.043821048
186	0xbb7ba07c	-0.0038395217
187	0xbc328515	-0.010895987
188	0x3d612af1	0.054972593
189	0x3d5160c6	0.05111768
190	0xbba51780	-0.005038202
191	0xbd58585b	-0.052818637
192	0x3c73c766	0.014879083
193	0x3cc5876c	0.024112426
194	0x3d2b42b8	0.041811675
195	0x3c4f7ef6	0.012664547
196	0x3c8c801a	0.017150927
197	0x3d254f5e	0.040358894
198	0xbd572384	-0.052524105
199	0xbc8e178c	-0.017345212
200	0x3d0a5ecf	0.033781823
201	0xbd0789b6	-0.033090316
202	0x3c3fbe70	0.011703119
203	0x3c8b8e12	0.017035518
204	0xbd2f784e	-0.04283934
205	0xbcb57b7c	-0.022153609
206	0xbd31107b	-0.043228608
207	0xbd16651b	-0.036717515
208	0xbd0f1c35	-0.03493901
209	0xbd04df10	-0.03243929
210	0xbcd20a31	-0.025639625
211	0x3d42b7c7	0.047538545
212	0xbd400b2a	-0.046885647
213	0xba8ed930	-0.0010898467
214	0x3d60f154	0.05491765
215	0x3d55062f	0.05200785
216	0x3c45f5bd	0.012082514
217	0x3d7468a0	0.05967009
218	0xbd60ddd9	-0.05489907
219	0xbccef29f	-0.025262175
220	0x3cbf7fe1	0.023376407
221	0xbd711644	-0.058859125
222	0xbcf69c88	-0.030103937
223	0x3d5ec831	0.054390136
224	0x3c776d78	0.015101783
225	0xbd4a0ebe	-0.049330465
226	0xbd1ba2f4	-0.0379972
227	0x3d14e408	0.03635028
228	0xbc8b68a3	-0.017017668
229	0xbd40b3b2	-0.04704637
230	0xbd0bdff0	-0.03414911
231	0x3c7656a8	0.015035309
232	0xbd67ee14	-0.056623533
233	0xbc353d35	-0.011061956
234	0xbd12bec2	-0.035826452
235	0xbd1d650c	-0.038426444
236	0xbc5368c8	-0.0129034
237	0xbb1b4321	-0.0023691135
238	0x3d7fb48e	0.06242805
239	0xbcddf9e8	-0.027096704
240	0x3d444fdc	0.047927722
241	0xbd054f5c	-0.032546386
242	0x3d299208	0.041399032
243	0xbc980daa	-0.018561203
244	0x3c2149c8	0.009844251
245	0xbd26a1c8	-0.04068163
246	0x3ceca8ec	0.028889142
247	0x3d7200ba	0.059082724
248	0x3a9a6b0a	0.0011781168
249	0xbd68c0ef	-0.05682462
250	0xba765d79	-0.0009398084
251	0xb7001afe	-7.635679e-06
252	0xbc97c640	-0.01852715
253	0x3d1adc8e	0.037807994
254	0x3cba4804	0.022739418
255	0x3d3b2eb0	0.04569882

bias f4 [64]
0	0xbd16f474	-0.036854222
1	0xbd3a7deb	-0.04553024
2	0x3ccec9c5	0.025242696
3	0xbd6d97ce	-0.0580061
4	0xbb77771b	-0.0037760201
5	0x3c233aa5	0.009962712
6	0xbc66fc18	-0.01409819
7	0x3b2dd4ea	0.0026524612
8	0xbd00620e	-0.031343512
9	0x3d2a06e5	0.04151048
10	0xbcad0977	-0.021122677
11	0xbc8c3492	-0.017114911
12	0xbd2990f8	-0.04139802
13	0xbcbbad19	-0.022909688
14	0x3cfc0f70	0.03076908
15	0xbc88aeb9	-0.016684877
16	0xbd61970e	-0.055075698
17	0x393fe434	0.00018300192
18	0xba9ab33a	-0.0011802681
19	0x3d435b8e	0.047694735
20	0x3d043614	0.032278135
21	0xbc974e3b	-0.01846992
22	0xbd4038d2	-0.046929188
23	0x3d372919	0.04471693
24	0xbc84b7bc	-0.016200893
25	0x3d432ea0	0.047651887
26	0xbd50feb0	-0.05102414
27	0xbca8d4b7	-0.020609243
28	0xbce78f68	-0.028266624
29	0x3d372723	0.044715058
30	0xbd06f0e2	-0.032944568
31	0xbcbd02bd	-0.023072595
32	0xbd280f74	-0.041030362
33	0x3bcca7b3	0.0062455772
34	0x3c33084b	0.01092727
35	0xbd299476	-0.04140135
36	0x3ccdb9d0	0.025113016
37	0xbd114765	-0.035468478
38	0x3bb7c8c2	0.005608649
39	0x3d10a5fa	0.035314538
40	0x3c9824dd	0.018572265
41	0xbd6a6fd1	-0.057235543
42	0x3d0c5ce5	0.03426828
43	0x3ce9a140	0.028519273
44	0xbc4912b8	-0.012272529
45	0xbd65fd74	-0.056149915
46	0x3ca36864	0.019947238
47	0xbc626d50	-0.013820007
48	0x3d3a482e	0.045478992
49	0xbc190e6e	-0.009341819
50	0x3ce6d707	0.028178705
51	0x3d82779d	0.06370471
52	0x3c9f303d	0.019432181
53	0x3b972a08	0.004613165
54	0xbd17ae1c	-0.037031278
55	0xbd57e486	-0.05270817
56	0xbc6e3128	-0.014538087
57	0xbc4f187b	-0.012640114
58	0x3d470fbc	0.04859899
59	0xbd1d5986	-0.038415454
60	0x3d34a805	0.04410555
61	0x3d3a3b82	0.045466907
62	0x3c117098	0.008876942
63	0x3cd77696	0.026301663
