model2.pt (torch_old, 763093 bytes, 14 tensors)

weight f4 [6, 3, 5, 5]
00000000: 1354 233d 86c4 9fbd 1472 ac3c 739b 4c3c
00000010: b597 46ba d9f3 2abd b94e bdb8 0c54 dd3d
00000020: ee99 c1bd b2f8 b93d bb41 99bc 95a8 153d
00000030: 1d3a 4c3d 1ce7 b23c b9e8 ff3c bdd2 b83d
00000040: be35 d7bd 0cf2 f5bc 6b19 98bd 3bf5 933a
00000050: eadc 203c af9f d33d e8e7 9e3d c23c 203d
00000060: 21a1 6dbd f3f1 d63d 5163 07bc 53c2 133d
00000070: 4896 a23d 0fd7 fc3d d1e3 d43d a746 abbc
00000080: 4ec3 b33d 2113 633d 1750 bebd 714d 50bd
00000090: bdf2 27bc 5beb b73b 191b 22bd cc57 5d3d
000000a0: a1d5 293d 7df5 283d 650d e93c ff48 7239
000000b0: ea55 dcbd 2aa3 36bd 42ed 0a3d 2775 103d
000000c0: 692b d0bd c7cb 15bc da59 7dbd 8186 b83d
000000d0: 9fc8 89bc 78e2 543d 4aad c4bd a6ed 983d
000000e0: 0fa0 b43d 20c9 cbbd 219e bdbb a57d 3bbd
000000f0: e849 b33b 24ef 763b 29fc dc3d f575 a0bd
00000100: bd2f a1bd 998f 0e3d 05be f93d b14a d83d
00000110: e142 8cbd 1cd6 7d3d ed3c f23d 3488 983d
00000120: e3ca 8cbd 4845 db3d e5ca 493d 13b2 8a3c
00000130: 2a4f febc dad5 afba 9801 00bd 3c17 9bbd
00000140: dcde c03d a368 09bd fe92 87bd bc63 f33b
00000150: dbe8 05bd 4ef5 46bc 3ddc 95bd 4295 583d
00000160: 7dc3 80bd 470a 08bd d4db b63b 1816 52bd
00000170: 6428 d7bd f9e2 ac3d 750c 5abd d7a2 8b3d
00000180: c816 a53d 6181 943d cd35 0ebd 146c ec3d
00000190: ddf7 003d 57ad 193d b155 8dbd da39 b0bd
000001a0: 88cc f1bc f7f0 dc3d aa49 aa3d 86de 62bd
000001b0: 901c 86bc f626 ccbc d639 c0bc 07a9 ea3c
000001c0: d8f8 fe3a 09dc 293d fe3c c7bb be41 94bd
000001d0: a265 a2bc 6b09 203c af0e 99bd b01d 873d
000001e0: 6262 5abd a91a 33bd b323 3d3d 833a e13d
000001f0: 957a cc3c ef8b c4bd ec60 de3c 2fe2 dfbd
00000200: eab3 94bd 901b ebbc bfd1 d2bc 7a0b 15bd
00000210: 5629 9bbd 419b c93c 227a cc3d 9355 f4bc
00000220: 8c3c dc3b 84db 4fbd a169 cf3d 1f0a ff3c
00000230: 4ec1 663d c194 c23d 4e66 58ba 877a 0d3c
00000240: 9b82 44bc ae9d e2bd 8add 893d 2906 b23d
00000250: 24de a6bc bfac d13c 3d0c 87bd 7baf 4e3d
00000260: fab9 9fbd 92f6 f23d 1321 853d 0f6c aa3d
00000270: ad71 8f3d 9f6c 6abd f909 ed3d c97f dabd
00000280: 2c0e 7dbc 4789 983d b7ea dcbc c048 d3bd
00000290: f81c b93a 6f7b d4bd 24b9 51bd fd7f 433d
000002a0: 5877 e13d a7d7 31bc e78d 88bd e91f 94bd
000002b0: b61a 50bd 5d5e babb ae9d d9bd 6ca9 b1bd
000002c0: 6fc8 66bd 593d e439 5df2 003d 40d7 b53d
000002d0: 2346 da3c 87f7 ea3c 5764 ad3c 2cfe 26bd
000002e0: 5a00 e23d b989 55bd caea fb3d b7a0 ee3d
000002f0: 5079 a5bd 83d5 8f3d f091 18bd 91af 1a3d
00000300: 8724 60bd 1227 66bd c5a6 6bbd bfb4 b93a
00000310: 7180 ab3d 4aec a83c 0f1a b1bd 82f7 2fbd
00000320: 6a72 fc3d 38f4 943d 88f1 3ebd 8ed6 273d
00000330: 8f2a a83d 8b3f 99bd c53d 97bd 2a83 4b3c
00000340: 5286 d2bd b2d1 ba3c 95c3 e03d a4aa 90bc
00000350: 0195 03bd f8e8 b23d d09b 853d b9e7 2ebd
00000360: 2f64 debd bd14 353c 2afa 97bd 86f9 eabd
00000370: 12d7 92bd d4c6 de3d fd6a 9dbc e53d c5bd
00000380: dc3d d13d 86d8 8b3c bbc0 0a3d 379b d03d
00000390: 8725 d03d f6f5 cf3d cf1b b73c cfb5 be3d
000003a0: 9daf 6c3d 3b95 ad3c ee9e e03d 6912 153d
000003b0: 7b4b 5e3d 6a8e c93c 1f52 173d f632 14bc
000003c0: 7cfa af3d cfb3 533d 6558 25bd 4ba3 ef3d
000003d0: 674e 2abd 4c40 9a3c f1a1 b4bd 1215 abbd
000003e0: 8eda a73d b264 883d 41c5 a33d ae7f 9c3c
000003f0: f3cc a0bd de0b 96bd d9e7 25bd 2cb5 b9bc
0.0398751 -0.07801156 0.02105049 0.012488234 -0.00075757067 -0.041736457 -9.0268855e-05 0.10807046
-0.09453188 0.09080638 -0.0187081 0.036537725 0.04986011 0.021838717 0.0312389 0.0902457
-0.105082974 -0.030022644 -0.07426723 0.0011288294 0.009818295 0.103331916 0.07759076 0.039120443
-0.058014993 0.10495367 -0.008263425 0.036073994 0.0793882 0.12345707 0.10395015 -0.020907713
0.08777486 0.055438165 -0.0929262 -0.050855104 -0.010250744 0.0056127734 -0.039576624 0.054038808
0.041463498 0.04124974 0.02844877 0.00023106112 -0.10758574 -0.0445892 0.033917673 0.035267975
-0.1016453 -0.009142823 -0.061853267 0.090100296 -0.016819296 0.05197379 -0.09603365 0.07467203
0.08819591 -0.09950471 -0.0057866727 -0.04577412 0.005471457 0.003767916 0.10790283 -0.078349985
-0.078704335 0.034804914 0.121944465 0.10561121 -0.06848694 0.06197177 0.11828027 0.07447854
-0.06874635 0.10706574 0.04926576 0.016930616 -0.031043608 -0.0013415173 -0.03125152 -0.07572791
0.09417507 -0.033547055 -0.066198334 0.0074276607 -0.03269277 -0.012143446 -0.07317398 0.05287672
-0.062872864 -0.033212926 0.005580405 -0.0512906 -0.10505751 0.08441729 -0.053234536 0.068181686
0.08060986 0.072512396 -0.034719277 0.11544052 0.03148638 0.037518825 -0.0690111 -0.08604784
-0.029516473 0.10788148 0.083148316 -0.055387996 -0.016371042 -0.024920922 -0.023465078 0.028645052
0.0019452823 0.041469608 -0.006080269 -0.07239102 -0.019823853 0.00976787 -0.07473504 0.06597459
-0.05331648 -0.043726597 0.046176624 0.10997488 0.024960795 -0.09597003 0.027145825 -0.10931813
-0.072608784 -0.028699666 -0.02573478 -0.036387898 -0.075762436 0.024610164 0.099842325 -0.029825961
0.006721085 -0.050746456 0.10127569 0.031132756 0.056336693 0.09501029 -0.00082549907 0.00863517
-0.011994029 -0.11065231 0.06731708 0.08692581 -0.020369597 0.025595067 -0.06594131 0.05046032
-0.07799144 0.11863436 0.06500449 0.08321392 0.07004104 -0.057232495 0.11574168 -0.10668904
-0.015445273 0.074480586 -0.02696739 -0.1031661 0.0014123013 -0.103751056 -0.051201954 0.04772948
0.11009091 -0.010854638 -0.06667691 -0.07232649 -0.050806724 -0.0056875185 -0.10625778 -0.08674893
-0.056343492 0.00043533256 0.031481136 0.08878946 0.026644772 0.028682483 0.02116601 -0.04076974
0.11035223 -0.052133296 0.12300642 0.11651748 -0.08079779 0.07023146 -0.03724855 0.03776509
-0.054722335 -0.056189604 -0.05753209 0.0014168246 0.08374108 0.020620484 -0.086475484 -0.04296065
0.1232651 0.072731435 -0.04661706 0.0409761 0.082112424 -0.07482823 -0.073848285 0.012421409
-0.10279526 0.022805069 0.10974804 -0.017659493 -0.032124523 0.087358415 0.065238595 -0.042701457
-0.10858952 0.011052308 -0.07420762 -0.11473374 -0.07169928 0.10877767 -0.019216055 -0.09630946
0.10216877 0.01707102 0.03387521 0.10185855 0.10163408 0.10154335 0.022352127 0.09312021
0.057784665 0.021189323 0.109678134 0.03639451 0.054271203 0.024604041 0.03694355 -0.009045353
0.08592698 0.05168515 -0.040367503 0.117010675 -0.041578677 0.018829487 -0.0881995 -0.08353628
0.08195983 0.06659831 0.079966076 0.019103851 -0.07851591 -0.07326482 -0.04050431 -0.022669397

bias f4 [6]
00000000: d7d5 bcbd e00c c03d abdf a43d f323 2f3c
00000010: f3a5 d03c da90 683d
-0.09220474 0.09377456 0.08050474 0.010689723 0.025469756 0.056778766

weight f4 [16, 6, 5, 5]
00000000: 859d 5e3d f5fa a23c 5829 b5bc 8198 43bc
00000010: 597f b93c efd4 813d 3427 913b e5d3 99bd
00000020: 6567 4f3d f858 5abd 29b6 1dbc 9252 77bd
00000030: 976e 7d3b 4f92 b43d 23a2 6d3d 2828 783d
00000040: 02b1 83bd 063b 9b3b eed0 b63d 8bfe 8a3d
00000050: fc44 65bd 5929 58bd 1712 8ebd c54f dfbb
00000060: 72c7 833d 2626 a53d b328 51bd 7c39 30bd
00000070: a40d 833d a052 b73c 1d5a a63c 228e 53bd
00000080: 946d 9f3d 4a8f 57bd 6322 0e3c a1bd b2bc
00000090: 1056 12bd 5b08 99bc 0bab 523c 3c83 48bd
000000a0: e49f 30bd 9cd1 1fbd 77ab 20bd a125 893d
000000b0: d10a 923d e470 33bd c217 713d 8309 6fbc
000000c0: 1fc8 0c3c 6ef5 563d ef8a 443d 3dda b63c
000000d0: 55ac 193c 6b89 20bd d5dd 0b3d 1a46 d63c
000000e0: 160e 91bd 6db3 95bd fffe 2f3d 8bd9 4dbd
000000f0: 1ed7 a8bd f44e c03c baf5 adbc 58db 8dbd
00000100: bb85 09bd c5d1 1cbb fd80 ed3c d278 79bc
00000110: b0ba 8e3d 355d b1bc fbae b03d 81b9 c4bc
00000120: 5d45 08bd 43d3 813d 3e8f ef3c 2760 a83d
00000130: e8b9 f73b 28d6 78bc 0475 a3bd 5638 c3bc
00000140: 41a7 153d 14b9 97bd 12c2 89bd ca77 653d
00000150: 432a 683d 52c5 80ba ce57 84bd 6672 0e3d
00000160: fd7b 84bd 8d62 88bd 47da a13d 68f8 cdbc
00000170: 27e9 543d 8bbb 9c3d 56f4 a83d 6f47 be3d
00000180: e01f af3d 7763 8bbd 0370 ba3d 6740 7dbb
00000190: ad14 4c3d 1aeb 92bd 645a 4abd 9899 253d
000001a0: f02d 553c df83 cabc 7f42 ad3d cced 14bd
000001b0: 1895 413d 085d b53c 2e52 09bd 37db 5abc
000001c0: 2a7a 01bc d463 703c a432 14bd e35d a33d
000001d0: 89bd 5dbd 1680 9f39 330f 353d 2036 8b3d
000001e0: 4ad0 233d d264 f03b 3358 0ebd 09b6 983c
000001f0: 54d6 7a3c 89c7 c33c 4c69 9b3d 442a 26bc
00000200: 67cf 5cbd 02a7 a13d 7df5 033d a0aa 10bd
00000210: ca5e 11bd e835 53bb fa58 12bc e01d a13d
00000220: fb81 2e3c 1929 703d aa54 3d3d 7c57 823c
00000230: a681 9bbc f88f 9b3d 4da6 893c 0329 05bd
00000240: 0632 b9bc 03be fbbc b402 3f3d 8f5d 6b3d
00000250: 9b8d 86bd 4c9d 8cbb 29d4 183d e3f7 6abc
00000260: b8c7 f9bb 3e81 203d 1094 843d 5ccf 05bc
00000270: aab6 37bd 658a 87bc 3ea6 843d 561d 733d
00000280: 8a0e 283d 9cf1 913d 178e ad3d cccf ff3c
00000290: fe48 c93c 9685 d83a 81e9 38bd a241 833c
000002a0: cf7c ddbc 11cf d73c 1053 733c aef9 933c
000002b0: ecbb a33b 1cfc 4abc f881 9fbd 1cb1 fdbb
000002c0: 464f 7f3b d190 3b3d 64c1 383c 307c 15bd
000002d0: 7890 6dbd af0c 97bd ab63 903d 30c3 57bd
000002e0: acd0 043d 8d63 4a3d 5fb9 35bd b980 553d
000002f0: 44f3 4a3d bb6a 3dbd 81d3 7e3d 4f67 5fbd
00000300: 6cb4 59bd 60e8 62ba d4ca 0b3c 559a 60bd
00000310: 3d0b 7e3d a703 493d 8ee1 403d cedd 31bd
00000320: 390a f63c 2d91 833c 1f3a a93d 9e5b d53c
00000330: e5e4 8fbd ecc4 2b3b b585 70bd f2dd 983c
00000340: 2c41 7cba c0a6 99bd 6b56 cf3c b5da 563c
00000350: cc96 a0bc 2ed7 bd3c 2de5 873d 6f04 5bbd
00000360: af16 a93d dd62 663b 3144 8ebd 7899 b33d
00000370: e098 04bb 2521 71bd 2f33 6fbd 1fd1 bf3c
00000380: d16f 6e3c 94a2 6bbc 88b6 8a3d 57ee 2fbd
00000390: 3f2c 8b3c 3ac4 98bb fb8b 9fbc 0963 7e3d
000003a0: bdd0 713d ac1d 253d b3d5 29bc b5f9 033d
000003b0: 1165 74bd be80 83bd afc2 3a3b 0a99 0dbd
000003c0: 28cc 873d b74a 22bd 95c0 95bc d9c0 7f3d
000003d0: ef22 cf3c 6834 913c 3dc7 493d 909a 883d
000003e0: 1cb2 0b3d ded2 8bbd c280 383d 7e46 5c3d
000003f0: 165e 523d 462a 7e3d fb29 00bd 8c1b 113d
0.05434944 0.019895056 -0.02211444 -0.011938215 0.022643732 0.06339442 0.004429722 -0.07511119
0.050635714 -0.053307503 -0.00962595 -0.06038148 0.0038670653 0.08816969 0.058015954 0.06058517
-0.06430246 0.0047372608 0.08926569 0.067868315 -0.05597399 -0.052773807 -0.06937044 -0.006814929
0.064345255 0.08063917 -0.051064204 -0.04302357 0.06399086 0.022378266 0.020306641 -0.05164922
0.07784572 -0.052626885 0.008675191 -0.021818938 -0.035726607 -0.018680742 0.012858163 -0.04895328
-0.043121234 -0.03901826 -0.03922602 0.0669663 0.07130969 -0.043808833 0.058860548 -0.01458967
0.008592634 0.052480154 0.04798406 0.022320861 0.009379466 -0.039193552 0.034147102 0.026156474
-0.07082765 -0.073096134 0.042967793 -0.050256293 -0.08244155 0.023475148 -0.021235336 -0.06926602
-0.0335748 -0.0023928743 0.02899217 -0.01522656 0.069692016 -0.02165089 0.08627125 -0.024014236
-0.033269275 0.06339123 0.029243108 0.082214646 0.0075600035 -0.015187778 -0.07981303 -0.023830574
0.03653646 -0.07408348 -0.06726469 0.056022443 0.05668093 -0.0009824431 -0.0646206 0.034777068
-0.064689614 -0.06659422 0.07902961 -0.025142863 0.051980164 0.076529585 0.082497284 0.092909686
0.085510015 -0.06806081 0.09103396 -0.0038643123 0.049824405 -0.07173748 -0.04940261 0.04042968
0.013011441 -0.024721084 0.08459949 -0.036359593 0.047261328 0.022139087 -0.03352564 -0.013357929
-0.007902661 0.014672238 -0.036181107 0.07976892 -0.054135833 0.00030422275 0.04420395 0.06797433
0.03999356 0.0073362375 -0.034752082 0.018641489 0.015309889 0.023898857 0.07588443 -0.010141913
-0.05390873 0.07893182 0.032216538 -0.03531897 -0.03549079 -0.0032228176 -0.0089323465 0.07867026
0.010651107 0.058632944 0.04622332 0.015910856 -0.01898272 0.07595819 0.016802931 -0.032509815
-0.02260686 -0.030730253 0.046633437 0.05746227 -0.06569978 -0.004291212 0.037311707 -0.014341327
-0.0076226853 0.039185755 0.06473553 -0.008167114 -0.044851936 -0.016545484 0.06477021 0.05935415
0.04102949 0.071261615 0.08474367 0.031227015 0.024570938 0.0016519304 -0.04514456 0.016022507
-0.027037052 0.026343854 0.014851347 0.018063392 0.0049967673 -0.012389209 -0.077884614 -0.0077420603
0.0038957163 0.045792405 0.011276577 -0.036495388 -0.057999104 -0.07375466 0.0705026 -0.05267638
0.032425568 0.049411345 -0.044366237 0.052124713 0.049548402 -0.046244364 0.062213425 -0.054541882
-0.05315058 -0.00086558424 0.008532245 -0.054834682 0.062022436 0.04907575 0.047090106 -0.04342442
0.030034171 0.016060436 0.08263039 0.026044663 -0.0702608 0.0026209904 -0.058721263 0.01866052
-0.00096227485 -0.07502508 0.025309762 0.013113667 -0.019603156 0.023173895 0.06635509 -0.053471025
0.0825628 0.0035154142 -0.069466 0.08769506 -0.0020232722 -0.0588695 -0.05839842 0.023415146
0.014553026 -0.014382023 0.06773096 -0.042951908 0.016988872 -0.004662064 -0.019475928 0.062106166
0.05903696 0.0403115 -0.010365891 0.03222056 -0.059666697 -0.0642104 0.0028497388 -0.034569778
0.066307366 -0.039622035 -0.018280307 0.062439773 0.025285212 0.017725185 0.049262274 0.066701055
0.034105405 -0.06827329 0.045044668 0.053778164 0.05135926 0.062052034 -0.031290036 0.03542666

bias f4 [16]
00000000: 6526 2b3d 5297 f83c ad03 403c 4c4d 9fbb
00000010: 8548 2d3d 881f 8e3d 7279 7ebb 8ca2 9c3d
00000020: f3b1 133d 05c6 89bd 6c42 523c 54fd 473d
00000030: f569 a7bb 73dd 643d 2745 5ebd ad88 84ba
0.041784663 0.030345593 0.011719626 -0.0048615094 0.04230549 0.06939608 -0.0038829711 0.07648191
0.036058377 -0.06727222 0.012833219 0.048825577 -0.0051090666 0.055875253 -0.054265168 -0.0010111533

weight f4 [8, 16, 5, 5]
00000000: df88 b03a 73eb 1fbd e6c8 75bc 41d7 0bbd
00000010: 12f8 593b e5f2 9f3c 519b 303d 4a21 2d3d
00000020: 35fd 34bd 6362 f4bc f0e8 3f3c 73cd 353d
00000030: 8f15 0abc 5034 08bd 0a8e 2dbd cfe5 833c
00000040: 960c 1cbd dd95 28bd 6324 bd3c bf68 113d
00000050: 10bb 06bd 0bda 293b 1938 4239 7fba 043c
00000060: 01f3 023c 3f41 473c fa37 26bd 8d1a 84bc
00000070: fe26 413d 07ff 123d 467d e03c e832 603c
00000080: 808e aebc 7898 24bd 37b9 19bc f0d4 493c
00000090: 27c9 48bd adde d7bb 1210 a3bc ed35 24bc
000000a0: 6ca3 173c 3845 0f3d f8b4 2abc 2c53 c0bc
000000b0: c208 513c 3c27 21bd 66e6 d8bc 9ef6 1c3c
000000c0: 3d4b 333d 99fa 63bc e4a6 d1bc 5e03 be3c
000000d0: da99 5d3d 586b 37bc 3509 2bbb 7139 5f3c
000000e0: b4bf 16bd 7998 91bc 82fa 953c c83f 2f3d
000000f0: 3cef 0ebd fd20 e8bc 4bf6 6e3c 7e5f 893c
00000100: 6f8e 293c 1db0 223d 4b13 8a3c d917 1fbd
00000110: 6687 cb3c 3afe b1bc 528a 73bb 0689 40bc
00000120: f611 453d f886 903a 4f97 ffbc 8c88 6b3b
00000130: 8e59 eebc 66f1 30bc 49f4 913a 82ed b5bc
00000140: 04e7 aabc 2509 383d 83f2 5bbc e349 793c
00000150: df59 aa3c 9998 06bd 2211 32bd d3e6 183d
00000160: 35bb c2bc f700 9ebc 7bf3 6fba dbcd cdbb
00000170: 0f83 643d b4c5 063d cef5 2cba b418 203c
00000180: d5dc 013d 09c7 d63c 068c 9abc 288f e13b
00000190: 6cac ca3c 3469 3d3d 720d 73bc 34ad 8f3c
000001a0: b8e4 70bb 0ed2 1abc 25f3 2cbd 0af4 5e3d
000001b0: d244 b1bc d220 8c3c 60e8 c93c 9807 a3bc
000001c0: 225e 1ebd d9b2 413c c300 903c 9b62 5f3c
000001d0: 3cae c93b ce2a 03bd e34c 03bd bd0c 113d
000001e0: 7b76 0b3d 7e22 933c f519 333d 05af e1bc
000001f0: 5300 423d 229a 133c 3129 2e3d 7a1b 5abd
00000200: 19b8 a0bc 3c08 babc 4430 c3bb 42ef 1fbd
00000210: 6b5f c93c d33d 083c b976 4bbc df2c 383d
00000220: ccd6 363d 430b d33c 9c0e e83c ca3c e8bc
00000230: 3d26 86bb ba4f 32b9 bdf4 f43c bdbe 563d
00000240: f9c7 453d 8d18 d9bb 4766 073d c0b0 b4bb
00000250: fcd2 cf3c d470 16bc 2750 a7bc f5c0 0d3d
00000260: 0e38 3d3d c73b 9ebc 65f9 fabc 93a1 863c
00000270: 48d8 013d 9ce5 22bd b062 83bc 3a19 a6bc
00000280: 89de 9cbc d76d e03c 3734 18bd dbc1 ea3c
00000290: 7c98 9cbc 7b97 0a3d 0ab9 90bc 65d5 f2bc
000002a0: 7cf2 153c 1265 c3bc 10e2 9abc bec8 863c
000002b0: fdb8 39bd 24db 13bd 8267 cd3c 4bfc f539
000002c0: 23e6 073d 50a2 bc3b 9e03 d73c 939d fc3c
000002d0: c628 adbc a10b 86bc ef76 92bb 1959 9fbc
000002e0: 5f28 54bb a0df 3abd c0b0 2ebd 9205 bd3c
000002f0: e48f 743c 2f8d 9dbb b22e 893c 4378 e7bb
00000300: a36c 14bd 3165 00bd 0e4f 9ebc 7341 a53c
00000310: 67f7 ce3c f116 0e3d 151f 3d3d 4082 5aba
00000320: b706 1fbc ddc3 a93c 4031 253d f7a6 34bb
00000330: df0b e0bc 0a4b 9d3b 09c9 b8bc 29ad 473c
00000340: 8f30 253c 698f f23c 2a71 553b 48ff ddbb
00000350: 3aab 3cbc 9ab7 0f3d 6b7c 03bd e279 aebc
00000360: 2370 1ebd 34f4 553d f540 a73c fa30 8abc
00000370: 9819 763d dfe5 843c 6293 95bc 72e8 00bd
00000380: ca79 193d 7240 1b3b 3a4f 8ebc 142c deb9
00000390: 27ad fcbc 72e2 13bd afbb 1b3d 05df 94bc
000003a0: 1c8b 9bbc c09a da3c 21e9 bfbc b3a4 cbbc
000003b0: 03a8 a4bc 168a ce3c d8cb 2cbd c39f 7fbc
000003c0: 43da 61bc 479c 1bbd 603d 76bc 0af9 3ebd
000003d0: 1f3f 32bd 2e3f b6bc ed6e 113c b41d 2fbd
000003e0: ce43 673c e8b5 21bd 6317 12bd 5b91 4e3d
000003f0: 0518 563d 390f a03c 9dcf 663d 863a 8e3b
0.0013468525 -0.0390429 -0.015001511 -0.03414083 0.0033259434 0.019525 0.04311687 0.042268075
-0.04418679 -0.02983207 0.0117132515 0.044385385 -0.0084279915 -0.033253014 -0.042371787 0.016100792
-0.03809794 -0.041158546 0.02308864 0.035500284 -0.03289324 0.0025917317 0.0001852218 0.008101105
0.007992507 0.012161552 -0.040580727 -0.016125942 0.047156326 0.035887744 0.027403485 0.013684012
-0.021308184 -0.040184468 -0.009382538 0.012318835 -0.04901996 -0.0065878243 -0.019905124 -0.0100226225
0.009255271 0.03497812 -0.010419123 -0.02347716 0.012758436 -0.039344057 -0.02647705 0.0095802825
0.043772925 -0.013914728 -0.025592275 0.023194965 0.054101802 -0.011195026 -0.0026098017 0.013624535
-0.036803916 -0.0177729 0.018307928 0.042785436 -0.03489612 -0.028336043 0.014585088 0.016769167
0.0103489 0.039718736 0.016854903 -0.038841102 0.024844836 -0.02172767 -0.0037161303 -0.011751419
0.048112832 0.0011026552 -0.03120008 0.0035939543 -0.029095437 -0.010799741 0.0011135425 -0.02220798
-0.02086211 0.044930596 -0.0134245185 0.01521537 0.020794807 -0.032860372 -0.04347337 0.037329506
-0.023770908 -0.01928757 -0.0009153408 -0.0062806434 0.05578905 0.03290339 -0.0006597907 0.009771515
0.031704742 0.026217954 -0.018865597 0.0068835206 0.02474042 0.046242908 -0.014834749 0.017538644
-0.003675742 -0.009449495 -0.04222407 0.054431953 -0.021639261 0.017105494 0.024646938 -0.019901082
-0.03866399 0.011822426 0.017578488 0.013634349 0.0061548036 -0.032023244 -0.032055747 0.03541254
0.03404854 0.017960783 0.043725926 -0.027549276 0.04736359 0.009008916 0.042519752 -0.05324886
-0.019619035 -0.022709005 -0.0059566814 -0.039046533 0.024581632 0.008315521 -0.012418442 0.044964667
0.04463844 0.025762206 0.028327279 -0.028349299 -0.004093914 -0.00017005103 0.029901857 0.052427996
0.048286412 -0.006625241 0.033056524 -0.0055142343 0.02536916 -0.009182174 -0.020423962 0.034607846
0.046196036 -0.019315613 -0.030636499 0.016434466 0.031700402 -0.039769754 -0.016038269 -0.0202757
-0.019149082 0.027396126 -0.03715917 0.02865689 -0.019115679 0.03383587 -0.017666359 -0.02964277
0.009152051 -0.023851905 -0.018906623 0.016453143 -0.045342434 -0.03609766 0.02507377 0.00046918014
0.03317846 0.005756654 0.026246842 0.030836856 -0.021137606 -0.016362967 -0.0044697444 -0.019451665
-0.0032372696 -0.04562342 -0.04264903 0.023073945 0.014926884 -0.00480809 0.016745899 -0.007063897
-0.036236417 -0.031346504 -0.019324806 0.02017281 0.025264455 0.034689847 0.04617222 -0.0008335449
-0.009706191 0.020723278 0.04033017 -0.002756534 -0.02734941 0.004800205 -0.022556799 0.012187281
0.010082378 0.029609399 0.0032568672 -0.0067748167 -0.011515433 0.035087205 -0.032101076 -0.021298353
-0.03868116 0.052234843 0.020416716 -0.016869057 0.060083 0.016222892 -0.018258754 -0.031471677
0.037469663 0.0023689535 -0.017371763 -0.0004237598 -0.030844284 -0.036104627 0.038020786 -0.01817275
-0.018987231 0.026685119 -0.023426594 -0.024858808 -0.020099645 0.025212329 -0.042186588 -0.015602055
-0.013784948 -0.037990835 -0.015029281 -0.04662422 -0.04351723 -0.022246923 0.008876544 -0.042752936
0.014115287 -0.03948012 -0.035666835 0.05043159 0.052269 0.019538509 0.05635034 0.0043404726

bias f4 [8]
00000000: 42fe 673c 4f9f 18bd d087 afbc aafd 8b3c
00000010: f070 bf3c de47 fa3c a04d 213d 44c6 643c
0.014159741 -0.037261304 -0.021427065 0.01708873 0.023369282 0.030551847 0.03938067 0.013963286

weight f4 [256, 648]
00000000: b724 20bd 0a83 173d ed36 c2bc d773 00bd
00000010: bed4 c83c cbfe 4f3c 632b aa3c 28f2 3e3b
00000020: b663 e13c a564 d2bc cd70 d13c 5031 3ebc
00000030: 2856 5fbc 7306 fdbc 5829 b4bc 0cec e2bc
00000040: b8ba e03a d1a5 933c 0fdc 423c 8b2e 04bd
00000050: 0f9c 5fbc e1bc 77bc a940 0cbc e1bf 653c
00000060: 041a f33c d0bc c03c 3237 b63a afb0 003d
00000070: bfdf 0dbd 6770 2e3c 5216 0abc ed63 1cbd
00000080: 5558 263c 3ba2 5a3c 25ab 953c ff07 0c3d
00000090: 57d7 a73c 6fb9 f3bc 6b34 073c 838e 6e3c
000000a0: 7dd2 ca3b e405 e8bc cd86 e4bc d792 0ebc
000000b0: 5812 1bbd 3e74 63b8 a35f 813b f639 093d
000000c0: 4ba9 11bb 62b5 ac3b 9a16 553c bee4 bc3c
000000d0: bef5 b0bb 9599 bfba d863 6bbc bc7c e7bc
000000e0: 6753 803c f2d9 1abd 1f9c 003c c3f1 86bc
000000f0: 1b28 cbbc 70ae 153d 64f2 3cbc 0062 fabb
00000100: dd27 253c 989e e6bc 15c5 ecbc 71a5 e23c
00000110: 98f9 e5bc 2f1a 013d 6a70 79bb 180e f13b
00000120: d413 bf3c 8c60 a73c c2c3 94bb 2f03 85bc
00000130: 5e0b af3c 3b5a a93b 2c7f 793c 2929 77bb
00000140: eb3a 11bd 42e1 f93c 8d98 0f3c d57d dc3c
00000150: eba5 b03c 56da e6ba 7a9a c9bb 537c df3c
00000160: 0874 ce3b 3428 7fbb 28d4 a03c 0909 ebb9
00000170: 625a eabc 8f4f a1bc 5621 4c3c 2333 e33c
00000180: ab7c 523b 5fab f4bc 24a5 40bc d1ed 6a3c
00000190: a8f6 c43c 60ac e1bc 8f76 e03a 2e32 04bd
000001a0: c14b fbbc 7392 e83c 5d80 343b 66ad e53c
000001b0: 8d96 e33b fca6 e7bc fc98 253c 9e43 083d
000001c0: 7148 d4bc 1964 873c ca9a 683c 2739 11bd
000001d0: a191 9abc f2ca 77bc 2023 9b3c c341 9b3b
000001e0: d63b 0d3a 5de2 01bc 677d 88bb dd09 b83b
000001f0: 0825 023d 58ca 9dbb 2ac6 d7bc 1eac bdbc
00000200: 99b6 8f3c f09a 17bc e996 f8ba 34c8 943c
00000210: d0cf 3f3b 96b7 ab3c c63d 373c d1ca c2bc
00000220: 4f2f 79bb 99fa 783c f18d 1f3c a7d4 283c
00000230: 8699 8d3c 9a47 36bc 9983 f8bc d7cb ee3a
00000240: ae1a 8abb dcad 913b 8b0b ec3c b302 fc3b
00000250: 501b 39bb 57ff 0abd 124d fcbc e00e 7dbc
00000260: 8a3c dc3c ee80 243c ff23 14bd e36d 97bc
00000270: afc3 c5bc f3e3 bcbc 5c4f bdbc d1ea 16bd
00000280: 776b 6ebc 7cd4 f6bc 9ac7 5e3b baf9 13bd
00000290: 5a42 143d 7414 82bc 6aac a8bc 2c23 a23c
000002a0: c027 bebc d771 06bd 6afd 213c fd6d 833c
000002b0: d480 b0bc 03c5 003c 6384 9c3b 84d4 8abc
000002c0: 5490 49bc 6f5b 82bc 279e cabb 5b33 333c
000002d0: decd 383b d54a 5f3c d844 923b 055f 52bc
000002e0: 7924 ccba 23c6 10bc 2867 d13c aa8b 81bb
000002f0: 47ce 99bc c719 d43c b8b8 3c3c 2273 033d
00000300: dbdb 873b e577 fdbb b362 f8bc 054a 0dbd
00000310: f5c2 0bbd 32a8 d7bc 3139 e53a 444c fe3a
00000320: 795e 113d e49c d3ba 409b 693c 8ed3 afbb
00000330: 3efa 183d ae45 c1bc f551 18bd 290f 923b
00000340: a1af 06bd cd16 f4bc a53b 23bd a2ba 17bc
00000350: 780d 90bb b6b1 f03c 6f68 f73c 5a6b e2bc
00000360: 2d68 843c 4794 1c3c 747e 073d af01 aa3c
00000370: 8cad bfbc ee94 02bd 3db7 04bd 30c8 84bc
00000380: 2dc8 ce3c 0431 65bb 8ca7 c03c a83d cf3c
00000390: b0b4 be3c af36 f43c 45b8 903c 6dca 50bc
000003a0: d1c7 db3b 7cd4 d03c 5619 123d dca3 20bc
000003b0: f5ea 9f3c 18ce 10bd 826e 01bd cdcb 04bd
000003c0: 2708 de3c 2a5e ba3c 3810 9d3c db52 a4bc
000003d0: d25d 313b f93e 1abd fa42 dcbc ab8d 10bc
000003e0: 977a f9bc 6e0e 22bd 188d c3bc a229 323b
000003f0: f039 12bd 1e0c 35bc 9bee 9b3c cad8 f7bb
-0.039097514 0.036990203 -0.023707831 -0.031360473 0.024515506 0.012695025 0.020772642 0.0029136036
0.027513366 -0.025682757 0.025566483 -0.011608437 -0.013631381 -0.030886864 -0.02199237 -0.027700447
0.001714549 0.018023403 0.011893286 -0.03227095 -0.013648047 -0.015120716 -0.008560338 0.014022798
0.029675491 0.023527533 0.0013901948 0.0314185 -0.03463721 0.010646916 -0.008428173 -0.038181234
0.010152896 0.013344343 0.018270085 0.034187313 0.020488424 -0.029751508 0.0082522435 0.014560345
0.006189643 -0.028323121 -0.02789631 -0.008702002 -0.03785929 -5.4229276e-05 0.0039481684 0.03350254
-0.002222615 0.005270646 0.013005877 0.023058292 -0.0054003885 -0.0014617915 -0.014367066 -0.02825772
0.01566477 -0.037805505 0.007849722 -0.016472703 -0.024799397 0.03654331 -0.0115324 -0.007641077
0.010080305 -0.028151795 -0.02890257 0.02766678 -0.028073117 0.03151911 -0.0038061389 0.0073564164
0.023324884 0.02043178 -0.0045399377 -0.01623687 0.021367725 0.005168227 0.015228074 -0.0037713742
-0.03545658 0.03050292 0.008764398 0.02691547 0.02156349 -0.0017612677 -0.0061524482 0.027280962
0.006300453 -0.0038933875 0.019632414 -0.00044829425 -0.028607551 -0.019691257 0.01245912 0.027734345
0.0032117765 -0.029866872 -0.011758123 0.014338926 0.024043396 -0.027548015 0.0017125177 -0.032274418
-0.03067577 0.028390145 0.002754233 0.028036784 0.0069454373 -0.028277867 0.010107275 0.03326761
-0.025913449 0.016527222 0.014197061 -0.035454895 -0.01886827 -0.0151240695 0.018937647 0.004738064
0.00053876394 -0.007927504 -0.0041653397 0.00561641 0.031773597 -0.004815381 -0.02633961 -0.023153361
0.017543124 -0.009253249 -0.0018965873 0.01816187 0.0029268153 0.020961564 0.0111841615 -0.023778351
-0.0038022583 0.015196466 0.009738431 0.0103046065 0.01728512 -0.01112547 -0.030336188 0.0018218708
-0.0042146062 0.0044457745 0.028814098 0.0076907515 -0.002824504 -0.033934917 -0.030798469 -0.015445441
0.026884336 0.010040505 -0.03616714 -0.018485015 -0.02414116 -0.023057913 -0.02310913 -0.036845032
-0.014551989 -0.030130617 0.0033993484 -0.03612683 0.03619609 -0.015878893 -0.020590026 0.019792162
-0.023212314 -0.03282341 0.009887079 0.016043657 -0.021545805 0.007859471 0.004776524 -0.016947038
-0.012302477 -0.01591274 -0.006183404 0.010937537 0.0028198878 0.013628681 0.004463773 -0.012840037
-0.0015574835 -0.008836302 0.025561884 -0.003953417 -0.018775119 0.025891198 0.01151865 0.03209222
0.004146082 -0.00773524 -0.030320501 -0.03449442 -0.034121472 -0.026325319 0.0017488358 0.0019401391
0.035490487 -0.001614478 0.014258206 -0.0053657955 0.037348025 -0.023592796 -0.037187535 0.0044573736
-0.032882337 -0.029796029 -0.039851803 -0.009260805 -0.004396137 0.029381614 0.030201165 -0.02763908
0.016162956 0.009556836 0.03307958 0.020752756 -0.023398183 -0.03188031 -0.032401312 -0.016208738
0.025241936 -0.0034971843 0.023517393 0.025297955 0.023279518 0.029811231 0.017665992 -0.012743575
0.0067071696 0.025491945 0.035668693 -0.009804692 0.019521216 -0.035352796 -0.03159953 -0.032420922
0.027103497 0.022749979 0.019172773 -0.02005904 0.0027063978 -0.03765771 -0.026887406 -0.008822839
-0.030453963 -0.039564542 -0.02387099 0.002718546 -0.035699785 -0.011050252 0.019034674 -0.007563685

bias f4 [256]
00000000: 7bc0 8b3c a499 1f3d b397 07bd 2ebf 74ba
00000010: 5db8 aabc c5e3 233c 4bef fc3c 7f3c fc3a
00000020: 2b82 823c 5e5a 15bd 516f e7bc a009 93bc
00000030: 3cbb bf3c 2723 cbbc ca60 15bb 53b1 ab3c
00000040: 9879 e7bc 72f3 d0bc 1966 abbc b8ca c2bc
00000050: 313f fd3c 30f3 703c f26e d53c 952c 193d
00000060: ce28 1fbd 3fb1 df3a 7d0c 283c 4a86 c5bc
00000070: 084d 933b 60f9 89bc 6897 e1bc 31b6 1f3c
00000080: 0b27 0a38 59aa 1c3b b2e6 abbc a552 053b
00000090: d0cb b93c 2819 03bd 4835 05bb c258 10bd
000000a0: 20bb bb3b b927 cdbc 206f 9f3a f35a d0bc
000000b0: cac7 bc3c a842 75bc d8e1 abbc 9e90 ebbb
000000c0: 4a3b 0b3c 7411 203d a840 393b 6d06 853c
000000d0: 63d1 1d3b 1c5a e3bc 4977 bfbc e2c4 c2bc
000000e0: abd2 b1bc 2b77 4abc 3274 be3c 200a 0fbb
000000f0: e38b 2a3b c828 89bc b182 f7bc f02d bc3c
00000100: 99da babc 817a ac3b cf57 323b 8485 493c
00000110: 3e2d 03bd 3440 78bb 623a 1fbb d88f 213c
00000120: 7c63 abbc b984 503b a80d fbbb 22d5 06bd
00000130: 910a 013d 3292 4a3b 5c4f 203c 3bb1 193d
00000140: e3c6 11bc a58c 9a3c 236b 0e3d 0056 d63c
00000150: 2616 b33c 0201 fabc be6c 9fbc 4b30 853c
00000160: e64f 243d ee27 123d dbcb 973c d86c 95bb
00000170: 779d 17bd b2ad c43c 6932 10bd bcab 88bc
00000180: ea3d 033d 2a73 e83c 7d97 e5bc 2cc3 013d
00000190: 9e87 85bc 8900 d23c 9c07 abbc 0d19 0a3d
000001a0: 3654 333c 8c5b deba d592 bbbc a45c d1bc
000001b0: 83ff 8f3c db67 5c3b ab93 dfbc 7cbd 97bc
000001c0: 2884 91bc 0437 54bc ba32 70bc be5a 7cbc
000001d0: 4a60 103d 1ecc 403a 39f4 e03c 5415 18bd
000001e0: 9605 04bd 97e3 02bd ef72 c93c 0875 09bd
000001f0: 215c 1e3d 34fe 0d3d d26e a23c 8921 143d
00000200: d760 bebc e64a 9cbb 7d5d b83c 7113 5fbc
00000210: a75c 9c3c 3a11 ac3c f3e4 063d 2499 443c
00000220: d78d 3ebb 0689 b03c 7eff 99bc a317 afba
00000230: fd45 683c 3af5 89bc 0b78 e439 9adc c63b
00000240: ae90 a13c 6eb6 993c d632 8cbc 9634 06bd
00000250: a5ca 8a3c 72fe d43c 5a7a 103d 8e5e 093d
00000260: 7a64 de3c aa79 c2bb 44b0 78bc 1cfd 0cbd
00000270: d91b 023d 8dc8 a43c a279 823b d510 203d
00000280: 0616 223c 6a45 bc3c 5503 3d3c b08b d53b
00000290: 41e6 253d 57f7 1a3d 9c1e d03c 03b3 193d
000002a0: 6840 97bc d92a a23c e0a1 9b3c 86e4 b13c
000002b0: 29a0 963c 582c d3bc 6990 c0bc f544 113d
000002c0: 76b9 0dbc ba96 193d 6c18 34bc c0cf b73c
000002d0: c0ce f8bc 2ec4 8ebc 735d e1bc ea59 1c3c
000002e0: 749e e7bc 7e45 553c d7b7 bdbc 9657 833c
000002f0: b172 b6bc cc49 01bd 503a ffbb 589c 2fbb
00000300: ec18 45bc df6b 513c c67e 09bd 21f0 9bbc
00000310: 92d6 eb3c b6b6 ef3c 092f a1bc 050c e7bc
00000320: 2e7b 51bc 4d3f c93c dfd0 11bd 8367 2dbb
00000330: e990 2e3c 5b09 95bc ef98 7f3b 67f8 0cbd
00000340: fbc5 e9bc d9f2 6cbc c1ff da3c 1b2a 633b
00000350: 9fcd 933c e635 e6bc cdd1 75bc 6910 a83c
00000360: 6043 0d3d 554f b13c 9bfa be3a 8e86 c93c
00000370: 1ba8 36bc d989 17bd 641b 4d3c c82e a53c
00000380: 5e51 ad3c 1d9f 093d 6d47 46bc 31ae 1bbd
00000390: 0c6e 473c 3176 c3bb 0c78 e63a 3783 03bd
000003a0: a983 74bb 7db3 0d3d dcce f5bc 1a15 fabc
000003b0: bd97 61bb 5e04 9ebb ae8b 97bc a6c2 bcbc
000003c0: e553 3abc c012 1fbc d6d4 1abd 88c1 093c
000003d0: e096 cfbb b273 e73b 74c4 96bc bc3b 223d
000003e0: dfe5 b2bc 9e39 c8bc cfa5 90bc e2ef 713b
000003f0: f807 933c 6132 243d c215 a2bc cdaf 10bc
0.017059555 0.038964882 -0.033103656 -0.00093363493 -0.020839864 0.010003035 0.030875823 0.0019244103
0.01593121 -0.036463134 -0.028251322 -0.017948925 0.02340471 -0.024797035 -0.0022793286 0.020958578
-0.028256223 -0.025506709 -0.020922707 -0.023778304 0.030913921 0.014706418 0.02605388 0.037396032
-0.038857274 0.0017066373 0.010256884 -0.024111886 0.004495267 -0.016842544 -0.027538016 0.009748028
3.2938126e-05 0.0023905246 -0.020984028 0.002034345 0.022680193 -0.032006413 -0.0020325948 -0.035240896
0.005729094 -0.025043355 0.0012163855 -0.025433993 0.023044486 -0.014969505 -0.020981714 -0.0071888706
0.008498022 0.039079145 0.0028267298 0.016238416 0.0024081103 -0.027752928 -0.02337231 -0.023775522
-0.0217069 -0.012357513 0.023248766 -0.0021826103 0.002602332 -0.016743079 -0.030213686 0.022971123
-0.022809314 0.005263627 0.0027212983 0.012299899 -0.03202557 -0.0037880065 -0.0024296273 0.009860955
-0.020921461 0.003181739 -0.00766154 -0.032918103 0.031504218 0.0030909893 0.009784546 0.037522536
-0.008897516 0.018865893 0.034770142 0.026164055 0.021861147 -0.030518059 -0.019461032 0.01625838
0.04011526 0.03568261 0.018529823 -0.0045600943 -0.037015405 0.024008606 -0.035204325 -0.016683452
0.032041468 0.028375227 -0.028026337 0.03168027 -0.016300019 0.02563502 -0.020877652 0.033715297
0.01094537 -0.0016964539 -0.022897163 -0.02555687 0.017577892 0.0033631239 -0.027292093 -0.01852297
-0.017763212 -0.01295257 -0.014660532 -0.015402494 0.03524808 0.00073546346 0.027460204 -0.037129715
-0.03223189 -0.031955328 0.024590937 -0.033558875 0.03866208 0.034666255 0.019828234 0.036164794
-0.023239536 -0.004769671 0.022505516 -0.013615475 0.019087149 0.021004308 0.032933187 0.011999402
-0.0029076242 0.021549713 -0.018798586 -0.0013358485 0.014176843 -0.016840566 0.00043576988 0.006068778
0.019722309 0.018763747 -0.017114084 -0.032764994 0.016942332 0.026000235 0.035272934 0.03353744
0.02714752 -0.0059349136 -0.015178744 -0.03442107 0.03176484 0.020115161 0.003981785 0.039078552
0.009892946 0.022982318 0.011536439 0.006516896 0.04050279 0.037833538 0.02540522 0.037524235
-0.018463328 0.019795822 0.018998086 0.021715414 0.018386917 -0.02577798 -0.02350636 0.035466153
-0.008650174 0.03749726 -0.010992151 0.02243793 -0.030372024 -0.01742753 -0.02751038 0.009542922
-0.028273799 0.0130170565 -0.02315895 0.016032975 -0.022271486 -0.03156452 -0.007788934 -0.002679607
-0.012029868 0.012782066 -0.033568166 -0.0190354 0.028788839 0.029261928 -0.019675748 -0.028203974
-0.012785716 0.024566317 -0.035599586 -0.0026459403 0.010654666 -0.018192938 0.0039001068 -0.034416582
-0.028536787 -0.014462196 0.026733281 0.0034662548 0.018042384 -0.028101873 -0.015003634 0.020515637
0.034488082 0.021644274 0.0014570536 0.024600293 -0.011148478 -0.036996696 0.012518737 0.020163909
0.021156963 0.033599008 -0.01210199 -0.03800792 0.012172233 -0.0059650172 0.0017583384 -0.032107558
-0.003730992 0.034595 -0.030005865 -0.03052764 -0.0034422718 -0.004822298 -0.018499222 -0.023042034
-0.011372541 -0.00970906 -0.037800632 0.008407958 -0.0063351244 0.0070633525 -0.018404223 0.03960775
-0.021838127 -0.024441537 -0.017657189 0.0036916663 0.017948136 0.040087108 -0.019785766 -0.008830977

weight f4 [64, 256]
00000000: 4999 67bd 0155 d8bb a0e9 84bc 9c93 24bd
00000010: dae7 46bd 6438 4fbd 6d4e 3d3c 4f43 4d3d
00000020: 2774 3b3d 042e 3a3c ffad d1bc 5098 673d
00000030: dd21 adbc 4e7a 243d 3341 fc3b 1295 3e3d
00000040: 8c1c 71bd fe9f 73bd f2ea 37bd f0a7 d33c
00000050: 0d43 27bc aebc 533d 0e2e 5f3d f293 b83c
00000060: f51e 4ebd 2898 b0bc 3111 e9bb 0bbc 363d
00000070: 68f0 4f3d 90af f03b ce63 cbbc 88bc b4bc
00000080: 9e53 613d 51fa 0bbd 1b27 21bd 95a2 273d
00000090: 9b13 383d be54 26bd ceda d53c 5acc 36bd
000000a0: 0652 17bd ba2d 0e3b b88e 6c3c f77d 67bd
000000b0: d151 243c 1466 fbbc e43a 0e3d cdf2 153d
000000c0: b4ad 9fbc 7450 6e3d ce5c 5dbd 9015 483d
000000d0: ec73 1abd a88b 753d 86e2 0dbc 5011 773c
000000e0: e0d9 203d 14b0 273d 8a36 24bd 19fc c63c
000000f0: b032 403c 1c22 7cbd a48f 9bbc f66d d7bc
00000100: 27f1 22bd 9b8a 463c 5bea bfbc bfac 94bc
00000110: a28d 553d 6f04 4b3d c2ae e4bc 653f 19bd
00000120: bc5f 0ebd 00a8 a03c aa7d 313d 9f1f 1ebd
00000130: 0ef7 043d 7805 373d e724 75bc ad73 133c
00000140: f530 edbb 3fa9 e83c 11a0 4f3d 7358 8f3c
00000150: a814 073d 41e2 483d ce7e ca3c b127 d3bc
00000160: afcc 6d3d 7f2c eebc 09f3 063d ce57 56bd
00000170: a014 32bc e8d1 b43c 7f8d 1bbd ee5a 5cbd
00000180: f8f4 a6bc 6b34 febc 40d3 d3bb e3ed 4c3d
00000190: 3aa2 2ebd e56d 12bd 5a26 613d 6403 7ebd
000001a0: 9093 083c 0419 ecbb e4ff 04bd ac7d 2b3d
000001b0: f0e7 3e3d 29d6 3fbc b562 6abc b865 043d
000001c0: 83e7 c63c 5507 7abd b265 4abd cec3 7d3d
000001d0: 49ee 19bd d270 723d 9ef4 1a3d 19f8 053d
000001e0: 2705 32bd 02f1 5f3d a7d7 043d 4018 30bc
000001f0: 4fe8 3b3d 4c72 4f3d 238a dfbc 2b97 6bbc
00000200: 14e2 243d 3a2c 653d 80dc b43c 4a1b 39bd
00000210: 92ab c2bc 9002 fabc a043 c4bc f0d8 7ebd
00000220: a9f4 223d 7c12 0ab9 1fb4 3dbd 480e 6c3c
00000230: af31 44bd bfa7 1b3d 220c 703d e443 c3b8
00000240: f6e2 b83c f6b0 123d b80f 7e3d 40ae 453b
00000250: 9a11 033d f3f7 f53c d5d5 e2bc 710f 12bd
00000260: 0cef aabb 1202 40bd d2e1 2dbc 364a 6b3d
00000270: 88e9 313d 2251 d0bc 1fff 273c 9e3c 033d
00000280: 6042 afbc 37ed 663d 5a4a 1f3b 622b 5b3d
00000290: 06fd 61bd 2096 8c3c d751 b33c 7fb5 4ebd
000002a0: b2ce 2cbd 07c6 31bd 9507 33bc a5fa 9ebc
000002b0: f425 4fbc d552 80bd e1a8 80bd ec9d 2d3d
000002c0: 6051 fb3c bde2 593d 6b59 40bd 938e 6dbd
000002d0: 5ac7 463d 8076 2dbd c547 9e3c dca8 57bd
000002e0: 9fd5 703d 7a53 36bd cbb2 96bb 5185 32bc
000002f0: 539d 5f3d 4fe4 4d3d 8017 a5bb 3212 5bbd
00000300: e3cf 683c f586 bd3c c783 293d c218 483c
00000310: 4ced 863c 5e4f 253d 8423 57bd 8c17 8ebc
00000320: f3ae 063d 4aab 0abd 70be 3f3c 958e 843c
00000330: 4e78 2fbd 7c7b b5bc f62b 34bd e6d3 17bd
00000340: 351c 0fbd b971 05bd 8873 d9bc 00e1 3f3d
00000350: e4ae 41bd 2c0e fcba 4376 5d3d 24be 543d
00000360: c766 393c 3e27 713d 4dba 63bd 8b9f d3bc
00000370: 4ea2 b73c 0857 74bd 889c f6bc 9045 5c3d
00000380: 4d3e 6a3c be0e 4abd be53 1fbd 08e4 143d
00000390: ddb9 91bc b2b3 40bd fe44 0dbd ebb9 673c
000003a0: 14ee 67bd 9a12 41bc c2be 12bd d540 21bd
000003b0: c868 53bc 89fb 3ebb 8eb4 7f3d e8f9 ddbc
000003c0: dc4f 443d 5c4f 05bd 763f 263d 7cd1 a0bc
000003d0: c849 213c c8a1 26bd eca8 ec3c 7cca 6f3d
000003e0: 4205 053a 1b50 6cbd a1ba ccba 206c 0eba
000003f0: 40c6 97bc 0c3b 183d 0448 ba3c 5e1a 383d
-0.05654267 -0.00660193 -0.016224682 -0.040179834 -0.048560955 -0.050590888 0.011554343 0.05011302
0.04576507 0.01136351 -0.025595663 0.05654174 -0.021134311 0.0401557 0.007698202 0.046528883
-0.058865115 -0.059478752 -0.044901796 0.025836915 -0.010208857 0.05169361 0.05448728 0.022531483
-0.05032249 -0.021556929 -0.007112645 0.044612925 0.05076638 0.0073451474 -0.024827864 -0.022062555
0.055011384 -0.034174267 -0.039343935 0.040926535 0.044940572 -0.04060816 0.02610531 -0.04462848
-0.036943458 0.0021694736 0.014438324 -0.056516614 0.010029272 -0.030688323 0.03472413 0.036608506
-0.019492008 0.058182195 -0.054043584 0.04884869 -0.037708208 0.05994764 -0.008659964 0.015079811
0.03927028 0.040939406 -0.040091075 0.024290131 0.011730835 -0.061555967 -0.018989392 -0.02629755
-0.039780762 0.012118007 -0.02342718 -0.018148778 0.052137025 0.049564775 -0.027915362 -0.037413973
-0.03475927 0.019611359 0.043332733 -0.038604375 0.032462172 0.04468295 -0.0149624115 0.008999747
-0.007238502 0.028401015 0.05068976 0.01749823 0.032978684 0.049043898 0.024718668 -0.025775762
0.05805653 -0.029073952 0.03294662 -0.05232983 -0.010869175 0.022072747 -0.037976738 -0.053797655
-0.020380482 -0.031030854 -0.006464392 0.050031554 -0.04263518 -0.035749335 0.054968216 -0.062014952
0.008335963 -0.0072051305 -0.0324706 0.041867897 0.04660791 -0.011708775 -0.01430576 0.03232357
0.024280315 -0.06104215 -0.04941339 0.061954312 -0.037580762 0.059189625 0.03783094 0.032707307
-0.043461945 0.054673202 0.032432225 -0.010747969 0.045875844 0.05064611 -0.027287548 -0.014379303
0.040254667 0.05595038 0.022077799 -0.04519204 -0.023763452 -0.0305188 -0.023958027 -0.062218606
0.039784107 -0.00013167592 -0.046314355 0.014407702 -0.047898944 0.038001772 0.05860532 -9.31097e-05
0.02256916 0.035813294 0.06202671 0.0030163676 0.031999208 0.030025458 -0.027689854 -0.035659257
-0.005216485 -0.046876974 -0.010612922 0.05744382 0.043435603 -0.025429312 0.010253697 0.03204023
-0.021393955 0.05637857 0.0024305792 0.05350817 -0.055172943 0.017161429 0.02188961 -0.050466057
-0.042189308 -0.043401744 -0.010927101 -0.019406626 -0.012643326 -0.06265799 -0.06282211 0.042386934
0.030678451 0.05319475 -0.046960276 -0.057997297 0.04852996 -0.04234934 0.019321332 -0.05265127
0.058797475 -0.044513203 -0.0045989505 -0.010896043 0.054593395 0.05026656 -0.005038202 -0.05348415
0.01420972 0.023135642 0.04138544 0.012212934 0.016470574 0.040358894 -0.052524105 -0.017345212
0.03288169 -0.03385476 0.011703119 0.01618127 -0.04283934 -0.022153609 -0.043987237 -0.037067316
-0.03493901 -0.032579158 -0.026544347 0.046845436 -0.04728593 -0.0019230298 0.05406786 0.051939145
0.011316008 0.058875315 -0.055597592 -0.025832912 0.02241626 -0.059653312 -0.030103937 0.053777277
0.01429708 -0.049330465 -0.038898222 0.03635028 -0.017788822 -0.04704637 -0.034489624 0.014143447
-0.056623533 -0.01178422 -0.035826452 -0.03936847 -0.0129034 -0.0029141626 0.06242805 -0.027096704
0.047927722 -0.032546386 0.040587865 -0.01963114 0.009844251 -0.04068163 0.028889142 0.058542714
0.0005074331 -0.057693582 -0.0015619585 -0.0005432982 -0.01852715 0.037165686 0.022739418 0.04494702

bias f4 [64]
00000000: 3461 19bd e635 3cbd cdc6 dd3c 3b55 5cbd
00000010: aa7a 4bbb 0c6f 1a3c 3f82 61bc 5ccf 123b
00000020: 9208 d8bc 42d4 2b3d 7f94 abbc 0848 95bc
00000030: 6afa 20bd 4ee6 c3bc 0ce4 fb3c 96ca 86bc
00000040: 0e97 61bd cb15 ac38 d161 86ba e299 423d
00000050: ac50 043d e74e 97bc d238 40bd 4b60 333d
00000060: ba69 7bbc 3487 433d 75b8 39bd b7d4 a8bc
00000070: 688f e7bc 2202 393d 80be 05bd f686 b9bc
00000080: e98d 1fbd 9c87 b43b 5aa1 313c 8cb3 2abd
00000090: d0b9 cd3c f2f0 11bd 7e15 b43b 0873 103d
000000a0: dd24 983c 255b 65bd b329 133d 40a1 e93c
000000b0: b812 49bc 74fd 65bd d5c1 a23c 1c19 1abc
000000c0: 345a 483d 6e0e 19bc e342 e93c 644a 8a3d
000000d0: 8366 a63c f60f 903b 1cae 17bd 62c1 5abd
000000e0: 7907 6fbc b924 58bc d12d 483d 7c2a 23bd
000000f0: 94f7 393d 672f 3c3d 9206 0e3c 71d3 de3c
-0.037446216 -0.04594984 0.027072335 -0.05379222 -0.0031048455 0.00942589 -0.013763963 0.0022401428
-0.026371274 0.04195047 -0.020944832 -0.018222824 -0.039301313 -0.023913529 0.03074839 -0.016454022
-0.055075698 8.2056584e-05 -0.001025254 0.047510035 0.032303497 -0.01847024 -0.046929188 0.043793004
-0.015345031 0.04773636 -0.045341928 -0.020609243 -0.028266624 0.04516805 -0.032652378 -0.022647362
-0.038953695 0.00550933 0.010841692 -0.041675135 0.025113016 -0.035630174 0.005495726 0.035265952
0.018572265 -0.055995125 0.03592844 0.028519273 -0.012272529 -0.056149915 0.019867817 -0.009405401
0.04891415 -0.009341819 0.028474277 0.0675247 0.020312553 0.004396434 -0.037031278 -0.05340708
-0.014589184 -0.013192349 0.04887182 -0.039835438 0.045402125 0.045943644 0.008668559 0.027200432

weight f4 [16, 64]
00000000: 01b8 853c de7c a83d c76b e3bd d6a3 903b
00000010: 0ed8 0b3d 19ad 3a3d 75e5 443d 1861 773d
00000020: b96b a03d c49e a63d d370 3c3c 2086 b8bd
00000030: 1723 f73d 36a1 673c 70d7 e2bd 6f9d 8d3c
00000040: 30c3 d93c 1a68 c8bc 0556 5f3d 3cb8 b43c
00000050: a860 813c 2f75 9b3d 48aa 68bd 8b0b 84bd
00000060: 56cf b0bd c618 bdbd d4e9 043c da91 3dbd
00000070: 8aa7 a6bd 206a c6bd 8f3d b4bd 224f e9bd
00000080: c679 af3d f48f 803d 92b9 08be b92b 44bd
00000090: a785 ad3d 9845 94bd 2b87 a1bc 8e31 d8bd
000000a0: 7cc1 c4bd 4abd dfbd 30fe 8d3d f83e e13d
000000b0: c827 733d 4876 e33d 72a5 c8bd bf85 adbd
000000c0: c0c1 ae3d 89ea 88bd 2968 9dbb 3776 a03d
000000d0: 5f5c f4bc af74 ca3d a621 f3bd 3ad7 c6bd
000000e0: fd01 52bd d08b 0f3d f433 173d be96 963d
000000f0: 08b6 423d 4845 873d 6f6b 853c b4d1 073e
00000100: e819 613d a4b2 91bd 9e9b 4ebd 1a16 883d
00000110: dac1 8e3d 900d 94bd 0fda b73a 9348 e83d
00000120: 8f34 d83c da77 f13b b86c b13c d431 f8bd
00000130: 215a 0ebd d8d7 edbd f390 103c 093c fc3d
00000140: 0ea0 f9bd c427 b1bd 5577 ddbc 68fc 8a3d
00000150: 3657 373c 826e 943d fa9c e73d 6fe2 da3d
00000160: 01c7 de3d 5eb5 eb3d 98f7 76bd f4cc 92bd
00000170: f2e9 83bd fdd3 e53d e84d 59bd ee9f b73d
00000180: 666f 83bd f773 c73b ff50 603d 144b 7e3c
00000190: 824a bb3d b88c f93d d606 bfbd c969 c83d
000001a0: 5c0d 593d 0011 51bd 30f0 ee3c d01b bfbc
000001b0: 1086 b33d 80ef 56bb 11a0 b8bd 6133 a6bc
000001c0: 9276 ea3d 608c adbb 313f c83d 2a2a 3dbd
000001d0: ffcc f2bd 8e9a 77bd 1ebf f63d ceb5 813d
000001e0: e4ac 773d a819 dd3d 90a8 26bd 0609 a23d
000001f0: fdfe 9dbd 9f82 b1bd f75a 813d b3eb 5cbd
00000200: e875 f13c 9002 cebd 228b a0bd b8d0 77bd
00000210: 608c 02bd 0893 0dbd b07f 8d3d c08f 6cbd
00000220: 10e3 0e3c e267 a13d 2c61 a3bd fa2d d23d
00000230: 6894 6bbd ec04 0a3d 44b7 2ebd 36ef 9abd
00000240: 8897 5d3d b85f 903c 625c d73d 7af8 dbbd
00000250: 9828 863d 7017 dabd 58ae 793d a6fa b1bd
00000260: 202d 3b3c 4c09 7c3d b4f9 7abd ccc9 8a3d
00000270: cca5 153d 7275 a43d 6879 bd3c 4029 0bbd
00000280: d0fe d7bd cc5b 983d 00bb 1cba 1aeb babd
00000290: dc76 dd3d 1425 1b3d 842e 5abd 24c9 723d
000002a0: 7230 bc3d 9ced 1abd 9847 b1bd 309c e93d
000002b0: c080 70bd e01d 66bc f096 64bd 0e5c fcbd
000002c0: 9049 40bc e0df f1bd 98d1 9a3c 40ed bc3c
000002d0: 0065 a3bd c83b b9bc d4bc 7fbd 48fb fbbc
000002e0: 7e98 bcbd 50b3 e4bd c032 3dbd 3804 babc
000002f0: 40dd 643b 7035 fdbd be1e a7bd 1ca6 223d
00000300: e2af 9bbd 6226 afbd 30a4 09bc bec1 f3bd
00000310: b493 1d3d 1430 27bd b09e ef3c 4048 693c
00000320: d2e1 d1bd 445c febd 80c2 3abc 7024 f53d
00000330: 8677 b7bd 4400 ea3d 9e79 8ebd f41c 9abd
00000340: 0066 22ba 3472 9cbd 0ee0 d63d 8e55 acbd
00000350: 481c 923c fcb7 b33d 62a0 903d 2018 80bd
00000360: 846c 333d a855 65bd 8cca c03d c857 0c3d
00000370: 1052 9bbd f005 97bc 1058 ef3d 08cc 993c
00000380: 84d5 b03d d07a 883c c245 b3bd ac8b 61bd
00000390: ec84 5f3d 500e 133d 00f6 a23b 18d5 e43d
000003a0: c83b 7e3d 2079 d2bc ccb5 f3bd 564c cabd
000003b0: 90c3 393d 1cd2 8a3d 10ce edbc d088 4cbc
000003c0: 102b 573c 1c4b b33d 40ff f0bc b0c9 65bd
000003d0: dc03 81bd c2ec aabd 20e8 7bbc c086 2ebc
000003e0: 96e7 e1bd 7252 933d 80b6 3b3c 72a4 d1bd
000003f0: d846 d6bc 10a3 d63c 90b5 0e3c 8a8e f2bd
0.016323091 0.082269415 -0.11104541 0.004414062 0.034141593 0.045575235 0.04807039 0.06039533
0.078330465 0.08135751 0.011501509 -0.09009957 0.1206724 0.014137557 -0.11076248 0.017286984
0.02658233 -0.024463702 0.054525394 0.022060506 0.01579316 0.0759071 -0.056803018 -0.06447514
-0.08633296 -0.09233241 0.00811239 -0.046281673 -0.08137424 -0.096882105 -0.08800804 -0.113920465
0.08568148 0.06277457 -0.1335204 -0.04789326 0.08472758 -0.072398365 -0.019717773 -0.10556327
-0.09607217 -0.10924776 0.06933248 0.109983385 0.05936411 0.11106545 -0.09797181 -0.08472776
0.08533049 -0.06685359 -0.0048036766 0.07835048 -0.029829202 0.09885537 -0.11871652 -0.0970902
-0.051271427 0.035045445 0.03691478 0.073529705 0.04753688 0.06605011 0.01628658 0.13263589
0.054956347 -0.07114151 -0.050441377 0.066448405 0.06970568 -0.07229149 0.0014026779 0.113419674
0.02639225 0.0073690237 0.021658286 -0.12118879 -0.034753922 -0.116134346 0.008823621 0.12316138
-0.12188731 -0.08650163 -0.027034441 0.06786424 0.011190226 0.0724764 0.11309238 0.1068772
0.10877801 0.115092024 -0.060294718 -0.07167998 -0.06441106 0.11222074 -0.053052813 0.08966051
-0.06417732 0.006086822 0.054764744 0.01552083 0.091450706 0.12185043 -0.09327476 0.09785802
0.052991256 -0.051041603 0.029167265 -0.023328692 0.08765805 -0.0032796562 -0.09014905 -0.020288171
0.11448397 -0.005296275 0.09777678 -0.04618279 -0.11855506 -0.06045013 0.120481715 0.063335046
0.060467616 0.10795909 -0.040688097 0.07911877 -0.07714651 -0.08667492 0.06316178 -0.053935718
0.029475167 -0.100590825 -0.078390375 -0.060501784 -0.031872153 -0.034564048 0.0690912 -0.05775428
0.008721128 0.07881142 -0.079775184 0.102626756 -0.057514578 0.0336961 -0.042655244 -0.07565157
0.05409959 0.017623767 0.105156675 -0.107407525 0.065507114 -0.106490016 0.060957283 -0.086903855
0.011424333 0.061532304 -0.06127329 0.06776771 0.03653507 0.080302134 0.02312918 -0.033974886
-0.105466485 0.07439384 -0.0005978793 -0.09126873 0.10813686 0.037877157 -0.053267017 0.059273854
0.09188928 -0.03782426 -0.086562335 0.114067435 -0.058716536 -0.014045209 -0.055808008 -0.123222455
-0.011736289 -0.11810279 0.01889877 0.023062348 -0.079782486 -0.022611514 -0.06243594 -0.030759469
-0.09208773 -0.11167014 -0.046190977 -0.02270709 0.0034921914 -0.12363708 -0.081601605 0.039709195
-0.07601906 -0.08552243 -0.008400962 -0.11902188 0.03847094 -0.040817335 0.029250473 0.014238417
-0.1024815 -0.12419942 -0.0113989115 0.119698405 -0.08958344 0.11425832 -0.069567904 -0.075250536
-0.0006195009 -0.0763897 0.10491954 -0.08414756 0.017835751 0.087753266 0.070618406 -0.062546015
0.04380466 -0.05598989 0.09413633 0.034263402 -0.075840116 -0.018435448 0.116867185 0.018774047
0.08634475 0.016660124 -0.087535396 -0.055064842 0.054570124 0.03590232 0.004973173 0.11173457
0.06206873 -0.025692523 -0.118999094 -0.09877841 0.04535252 0.067783564 -0.029028922 -0.0124837905
0.0131328255 0.0875456 -0.029418588 -0.056100547 -0.06299564 -0.08345939 -0.015375167 -0.010652244
-0.110305 0.071934596 0.011457086 -0.102364436 -0.026156828 0.026200801 0.00871028 -0.118435934

bias f4 [16]
00000000: 5ffd ad3d 0062 acbd 0e54 94bd 50b2 363c
00000010: d2c9 c43d 661b d13d ad82 e63d 80ea fbbc
00000020: 40a7 053e 98cb abbc 9441 9cbd 7be2 85bc
00000030: 18b8 5f39 875f a2bd 5e5b aebd dc5a 47bd
0.08495592 -0.084171295 -0.07242595 0.011150911 0.09608807 0.10210304 0.11255393 -0.030751467
0.13052082 -0.020971105 -0.076296955 -0.016343346 0.00021335518 -0.07928377 -0.08513521 -0.048670635

weight f4 [2, 16]
00000000: 5a57 e53d 4c4c fc3d c088 6c3c 8093 c23c
00000010: 0925 f23d e1bf 3abe 5ba2 efbc 58cc 45bd
00000020: 550c 2fbe 00c8 ffb9 8018 353e 9a52 5f3c
00000030: 1aee 7cbe 548d 863d 7471 aa3d 4b70 e0bd
00000040: 1e80 3f3e 0ec5 15be d88c 173e 8042 783c
00000050: 2732 82be 9970 5fbe fcf8 6ebe bc1e 44be
00000060: a29e e6bd a437 ddbd 9411 d4bd 3381 403e
00000070: 26a7 1cbe da3d 6fbd 4002 453d a25a 70bc
0.111983016 0.1231924 0.014436901 0.023751974 0.1182347 -0.18237258 -0.029252222 -0.04829058
-0.17094548 -0.00048786402 0.17685127 0.013630534 -0.24700204 0.06569925 0.08322421 -0.10958918
0.18701217 -0.14625952 0.14799821 0.015152574 -0.25428888 -0.21820296 -0.23337168 -0.19152349
-0.112607256 -0.10801628 -0.10354915 0.18799286 -0.15298137 -0.058408596 0.04809785 -0.014670046

bias f4 [2]
00000000: 5406 2d3e ce28 44be
0.16896945 -0.19156191
