model2.pt (torch_old, 763093 bytes, 14 tensors)

weight f4 [6, 3, 5, 5]
0	0x3dcd4fdf	0.10025
1	0x3dcd4316	0.10022561
2	0x3c51a845	0.012796466
3	0x3df34aeb	0.11879524
4	0xbcf315c5	-0.029673466
5	0x3df871f4	0.1213111
6	0x3e12c460	0.14332724
7	0x3e0348bd	0.12820716
8	0x3db35736	0.087568685
9	0x3c99813f	0.018738387
10	0x3dd0d714	0.10197273
11	0x3dfb0c02	0.1225815
12	0x3e16065e	0.14650866
13	0x3da6dba4	0.08147362
14	0x3cea5740	0.028606057
15	0xbd8992bb	-0.0671744
16	0x3cdf467e	0.027255293
17	0x3d4c051c	0.04980956
18	0x3e0b660e	0.1361315
19	0x3d33572e	0.043784313
20	0x3e0a4e67	0.1350647
21	0x3ca5be43	0.020232325
22	0xbd774ed7	-0.060377922
23	0x3dedafdf	0.116058104
24	0xbd5c1c6b	-0.05373804
25	0xbd8b50e7	-0.0680254
26	0x3dfb8852	0.122818604
27	0x3bb7a68f	0.005604572
28	0x3d3c7012	0.046005316
29	0xbc62ccae	-0.013842745
30	0xbbdc3ed7	-0.0067213583
31	0x3e0fdef3	0.14049892
32	0x3dc45870	0.095871806
33	0xbda97ac4	-0.08275369
34	0x3d59b4f3	0.053151082
35	0xbd8374d6	-0.06418769
36	0xbd0c38c7	-0.034233835
37	0x3ce69516	0.028147262
38	0xbc85854c	-0.016298912
39	0x3e00ef99	0.12591399
40	0x3d77f648	0.060537606
41	0x3e1419e3	0.14463
42	0x3d3eff87	0.04663041
43	0x3cb62320	0.022233546
44	0x3d88ceb2	0.06680049
45	0xbcbf5456	-0.023355644
46	0xbd4dde78	-0.05026099
47	0xbd008079	-0.03137252
48	0xbd054ea0	-0.032545686
49	0x3dac7cf9	0.08422274
50	0x3d55287e	0.05204057
51	0x3dfe31dd	0.124118544
52	0x3d4fde8e	0.050749354
53	0x3e06e01f	0.13171433
54	0x3cc69237	0.024239643
55	0x3d07c9fe	0.03315162
56	0x3d007acb	0.031367105
57	0x3bd11b9e	0.006381466
58	0xbd0f6db5	-0.035016734
59	0x3da94880	0.082657814
60	0x3c66d091	0.014087812
61	0xbd5f0377	-0.054446664
62	0xbdb1c85e	-0.08680795
63	0x3d81be18	0.06335086
64	0x3d902bb4	0.07039586
65	0xbac3fa45	-0.0014951905
66	0xbc73bcb3	-0.014876532
67	0xbd5bc449	-0.05365399
68	0x3cebcdbf	0.02878463
69	0xbbf83379	-0.0075744954
70	0x3d7b99c6	0.061425947
71	0x3d00c05c	0.03143345
72	0xbd415a73	-0.0472054
73	0x3c1b18d1	0.009466366
74	0x3e006a0e	0.12540457
75	0xbdc42573	-0.09577455
76	0xbc2c57b5	-0.010518958
77	0x3d4372a5	0.047716755
78	0x3da57365	0.080786504
79	0xbc92258f	-0.017840175
80	0xbd7e8f7e	-0.062148564
81	0x3da578a2	0.080796495
82	0x3c2071be	0.009792743
83	0xbd0332ce	-0.032030873
84	0x3dca3b14	0.098745495
85	0xbd992326	-0.07477407
86	0x3dd86daa	0.10567792
87	0xbd6bca5c	-0.05756603
88	0x3d4749bb	0.0486543
89	0x3dfaa5b1	0.122386344
90	0xbc9aa833	-0.018879032
91	0xbdb300e5	-0.08740405
92	0xbd3d3013	-0.046188425
93	0xbd6eacac	-0.05827014
94	0x3cb7152f	0.022348968
95	0xbddde13e	-0.10833977
96	0x3c11aec3	0.008891764
97	0xbb4e328b	-0.0031463231
98	0x3d9eade0	0.07748008
99	0xbd9b86fc	-0.075941056
100	0xbb8ebe16	-0.004356156
101	0xbdb5dc86	-0.08879952
102	0xbca8296d	-0.020527566
103	0x3d09d78f	0.03365284
104	0x3cef6b67	0.029226018
105	0xbdb0cb51	-0.086325295
106	0x3df0374e	0.117292985
107	0xbd9411c7	-0.07229953
108	0xbd1de25a	-0.038545944
109	0xbba58060	-0.005050704
110	0x3d66023a	0.056154467
111	0xbcbb8a9a	-0.022893239
112	0x3d8832ae	0.066502914
113	0x3c5d989a	0.013525153
114	0x3b61659a	0.0034392835
115	0x3d663e93	0.05621202
116	0x3da686d7	0.081311874
117	0xbd84e23f	-0.064884655
118	0xbd874ab3	-0.066060446
119	0x3d69969b	0.057028394
120	0xbd797623	-0.06090368
121	0xbd16890b	-0.036751788
122	0xbd1692b9	-0.03676102
123	0xbd0a9f0f	-0.033843096
124	0xbd9e1f57	-0.07720821
125	0xbd2e7e37	-0.042600837
126	0xba73b308	-0.0009296392
127	0x3dfa0aa2	0.12209059
128	0x3e10aa7d	0.14127536
129	0x3d2add89	0.04171518
130	0xbdaccc10	-0.08437359
131	0x3dbc9885	0.09208778
132	0x3d48f3d6	0.049060665
133	0x3e029c77	0.12754999
134	0x3d4742e8	0.04864779
135	0x3cd6406e	0.02615377
136	0x3ceec593	0.029146945
137	0xbd91d90c	-0.071214765
138	0x3acce763	0.0015632923
139	0x3bbb2523	0.005711214
140	0x3da4f693	0.08054843
141	0x3e0867b1	0.13320805
142	0x3db8b9fc	0.09019849
143	0x3da7d660	0.08195186
144	0x3d93548a	0.07193859
145	0x3e062194	0.13098747
146	0xbd9ada8f	-0.07561218
147	0x3dc0a9f9	0.0940742
148	0x3db24182	0.08703901
149	0xbc1ec020	-0.009689361
150	0xbb7c631f	-0.003851123
151	0x3c73f96f	0.014891013
152	0x3da1e091	0.07904161
153	0xbbdebbf9	-0.0067973104
154	0xbce8ca50	-0.028416783
155	0x3de91bd6	0.113822624
156	0xbd5bba07	-0.053644206
157	0xbdd5f47d	-0.10447023
158	0xbcfe3d37	-0.031035049
159	0x3d76483d	0.060127486
160	0xbd16adf7	-0.036787
161	0xbd2c8099	-0.042114828
162	0xbcdd2d8f	-0.026999263
163	0x3d95aef1	0.07308758
164	0x3d1a3f09	0.03765777
165	0x3d053b30	0.03252715
166	0x3b527a0a	0.0032116198
167	0x3ca55206	0.020180713
168	0x3dd6293d	0.10457084
169	0x3c5288c2	0.012849988
170	0x3dc52538	0.096262395
171	0x3e04fff4	0.12988263
172	0x3da79474	0.08182612
173	0x3d60138f	0.054706153
174	0xbd03e903	-0.03220464
175	0xbb47e191	-0.0030499438
176	0xbc1e09cc	-0.00964589
177	0xbde448dc	-0.11146709
178	0x3d923b1a	0.07140179
179	0xbdbf72f5	-0.09348098
180	0x3d85f3e7	0.06540661
181	0xbd17947d	-0.037006844
182	0xbd0c8b96	-0.034312807
183	0xbd9f7849	-0.077866144
184	0xbd2fd403	-0.0429268
185	0x3e027d84	0.12743193
186	0xbd987e14	-0.074459225
187	0xbc989313	-0.018624818
188	0xbb8192b4	-0.003954256
189	0x3e06c9e9	0.1316296
190	0x3d22112c	0.039567158
191	0x3d8a158b	0.0674239
192	0xbd39d6fd	-0.045371044
193	0x3b82a051	0.0039863964
194	0x3d2ad4a4	0.041706696
195	0x3dd7703d	0.10519455
196	0x3d9c7d1b	0.076410495
197	0xbd969dac	-0.07354292
198	0xbd50fd41	-0.05102277
199	0x3ddeb509	0.108743735
200	0xbdb43b81	-0.08800412
201	0xbd75b7ef	-0.059989866
202	0xbdc9c322	-0.09851672
203	0xbd959ffa	-0.07305904
204	0xbca5bf84	-0.020232923
205	0x3dccdbea	0.10002883
206	0x3dcf66d2	0.10127033
207	0xbd32bc41	-0.043636564
208	0xbcd8570d	-0.026408697
209	0x3dc99943	0.098436855
210	0xbd99cd97	-0.07509916
211	0x3d44fbe5	0.048091788
212	0xbc9dc903	-0.019260889
213	0xbd4d42fe	-0.050112717
214	0xbc5c7e6c	-0.013457876
215	0x3e08ad49	0.13347353
216	0xbda2a199	-0.079409786
217	0xbd0a4265	-0.033754725
218	0xbd480d39	-0.048840735
219	0x3de37231	0.11105765
220	0xbd950969	-0.072771855
221	0xbd9abc02	-0.07555391
222	0xbcba91de	-0.022774633
223	0xb941e01a	-0.00018489399
224	0xbccb325d	-0.024804289
225	0x3e124fc0	0.14288235
226	0x3d95101c	0.07278463
227	0x3dd506ce	0.104016885
228	0x3986c59d	0.00025705705
229	0xbd45659c	-0.048192605
230	0xbd6594bc	-0.056050047
231	0xbc85c0fb	-0.016327372
232	0xbcba5681	-0.022746326
233	0x3e28b554	0.16475421
234	0x3e0d1a08	0.13779461
235	0x3d212ca6	0.03934922
236	0x3d308961	0.043099765
237	0x3c493fae	0.012283249
238	0x3e17e5a1	0.1483369
239	0xbc29de56	-0.01036795
240	0x3d495e7d	0.049162377
241	0x3dc66138	0.09686512
242	0x3def1c78	0.11675352
243	0x3de4f123	0.11178806
244	0xbd63bd74	-0.0556006
245	0x3a965fd1	0.0011472647
246	0x3dcb2134	0.09918442
247	0x3ccc613b	0.024948707
248	0xbd31cebe	-0.043410055
249	0xbb4a3f38	-0.0030860435
250	0x3d781792	0.060569353
251	0xbc13095c	-0.008974399
252	0x3e0212c5	0.12702473
253	0x3d849cca	0.06475218
254	0x3de1b2df	0.11020445
255	0x3e075f39	0.13219918

bias f4 [6]
0	0xbdcb0a6e	-0.09914099
1	0x3c4e318a	0.012585053
2	0x3ce227c5	0.027606854
3	0xbde5b838	-0.112167776
4	0x3ccef49c	0.025263123
5	0x3c6f95f3	0.014623153

weight f4 [16, 6, 5, 5]
0	0x3d65cd49	0.05610398
1	0x3d870e57	0.06594532
2	0x3dda837c	0.1066961
3	0x3cd93a10	0.026516944
4	0x3c637ab6	0.013884237
5	0x3ddcb95c	0.10777542
6	0x3c46b793	0.012128728
7	0xbd3033da	-0.0430182
8	0x3da0dfd1	0.078551896
9	0x3d2b87ac	0.041877434
10	0xbceb71b6	-0.028740745
11	0x3d048b4d	0.03235941
12	0x3d74f43b	0.05980323
13	0x3df0d94c	0.11760196
14	0xbbfa0729	-0.007630248
15	0x3cb2d20c	0.021828674
16	0x3d5709cd	0.05249958
17	0xbcb9d5dc	-0.022684984
18	0x3d8b0b43	0.067892574
19	0xbc1df55f	-0.009641021
20	0x3dd25e5e	0.10271905
21	0xbc503311	-0.012707488
22	0x3d71aaff	0.059000965
23	0x3c7d48e2	0.015459271
24	0x3d57b1d4	0.052659824
25	0xbbf96866	-0.007611322
26	0x3d8acad4	0.06776968
27	0x3d161992	0.03664548
28	0xbace4387	-0.0015736677
29	0x3c0db344	0.008648697
30	0x3cfb54fa	0.030680168
31	0x3d8fe480	0.07026005
32	0x3b916047	0.004436526
33	0xbd74ccc3	-0.05976559
34	0xbda27538	-0.07932514
35	0x3d2cdda8	0.042203575
36	0x3d367e6a	0.04455415
37	0x3d6f0173	0.05835099
38	0x3d80e75b	0.062941276
39	0xbd489b4a	-0.04897622
40	0x3d94a1f8	0.072574556
41	0x3d806b5a	0.06270476
42	0xbcf3814f	-0.029724745
43	0xbbadec0b	-0.0053076795
44	0xbb78793f	-0.0037914065
45	0xbc102beb	-0.008799533
46	0x3d74f402	0.059803016
47	0xbc0e045d	-0.0086680325
48	0xbbc1656e	-0.005901984
49	0xbd96073e	-0.073256
50	0x3c892e8e	0.016745832
51	0x3d83db4e	0.064383134
52	0x3dd7adba	0.105311826
53	0x3db2499a	0.08705445
54	0x395effc1	0.00021266846
55	0x3db273e3	0.0871351
56	0xbcc44076	-0.023956519
57	0xbcf87cd1	-0.030332955
58	0x3dc50832	0.09620704
59	0x3d714464	0.058903113
60	0xbc8731d1	-0.016503247
61	0x3d82b666	0.06382446
62	0xbb770055	-0.0037689407
63	0xbd53c6fc	-0.05170344
64	0x3d01e80c	0.031715438
65	0x3ce79eb7	0.028273923
66	0xbd9cbf2e	-0.07653652
67	0x3c9cace0	0.019125402
68	0x3d7e55ce	0.06209355
69	0x3cfab1dc	0.030602388
70	0x3d1424f9	0.036168072
71	0xbccd9114	-0.025093593
72	0x3cecd8b6	0.02891193
73	0xbd8dbe02	-0.06921007
74	0xbd4748d8	-0.048653454
75	0x3de4cde5	0.11172084
76	0x3d974bc5	0.07387499
77	0x3da263d9	0.07929201
78	0x3d5d5cfa	0.054043747
79	0xbd56b594	-0.05241926
80	0x3dd39098	0.103303134
81	0xbd0e056d	-0.034673143
82	0xbd0d14c6	-0.03444364
83	0x3c13ae7e	0.00901377
84	0xbd0b1e84	-0.03396465
85	0x3c818fb1	0.015815588
86	0x3ddc5a32	0.10759391
87	0x3dad9ff1	0.08477772
88	0x3d3eb664	0.04656066
89	0x3d2cfc1c	0.042232618
90	0x3d2c652a	0.042088665
91	0x3c16ffc5	0.009216254
92	0x3d6f6a8b	0.058451217
93	0x3dabe87e	0.08393954
94	0x3d95e737	0.07319491
95	0x3d9c466d	0.0763062
96	0xbd5fd79c	-0.05464898
97	0x3c6bbc10	0.014388099
98	0xbd1eb549	-0.038747106
99	0x3d277536	0.040883265
100	0xbd1046d4	-0.035223797
101	0xbd0d44cb	-0.034489434
102	0xbcc9b52e	-0.024622526
103	0x3cecb384	0.028894193
104	0xbcff4c58	-0.031164333
105	0x3bd5d132	0.006525182
106	0x3dc3e401	0.09564973
107	0xbc946a50	-0.0181171
108	0x3bacaa53	0.0052693277
109	0x3c90a36a	0.017656047
110	0x3d1d9b17	0.038477983
111	0x3b96270a	0.0045822905
112	0x3c97903c	0.018501393
113	0x3d5b0049	0.05346707
114	0xbb2a2bd3	-0.0025966063
115	0xbc067e37	-0.008208803
116	0x3c895a05	0.016766557
117	0x3d937adf	0.0720117
118	0x3abbc2c0	0.0014325008
119	0xbcabd3ab	-0.020974955
120	0x3d71c842	0.05902887
121	0xbd43b415	-0.04777916
122	0x3d9a503f	0.07534837
123	0x3d6de0c1	0.05807567
124	0x3d5db091	0.054123465
125	0x3d5392e5	0.05165376
126	0xbba7e2da	-0.0051234784
127	0x3de0982d	0.10966525
128	0x3d9de466	0.07709579
129	0x3dba84d1	0.09107364
130	0xbd2c01e3	-0.041993987
131	0x3de007e3	0.10939004
132	0x3d47fbe0	0.04882419
133	0x3da04b28	0.07826835
134	0x3d702687	0.058630493
135	0x3d933bd0	0.07189143
136	0xbc909129	-0.017647343
137	0x3de17fa6	0.11010675
138	0x3d9943a1	0.07483602
139	0xbcb0cde1	-0.021582546
140	0x3d317a78	0.043329686
141	0x3b6b4717	0.0035900527
142	0x3ddb1460	0.106972456
143	0x3c6c2423	0.014412913
144	0x3da13320	0.078710794
145	0x3d73b6a6	0.05950036
146	0xbb3f9936	-0.0029235608
147	0xbbc90a37	-0.006135251
148	0x3d0b5375	0.034015138
149	0x3d876865	0.066117086
150	0x3d22b660	0.039724708
151	0xbd41c6d4	-0.047308758
152	0xbcc1621e	-0.023606356
153	0xbcc17fac	-0.023620449
154	0x3c3cf0f4	0.011532057
155	0x3c10681b	0.008813883
156	0x3d8ceadd	0.06880734
157	0x3dbbec53	0.09175935
158	0x3c28e534	0.0103085525
159	0x3ca1c9c8	0.019749537
160	0x3da85c37	0.082207136
161	0x3da3b793	0.079939984
162	0x3c4e0401	0.012574197
163	0x3dae9d78	0.085261285
164	0xbca8ebd0	-0.020620257
165	0x3df4093d	0.119158246
166	0x3dc25a83	0.0948992
167	0x3de11615	0.1099054
168	0xbcf5f953	-0.030026114
169	0x3d9c769e	0.07639812
170	0x3cd2980c	0.025707267
171	0xbc546364	-0.01296315
172	0x3d3526d7	0.044226494
173	0x3da4ccc7	0.08046871
174	0x3ddba9b5	0.107257284
175	0x3d17e31d	0.037081826
176	0xbcad50e7	-0.021156741
177	0xbd0e063a	-0.034673907
178	0xbdbdc790	-0.09266579
179	0xbc35b489	-0.011090406
180	0xbd0dfa6d	-0.034662653
181	0x3bede245	0.0072596394
182	0x3c1bd4aa	0.009511152
183	0x3d84c01c	0.064819545
184	0xbb880e2f	-0.0041520814
185	0x3d8034ec	0.06260094
186	0x3c726711	0.014795081
187	0xbd2d1067	-0.04225197
188	0x3cd655f4	0.026164033
189	0xbcaade73	-0.020858025
190	0xbc86779a	-0.016414452
191	0xbd230719	-0.03980169
192	0x3cf4fa05	0.029904375
193	0x3c333963	0.010938975
194	0xbc92af37	-0.017905815
195	0x3d5f384b	0.054497045
196	0xbd7b312e	-0.0613262
197	0xbca79eab	-0.020461401
198	0xbdbe0707	-0.09278684
199	0xbd603127	-0.054734375
200	0x3d9aaebb	0.075528584
201	0xbc9f6875	-0.019458989
202	0x3d996344	0.074896365
203	0x3d5f9a65	0.0545906
204	0x3ddc7320	0.10764146
205	0x3c991487	0.018686546
206	0xbc49438f	-0.012284174
207	0x3cf4fb6c	0.029905044
208	0x3d1bf99e	0.03807985
209	0x3d4c35df	0.049856063
210	0xbd67571b	-0.056479555
211	0x3b4fa840	0.0031685978
212	0xbd6f91ed	-0.058488775
213	0x3d59f647	0.053213384
214	0x3d3616cb	0.04445533
215	0xbd9308fa	-0.071794465
216	0xbcc8ce0c	-0.024512313
217	0xbd1b8a5a	-0.03797374
218	0x3d201660	0.03908384
219	0xbd817855	-0.0632178
220	0x3d4ca71f	0.049964067
221	0x3cb267a0	0.021777928
222	0x3cdfaf33	0.027305221
223	0x3d8cdd81	0.06878186
224	0x3d275666	0.04085388
225	0x3dd7c03d	0.105347134
226	0x3da42370	0.08014572
227	0x3da7ab5f	0.08186983
228	0x3cf3541d	0.029703194
229	0x3c300446	0.010743206
230	0x3d19a899	0.037514303
231	0xbc3c07b7	-0.011476449
232	0x3cdf78ae	0.027279224
233	0xbc7e5c94	-0.015525002
234	0x3cec7ef7	0.028869135
235	0x3df5155c	0.119669646
236	0xbcdec0eb	-0.0271916
237	0x3da0a878	0.07844633
238	0x3d223341	0.03959966
239	0x3d2ba1e2	0.04190243
240	0xbc875df4	-0.016524293
241	0x3d9d820a	0.076908186
242	0x3d845506	0.064615294
243	0x3c3267f6	0.010889044
244	0xbb57f8e0	-0.0032954738
245	0xbd44453f	-0.0479176
246	0xbc6f29d3	-0.014597374
247	0x3d8ee856	0.06977908
248	0x3da5c9e9	0.08095152
249	0x3d9638b8	0.07335037
250	0x3dce4a69	0.10072786
251	0x3d2b6123	0.041840684
252	0x3cca7384	0.024713285
253	0x3e079067	0.13238679
254	0xbd0c2440	-0.03421426
255	0xbbc05f82	-0.0058707604

bias f4 [16]
0	0x3c7d5fff	0.015464782
1	0xbcfac572	-0.030611727
2	0xbd8db885	-0.0691996
3	0x3c818968	0.01581259
4	0x3db98662	0.090588346
5	0xbcbfee94	-0.023429193
6	0x3d5529c1	0.052041773
7	0xbd797909	-0.060906444
8	0x3d9ceb93	0.0766212
9	0x3d039ea8	0.03213373
10	0xbd1d034b	-0.03833322
11	0x3cd6ff5c	0.026244812
12	0x3de6f5f0	0.112773776
13	0xbd8cb94f	-0.06871282
14	0x3d88d736	0.06681673
15	0x3d929096	0.07156484

weight f4 [8, 16, 5, 5]
0	0xbabdece2	-0.0014490152
1	0x3c8c20bd	0.017105455
2	0x3d4cf447	0.05003765
3	0xbcc42a20	-0.023945868
4	0x3d0e5162	0.03474558
5	0xbc5fae26	-0.01365236
6	0xbcf53a79	-0.029935108
7	0x3c6c02f8	0.014405005
8	0xbd3cfcdb	-0.04613958
9	0xbd1d3c52	-0.038387604
10	0x3d101a5f	0.0351814
11	0x3d23b6a3	0.039969098
12	0xbce2e7cf	-0.027698426
13	0xbc4387d9	-0.011934244
14	0xbce54461	-0.027986707
15	0x3d4b8b7b	0.049693566
16	0xbb4b1e2c	-0.0030993326
17	0x3cad5a79	0.021161305
18	0xbce439a2	-0.027859513
19	0x3cd5d39f	0.026101885
20	0x3d275f81	0.040862564
21	0xbcf33747	-0.029689444
22	0xbd17f1bf	-0.03709578
23	0x3cc699b0	0.024243206
24	0xbd338cef	-0.043835577
25	0x3c7b2a02	0.01532984
26	0x3c6ac591	0.01432933
27	0xbd399ebf	-0.045317408
28	0xbd25b54d	-0.040456105
29	0x3d2121c2	0.039338835
30	0x3d176d4a	0.03696946
31	0x3d1fbdb1	0.038999263
32	0x3d0f0aa2	0.03492225
33	0xbca460c6	-0.020065676
34	0x3b9eded1	0.004848339
35	0x3d31bab9	0.043390963
36	0xbb26b09e	-0.0025434862
37	0xbccb7a28	-0.024838522
38	0xbd240928	-0.040047795
39	0xbcf008e9	-0.029301124
40	0x3d01a114	0.031647757
41	0xbc0374f9	-0.008023494
42	0xbd19f2e4	-0.037585154
43	0xbc56f619	-0.013120198
44	0xbd286bc8	-0.041118413
45	0x3cd485fe	0.025942799
46	0x3c3f0d64	0.011660907
47	0x3d04065a	0.03223262
48	0x3c1c1e3a	0.009528691
49	0xbd34a9e5	-0.044107337
50	0x3d9427fb	0.07234188
51	0x3c9bd397	0.019021792
52	0x3c15215c	0.009102192
53	0xbc45aaa9	-0.012064614
54	0x3c83ea63	0.016102975
55	0xba0de553	-0.0005412895
56	0x3db20263	0.086918615
57	0x3cc79bb4	0.024366237
58	0xbc9c97ad	-0.019115293
59	0x3ce8041f	0.028322278
60	0x3d3b1b9e	0.045680635
61	0x3ce3ec7f	0.027822731
62	0x3d87c1a2	0.066287294
63	0xb7d27ce6	-2.5092111e-05
64	0x3c786f42	0.015163245
65	0x3d53e5d8	0.051732868
66	0x3da08a8d	0.078389265
67	0x3d4d0fa9	0.050063763
68	0x3d57cd23	0.052685868
69	0xbcd54922	-0.026035849
70	0xbc056d5a	-0.008143747
71	0x3d15b427	0.03654876
72	0x3d8c9c0f	0.06865703
73	0x3d3eec19	0.04661188
74	0x3d7aabd6	0.06119903
75	0x3cd581f3	0.026062941
76	0xbd5465db	-0.05185495
77	0x3c2be993	0.0104927
78	0xbd668896	-0.056282602
79	0xbd47b009	-0.048751865
80	0xbcf14c33	-0.02945528
81	0xbd269f9e	-0.040679567
82	0xbc9bc23a	-0.019013513
83	0xbcae2ab9	-0.021260606
84	0xbccb73ae	-0.024835434
85	0xbbbfbc13	-0.0058512776
86	0xbb637f98	-0.0034713503
87	0x3cd322ad	0.02577337
88	0xbc811861	-0.015758695
89	0x3d0b3a27	0.033991005
90	0xbd0eac76	-0.03483244
91	0xbc401f10	-0.011726156
92	0x3c380aa4	0.011233006
93	0xbd424236	-0.047426425
94	0xbd2c97d5	-0.042136986
95	0xbd367074	-0.044540837
96	0xbd5df168	-0.0541853
97	0x3c935c71	0.017988415
98	0x3d03d1ed	0.032182623
99	0x3c7512fb	0.014958139
100	0x3bc143dd	0.0058979825
101	0xbce05ae8	-0.027387097
102	0x3d349449	0.04408673
103	0xbcb4fa6f	-0.022092072
104	0x3c2335f3	0.009961593
105	0xb94239e7	-0.00018522852
106	0x3c8401e3	0.01611418
107	0x3d1f9fd1	0.038970772
108	0xbba17170	-0.004926853
109	0xbccd19aa	-0.025036652
110	0x3c82917f	0.015938519
111	0x3cd397f5	0.025829295
112	0x3c4f8875	0.012666811
113	0xbd5546fb	-0.052069645
114	0xbd3870eb	-0.045029562
115	0xbb62d84e	-0.003461379
116	0xbd4363fa	-0.047702767
117	0xbd047bfb	-0.0323448
118	0xbbb6d222	-0.005579249
119	0x3ccc2994	0.02492217
120	0x3ca61a56	0.02027623
121	0x3cd9a3d2	0.026567373
122	0xbc741199	-0.014896774
123	0x3ceffa58	0.029294178
124	0x3d24e8cd	0.04026108
125	0xbca51df5	-0.020155886
126	0x39934b2b	0.0002809403
127	0x3d499014	0.04920967
128	0xbcf6039a	-0.030031014
129	0x3cae339b	0.021264842
130	0x3c9a2285	0.018815288
131	0xbcddc6b7	-0.027072294
132	0xbc8b2ce5	-0.01698918
133	0xbce4dcc9	-0.02793731
134	0x3b985b77	0.0046495753
135	0x3a977e6c	0.0011558062
136	0x3c7b5a7a	0.0153413955
137	0x3d3f279a	0.046668626
138	0xbcce6c3a	-0.02519809
139	0xbca67863	-0.020321077
140	0xbcb2fbd4	-0.021848597
141	0x3d2ce5be	0.042211287
142	0x3d2fc0bc	0.042908415
143	0xbd335d7b	-0.04379032
144	0xbbe9aba2	-0.007131056
145	0xbc06baf1	-0.008223281
146	0x3c99d97b	0.01878046
147	0x3cfbebc2	0.030752067
148	0xbd67eacd	-0.056620408
149	0x3d177286	0.036974452
150	0x3ce88473	0.02838347
151	0xbc94308b	-0.018089553
152	0x3d3a6ead	0.045515705
153	0xbcb6d4f9	-0.02231835
154	0x3d23b998	0.039971918
155	0xbcbe37c4	-0.02321995
156	0xbbe62d02	-0.0070244083
157	0x3c1e5c45	0.009665553
158	0xbcbe5af1	-0.023236724
159	0x3d3171be	0.043321364
160	0xbcceac36	-0.025228601
161	0xbd0548fe	-0.032540314
162	0xbcf70d4d	-0.03015771
163	0x3cb1da42	0.021710519
164	0xbcd586ec	-0.026065312
165	0xbc288939	-0.010286623
166	0xbd29eff6	-0.04148861
167	0x3c3b36a5	0.0114266025
168	0xbc55a43a	-0.013039643
169	0xbc1303c3	-0.008973065
170	0x3d3a11d5	0.045427162
171	0xbd10505d	-0.03523289
172	0x3c034ff3	0.008014667
173	0x3d03ebff	0.032207485
174	0xba2ecdda	-0.00066682475
175	0x3b839a03	0.0040161624
176	0xbcadc4d9	-0.021212028
177	0x3d190c03	0.03736497
178	0x3c85a896	0.01631574
179	0x3ca8b3bf	0.020593522
180	0xbd1223e4	-0.03567876
181	0xbd43c99a	-0.047799684
182	0x3d3a2347	0.0454438
183	0xbcce4fde	-0.025184568
184	0xbcd6f78a	-0.026241083
185	0xbbd36cde	-0.006452187
186	0xbc657aad	-0.014006299
187	0x3c63ae0d	0.013896477
188	0x3d306537	0.043065276
189	0x3d0a3212	0.033739157
190	0xbc6f58b3	-0.01460855
191	0x3ca2b54a	0.019861836
192	0x3d2b8fe9	0.04188529
193	0xbd4233aa	-0.047412552
194	0x3d26725e	0.040636413
195	0xbc40ebec	-0.011774998
196	0x3b434f8c	0.0029802052
197	0xbd2686c8	-0.04065588
198	0xbc820408	-0.015871063
199	0xbcd1332a	-0.025537092
200	0xbd5259be	-0.051355116
201	0x3caf8375	0.021424988
202	0xbd2977ea	-0.041374125
203	0xbd621def	-0.05520433
204	0xbc0c71a3	-0.008572015
205	0xba915699	-0.001108843
206	0xbbe8082d	-0.0070810528
207	0x3cec1c69	0.02882214
208	0x3cb957ce	0.022624876
209	0xbc598c68	-0.013278104
210	0x3ca7ed34	0.02049885
211	0x3c9e2354	0.019303955
212	0xbb7a72ae	-0.0038215327
213	0xbbb2bfe9	-0.0054550064
214	0xbc425415	-0.011860867
215	0x3c856e1a	0.016287852
216	0xbc968ea0	-0.018378556
217	0x3ced07ff	0.028934477
218	0xbd34fa8e	-0.04418426
219	0x3c2c5791	0.010518924
220	0xbc7a2421	-0.015267403
221	0x3c8a6a82	0.01689649
222	0xbcfc73e9	-0.030816989
223	0xbb985eb8	-0.004649963
224	0xbd0ee2e1	-0.034884337
225	0xbd547220	-0.05186665
226	0x3d180dbd	0.037122477
227	0x3d3975d5	0.04527839
228	0x3c88717f	0.016655682
229	0xbcd299a9	-0.025708036
230	0xbd1b2791	-0.03787953
231	0x3c831b04	0.016004093
232	0x3c5d3c08	0.013503082
233	0xbba9abd3	-0.0051779537
234	0xbce75ec7	-0.028243436
235	0xbd366849	-0.044533048
236	0xbc8c473d	-0.017123813
237	0x3c6f2295	0.014595647
238	0xbbdd0ad6	-0.0067456765
239	0x3c46652d	0.012109083
240	0x3cb52ccb	0.022116086
241	0xbcebf687	-0.028804077
242	0x3d147d44	0.036252275
243	0x3cbf8338	0.023378
244	0xba35443a	-0.00069147686
245	0x39e18e9d	0.000430216
246	0x3bddbf5e	0.0067671975
247	0xbd488cfa	-0.04896257
248	0xbd1e9c4f	-0.038723286
249	0x3aae29f9	0.0013287655
250	0x3d5b9570	0.05360931
251	0x3c8d6442	0.01725972
252	0xbbb2df4c	-0.005458748
253	0x3d3fa46d	0.046787668
254	0x3c6eccea	0.0145752225
255	0xbcd6df13	-0.026229417

bias f4 [8]
0	0xbd4b2786	-0.04959824
1	0x3cc9ef9d	0.02465039
2	0xbd1ebc75	-0.038753945
3	0xbd516abe	-0.051127188
4	0x3c98b48a	0.018640775
5	0xbd0ade78	-0.03390357
6	0x3d3cd8ca	0.046105184
7	0x3bd655b9	0.0065409807

weight f4 [256, 648]
0	0x3d1fc66b	0.039007585
1	0xbd276db6	-0.040876113
2	0x3cd7aeca	0.026328463
3	0xbc6fae3c	-0.014628943
4	0xbd037dcd	-0.032102395
5	0xbd11dad0	-0.035609066
6	0x3c711b2c	0.014715951
7	0x3d094397	0.033511724
8	0x3c8fcfe7	0.01755519
9	0x3b951a17	0.0045502293
10	0xbcc8b1f8	-0.024498925
11	0xbc0a9b1a	-0.008459831
12	0x3c955fd0	0.018234164
13	0x3cc96ae8	0.02458711
14	0xbce4cecc	-0.02793064
15	0x3d171dc8	0.036893636
16	0xbcf1c9f4	-0.029515244
17	0xbc0b2752	-0.008493261
18	0xbc7a6949	-0.015283891
19	0xbd403663	-0.046926867
20	0x3c2c9718	0.01053407
21	0x3bd15d2e	0.0063892817
22	0xbba3e1e3	-0.005001293
23	0xbc78f76a	-0.015195707
24	0x3c5f55ca	0.013631294
25	0x3c071be1	0.008246393
26	0x3a81f075	0.0009913581
27	0x3ce3e433	0.027818775
28	0x3cc9bd68	0.024626449
29	0x3cbbe0b7	0.0229343
30	0x3c1bfe5c	0.009521093
31	0x3cbe144c	0.023203038
32	0x3cc9468d	0.024569774
33	0x3c0f408c	0.0087434165
34	0x3cc2e695	0.02379159
35	0x3d2730c3	0.040817987
36	0xbd326e7f	-0.04356241
37	0xbcaf2b38	-0.021382913
38	0xbcb653f7	-0.022256834
39	0xbb86a1e4	-0.0041086543
40	0x3ce9ca4e	0.02853885
41	0x3c01a899	0.007913732
42	0x37f9be51	2.9771736e-05
43	0xbbc5127e	-0.0060141673
44	0xbbbf7acd	-0.0058434964
45	0x3b95e3c5	0.0045742714
46	0xbb432d50	-0.0029781647
47	0x3bc1d5f1	0.0059153964
48	0xbc9b7c5d	-0.0189802
49	0xbc09c4b7	-0.008408717
50	0xbbf052d8	-0.0073340945
51	0x3d152592	0.036412783
52	0x3c31f07a	0.010860557
53	0x3d0969b3	0.03354807
54	0xbcb56955	-0.022144953
55	0xbc685202	-0.014179708
56	0xbd280f85	-0.041030426
57	0xbaf0eac3	-0.0018380511
58	0x3c1726eb	0.009225587
59	0x3c9cf0f5	0.019157866
60	0x3d62ba4e	0.055353455
61	0x3c2a071f	0.010377674
62	0xbba62663	-0.005070494
63	0xbc21f247	-0.009884424
64	0xbc8e6dd2	-0.01738635
65	0x3c85ea7f	0.016347168
66	0x3cabc73c	0.020969026
67	0x3cf4f30c	0.02990105
68	0xbcb4d600	-0.0220747
69	0x3d1c39d5	0.03814109
70	0xbcd8561c	-0.026408248
71	0x3d25d8f1	0.040490095
72	0xbc82c0f0	-0.01596114
73	0x3cfeec51	0.031118544
74	0x3b5055c5	0.0031789404
75	0xbc638b3b	-0.013888176
76	0xbc573223	-0.013134512
77	0xbb984d24	-0.0046478678
78	0xbc1126d7	-0.008859358
79	0x3ca85e0e	0.020552661
80	0xbca4e92e	-0.02013072
81	0x3dc16cdc	0.094445914
82	0x3d9b5d61	0.0758617
83	0x3d0fa8ff	0.035073277
84	0x3cef9024	0.029243536
85	0xb96b45bb	-0.00022437323
86	0xbc45a643	-0.012063566
87	0x3d569a3f	0.052393194
88	0x3d04d489	0.03242925
89	0x3d8bfb51	0.06835044
90	0x3d2311a5	0.03981175
91	0xbcc546db	-0.024081638
92	0x3c6ec190	0.014572516
93	0x3cdedd80	0.027205229
94	0xbcc82c0d	-0.024435068
95	0xbc9cee48	-0.01915659
96	0xbc8a85c9	-0.016909497
97	0x3b8ced1e	0.0043007275
98	0xbd1d3344	-0.03837897
99	0xbc0aee95	-0.008479734
100	0xbd3804a2	-0.044926293
101	0x3c92a86d	0.017902577
102	0x3d0ad521	0.03389466
103	0x3b8af130	0.0042401776
104	0x3c3def40	0.011592686
105	0xbc2d8626	-0.0105910655
106	0xbd142d4c	-0.03617601
107	0xbd427521	-0.047474984
108	0x3c890595	0.016726295
109	0x3cfe03ca	0.031007666
110	0x3cb15cb6	0.021650653
111	0x3c50595c	0.012716617
112	0x3c7eb04c	0.015544962
113	0x3d557896	0.052116953
114	0x3d10b087	0.0353246
115	0xbb2b9daa	-0.0026186504
116	0x3ce2dc8d	0.027693057
117	0xbcaf875e	-0.021426853
118	0xbc906c0a	-0.017629642
119	0xbc7f5190	-0.015583411
120	0xbc4d1a7c	-0.012518521
121	0x3cba36ac	0.022731148
122	0xbd1d3b13	-0.038386416
123	0xbd18b6ae	-0.037283592
124	0xbcb7e709	-0.022449033
125	0xbb8561bb	-0.0040704883
126	0x3d22362b	0.03960244
127	0x3cf6f0ec	0.030144177
128	0x3c423b3f	0.011854946
129	0x3c7763f3	0.015099513
130	0x3cc2d6b0	0.023784012
131	0xbc7b8e35	-0.015353729
132	0xbc70c81a	-0.014696145
133	0x3c957ad8	0.018247053
134	0xbca297c1	-0.019847753
135	0x3b3fe072	0.0029278067
136	0x3d9262a7	0.07147723
137	0x3b2454e5	0.0025075015
138	0x3d088034	0.03332539
139	0x3d166462	0.036716826
140	0xbc7e7f60	-0.015533298
141	0xbc547e33	-0.012969541
142	0xbc47a606	-0.012185579
143	0x3d2bb6bb	0.041922312
144	0x3b6b91d1	0.0035945068
145	0x3ce8ee58	0.028433964
146	0x3cb7e719	0.022449063
147	0x3c8ea110	0.017410785
148	0xbb83e918	-0.0040255897
149	0x3bd99c98	0.006640982
150	0xbbc7f3c5	-0.0061020576
151	0x3cc59059	0.024116682
152	0x3ba3dd26	0.005000728
153	0x3cf6fe14	0.03015045
154	0xbc9cddf5	-0.019148806
155	0xba37ebb8	-0.0007016021
156	0x3d0f17a1	0.034934644
157	0x3d658235	0.05603238
158	0x3d55785b	0.052116733
159	0x3d2b7ff1	0.04187006
160	0xbc7d3a66	-0.015455818
161	0xbc66e8b7	-0.0140935695
162	0xbd09e654	-0.033666924
163	0x3c13839f	0.009003549
164	0xbca10428	-0.019655302
165	0xbabc63f1	-0.0014373047
166	0x3cda5dee	0.026656117
167	0x3d14a5b1	0.03629083
168	0x3ce4ab39	0.027913677
169	0xbb79f7b6	-0.0038142032
170	0x3d1cf8e8	0.038323313
171	0x3cc62381	0.024186851
172	0xbb936e04	-0.004499199
173	0x3d0ed1d9	0.034868095
174	0x3c81cad1	0.01584378
175	0xbcb23e65	-0.021758268
176	0x3d0d72a3	0.034533154
177	0x3c31a6a8	0.010842957
178	0x3ce4f8ce	0.02795067
179	0xbd2667ea	-0.040626444
180	0xbd053088	-0.032516986
181	0xbc30b527	-0.010785378
182	0xbcdd25b9	-0.026995527
183	0x3c8519bf	0.016247628
184	0x3d168981	0.036752228
185	0xbd14eb1e	-0.036357038
186	0x3d14ee88	0.036360294
187	0xbb35bdd5	-0.0027731557
188	0x3d230228	0.03979698
189	0x3c8388ba	0.016056407
190	0xbd05af11	-0.03263766
191	0x3d25744a	0.040394105
192	0xbcd20d6d	-0.025641168
193	0x3cbd17f4	0.02308271
194	0x3cba2382	0.02272201
195	0x3ca77e98	0.020446107
196	0x3d1fcbfb	0.03901289
197	0xbccb2aa6	-0.02480061
198	0xbc977206	-0.018486988
199	0xbc8e3ef9	-0.017364012
200	0x3c913993	0.017727649
201	0xbc5e2946	-0.013559645
202	0xbd0259af	-0.03182381
203	0xbc12b5fd	-0.008954522
204	0x3b4ed8d7	0.0031562352
205	0xbd190a01	-0.037363056
206	0xbc33686e	-0.010950191
207	0x3bdece2d	0.0067994804
208	0xbd079739	-0.0331032
209	0x3c834b4c	0.016027115
210	0x3bfd268c	0.0077255424
211	0xbc2d4573	-0.01057564
212	0xbcdb2dc8	-0.026755229
213	0x3d33ca8b	0.043894332
214	0xbcebb396	-0.028772157
215	0x3cfc6dc0	0.030814052
216	0xbd3e3a3b	-0.04644225
217	0xbd033c4e	-0.032039933
218	0xbc7379ea	-0.01486061
219	0x3cfae3ad	0.030626142
220	0x3b95daab	0.0045731864
221	0x3d387c14	0.045040205
222	0x3c098fbf	0.008396088
223	0xbba6995e	-0.0050842008
224	0xbc18645a	-0.009301269
225	0xbcd188e0	-0.025577962
226	0xbd0017de	-0.03127276
227	0x3d048364	0.032351866
228	0x3d0af509	0.03392509
229	0x3c97a760	0.018512428
230	0x3c0e1ea9	0.008674302
231	0xbcecf754	-0.028926529
232	0x3cb8c6d6	0.02255575
233	0xbc777dfa	-0.015105719
234	0xbd4350dc	-0.047684535
235	0xbcf9eb33	-0.03050766
236	0x3ca44eb0	0.020057052
237	0x3c71e92b	0.014765064
238	0x3d0ecb92	0.03486211
239	0x3d2abbe0	0.041683078
240	0x3b1a56c0	0.0023550242
241	0xbcd2b662	-0.025721733
242	0xbc6fa516	-0.014626762
243	0x3b0e8a10	0.0021749772
244	0x3cc8046e	0.024416175
245	0x3bf46550	0.0074583665
246	0x3b019270	0.0019771121
247	0xbc0b33a2	-0.008496197
248	0xbd173da1	-0.03692401
249	0x3bcdfae0	0.00628601
250	0xbd0dd1cf	-0.034623917
251	0x3a8f9450	0.0010954235
252	0x3b79d4c7	0.003812121
253	0x3c45c400	0.012070656
254	0xbd03b178	-0.03215167
255	0x3b8e6a50	0.0043461695

bias f4 [256]
0	0x3ccf6674	0.025317408
1	0xbd11fd0c	-0.035641715
2	0xbcef1d8e	-0.029188897
3	0x3d209e08	0.03921321
4	0x3d2509d9	0.040292595
5	0xbcfd2dc6	-0.030905616
6	0x3d19cb81	0.037547592
7	0x3cadd1b4	0.021218158
8	0x3c1774e0	0.009244174
9	0xbcc1194c	-0.023571633
10	0x3cbcd737	0.023051841
11	0x3ca0ac14	0.019613303
12	0xbcd47954	-0.02593676
13	0x3cd25305	0.025674352
14	0x3b9598ae	0.00456532
15	0xbceefef3	-0.029174304
16	0xbc39f4b9	-0.01134985
17	0xbb664a99	-0.0035139679
18	0x3c2143e1	0.009842844
19	0xbd1cebfb	-0.038310986
20	0x3a14b9a3	0.0005673414
21	0x3ba4041c	0.0050053727
22	0x3ccb3acc	0.02480831
23	0xbc9dc0ac	-0.019256912
24	0x3d16de80	0.036833286
25	0x3cd9ce38	0.02658759
26	0x3c42f347	0.011898822
27	0x3b8334ff	0.0040041204
28	0xbcac4b9f	-0.021032153
29	0xbd24cfab	-0.04023711
30	0xbcb2077f	-0.02173209
31	0xbc2c197e	-0.010504125
32	0xbd1504d8	-0.036381572
33	0x3d1c3ec7	0.038145807
34	0xbd06193f	-0.03273892
35	0x3d036883	0.032082092
36	0xbaf368a9	-0.001857062
37	0xbb9b7770	-0.0047444627
38	0xbccca950	-0.024983078
39	0xbd2261eb	-0.039644163
40	0x3be47f52	0.0069731856
41	0x39f442d4	0.00046589097
42	0xbc93ca75	-0.018040875
43	0x3d159c61	0.036526088
44	0x3c9e0bb6	0.019292694
45	0x3bc4c955	0.006005446
46	0xbcbfbe49	-0.023406165
47	0xbc2fa857	-0.010721288
48	0xbc598a1e	-0.013277559
49	0x3c15e5b2	0.009149002
50	0xbcb62ded	-0.022238696
51	0x3d15584c	0.03646116
52	0x3ceffd9a	0.029295731
53	0x3cbe51a2	0.023232285
54	0xbb1c3916	-0.0023837737
55	0xbc85cef9	-0.016334044
56	0x3d0fb205	0.035081882
57	0xbca1db29	-0.019757824
58	0x3c310bb6	0.010806015
59	0xbcfa2133	-0.030533409
60	0xbc25fb57	-0.010130725
61	0x3c7f72eb	0.015591363
62	0x3cc50068	0.024048045
63	0x3b545f73	0.0032405525
64	0x3c4d12ef	0.012516721
65	0xbb36cb57	-0.0027892196
66	0xbd16cbdb	-0.036815505
67	0x3b898401	0.0041966443
68	0x3c45a332	0.012062835
69	0xbd124328	-0.035708576
70	0x3cbefe92	0.023314748
71	0xbb3714cc	-0.002793598
72	0xbd1627aa	-0.03665892
73	0xbcdb618e	-0.026779916
74	0x3d14afcd	0.03630047
75	0xbd04189a	-0.032250024
76	0x3d39262d	0.045202423
77	0xbce68472	-0.028139327
78	0xbc60c2a0	-0.013718277
79	0x3a8d6e9e	0.0010790413
80	0x3b6d99c0	0.0036254972
81	0xbbc80555	-0.0061041513
82	0xbcd1c20f	-0.02560523
83	0x3c774762	0.015092703
84	0xbd16f181	-0.03685141
85	0x3a25f829	0.0006331229
86	0xbbf374da	-0.0074297013
87	0x3d370be2	0.044689067
88	0x3ca7ea4b	0.020497462
89	0x3ce4deb9	0.027938234
90	0xbb146a0e	-0.0022646221
91	0x3c5d2af8	0.013499014
92	0xbbc21ee3	-0.005924092
93	0xbc5d1f4c	-0.013496231
94	0xbd2109b7	-0.039315905
95	0xbc615a3c	-0.013754424
96	0x3b09e9b7	0.0021043846
97	0xbca0429f	-0.019563017
98	0x3caa6ddc	0.020804338
99	0xbd201216	-0.039079748
100	0xbc353fa8	-0.01106254
101	0x38822ba6	6.207013e-05
102	0x3c6c56d8	0.014425002
103	0x3d0620b6	0.03274604
104	0x3c899df3	0.016798949
105	0x3d184db2	0.03718347
106	0x3c0198aa	0.007909933
107	0x3d31d459	0.0434154
108	0xbc3f9c76	-0.011695018
109	0xbae5a8e4	-0.0017521647
110	0xbc218ff2	-0.009860979
111	0x3c004068	0.007827856
112	0xbd2ebe33	-0.042661857
113	0x3cea6b2e	0.02861556
114	0x3b9d4ae6	0.0048001884
115	0xbbc3daeb	-0.005977025
116	0x3b7f5d10	0.0038965382
117	0xbb0c5950	-0.002141554
118	0x3d0ca23d	0.03433441
119	0x3ceb6b4a	0.028737683
120	0xbb3c6e9b	-0.002875245
121	0x3be51273	0.0069907247
122	0xbce208dd	-0.027592117
123	0x38a3c26d	7.80866e-05
124	0x3c3b4d60	0.011432022
125	0xbc93fd8d	-0.018065238
126	0xbb3c7eec	-0.0028762175
127	0x3a28a4b0	0.0006433232
128	0x3c08a610	0.008340374
129	0x3c73b2fb	0.014874215
130	0xbd18b893	-0.0372854
131	0x3b985994	0.0046493504
132	0xbc44c5ea	-0.012010077
133	0x3ca4df04	0.020125873
134	0x3d1b6c10	0.037944853
135	0x3b102f3e	0.0022000815
136	0x3c3eee15	0.011653443
137	0xbc4a7900	-0.01235795
138	0x3ccd2707	0.025043024
139	0xbc60b6ca	-0.013715455
140	0xbc7a9820	-0.0152950585
141	0xbbb64c51	-0.005563297
142	0x3ce7d5bb	0.028300157
143	0x3d26bcec	0.040707514
144	0xbc7f813f	-0.0155947795
145	0xbd004d42	-0.03132368
146	0x3ae6d5db	0.0017611341
147	0x3d067912	0.032830305
148	0x3d03e434	0.032200053
149	0xbcc07940	-0.023495317
150	0x3cb1d5a9	0.021708326
151	0xbbfa6f8a	-0.007642691
152	0x3d1642ff	0.036684986
153	0x3c66e609	0.014092931
154	0xbcfae531	-0.030626865
155	0x3c0eeee5	0.008723949
156	0x3cdb8e3a	0.026801217
157	0x3a9b0ce6	0.0011829406
158	0xbd065398	-0.032794565
159	0x3c1f2092	0.009712355
160	0xbcbc8621	-0.023013176
161	0x3ba443f0	0.0050129816
162	0x3d0c98d9	0.034325454
163	0x3cbee2a5	0.023301432
164	0x3cc5bac3	0.024136906
165	0xbc8bd3ec	-0.017068826
166	0xbd1c0e1c	-0.038099393
167	0x3c00ab22	0.007853301
168	0xbd0d7d03	-0.03454305
169	0x3ca316ac	0.019908272
170	0x3cdaab64	0.026693054
171	0x3bf5b829	0.0074987602
172	0xbbf3de3c	-0.007442264
173	0x3ccd497c	0.025059454
174	0xbd1be9fa	-0.038064934
175	0x3d061860	0.03273809
176	0x3d2fa1c9	0.0428789
177	0xbd0ca39b	-0.034335714
178	0xbd1fedd8	-0.039045185
179	0x3c0c590b	0.008566151
180	0xbcb67c9c	-0.022276215
181	0x3afcdcc0	0.0019291863
182	0x3c25fa60	0.010130495
183	0x3bc76cc8	0.006085966
184	0x3cfd80df	0.03094524
185	0x3a8de09b	0.0010824384
186	0x3cf05245	0.029336104
187	0xbcd96fc9	-0.026542561
188	0x3cb9d208	0.022683159
189	0x3bc97ce5	0.006148922
190	0x3cf967d9	0.030445026
191	0xbd1db34f	-0.03850108
192	0xbd285c56	-0.041103683
193	0xbd04cd0c	-0.03242211
194	0x3c838a7d	0.016057247
195	0xbd141861	-0.036156062
196	0xbc410a58	-0.011782251
197	0xbc317229	-0.010830441
198	0x3caeaedf	0.02132362
199	0xbc481aaf	-0.012213393
200	0x3cbaa508	0.022783771
201	0x3d23132b	0.039813202
202	0x3d0f9a7d	0.03505944
203	0xb9ee1174	-0.000454079
204	0x3d0c2896	0.034218393
205	0x3cff6f37	0.031180961
206	0x3d08bb50	0.03338176
207	0xbc57b902	-0.013166668
208	0xbc3391bf	-0.010960042
209	0xbd07994f	-0.03310519
210	0xbd033ce6	-0.0320405
211	0x3cbf291c	0.023335032
212	0xbcba55cf	-0.022745995
213	0x3c168d47	0.009188957
214	0x3b543853	0.0032382205
215	0x3a3f8462	0.00073057984
216	0x3c815949	0.015789645
217	0x3c104824	0.008806262
218	0x3bc9ce9c	0.006158663
219	0xbd09a58b	-0.03360514
220	0xbcd1388d	-0.02553966
221	0x3cbb57a0	0.022868931
222	0x3c578de4	0.013156388
223	0x3cdd5efc	0.027022831
224	0x3cefb5de	0.029261526
225	0xba1f5f3b	-0.0006079559
226	0xbc83927e	-0.016061064
227	0xbcf8e231	-0.030381294
228	0x3cb0821b	0.021546414
229	0x3d20ecef	0.039288457
230	0xbd0866d3	-0.033301186
231	0xbc824696	-0.015902799
232	0xbb833c38	-0.0040049814
233	0xbc063cf2	-0.008193241
234	0xbc9d7d46	-0.019224774
235	0x3c845c09	0.016157167
236	0x3c52f3e3	0.01287553
237	0xbc33536d	-0.010945183
238	0x3d1eec8f	0.03879982
239	0x3cab3b68	0.02090235
240	0xbc8bdf2e	-0.017074194
241	0xbc4121fc	-0.011787888
242	0xbae40cac	-0.0017398796
243	0x3c054c1c	0.008135822
244	0x3ccbae48	0.024863377
245	0x3b2b13a0	0.0026104227
246	0xbcb552f8	-0.02213429
247	0xbd230430	-0.039798915
248	0xbd0e5550	-0.03474933
249	0x3cde69fa	0.027150143
250	0x3ced2611	0.028948816
251	0xbb35b510	-0.002772633
252	0xbd2a6959	-0.041604374
253	0x3cd9aae5	0.026570747
254	0xbc3decfb	-0.011592145
255	0xbd03abad	-0.032146145

weight f4 [64, 256]
0	0x3c98c748	0.018649712
1	0x3c6fc5a6	0.014634525
2	0x3d9e3847	0.07725578
3	0x3bfaafa1	0.007650331
4	0xbcebcbea	-0.028783757
5	0x3ce757f1	0.028240176
6	0xbc6f8dd6	-0.014621219
7	0xbd1da795	-0.038489897
8	0x3c529818	0.012853645
9	0xbd516d9a	-0.051129915
10	0x3ccd436e	0.025056567
11	0xbd6624c6	-0.056187414
12	0xbd4981cc	-0.04919605
13	0x3d32f2f6	0.043688737
14	0x3c29fce1	0.010375232
15	0x3d2497c6	0.040183805
16	0x3d9be9fb	0.076129876
17	0xbc259ba9	-0.010107913
18	0x3c9e5701	0.019328596
19	0xbd307712	-0.043082304
20	0x3d441eed	0.047881056
21	0xbd180d0f	-0.03712183
22	0x3d81b5b4	0.06333485
23	0x3d251f8a	0.04031328
24	0x3d5ead27	0.05436435
25	0x3d7a0405	0.06103899
26	0x3c64104c	0.013919901
27	0xbd58fb46	-0.052974008
28	0xbd56de1d	-0.052457917
29	0xbc0ba197	-0.008522413
30	0xbd45577b	-0.04817913
31	0xbae562c0	-0.0017500743
32	0xbd346692	-0.04404313
33	0x3d24ec0b	0.04026417
34	0xbabd6814	-0.0014450573
35	0xbd68c294	-0.05682619
36	0xbc0c023b	-0.008545454
37	0x3c470e20	0.012149364
38	0x3d28b362	0.041186698
39	0xbd1d3e2b	-0.038389366
40	0xbc6776f1	-0.014127479
41	0xbd1e9b47	-0.038722303
42	0xbce0c06e	-0.027435508
43	0x3d8c6c85	0.06856636
44	0x3d81903a	0.06326337
45	0x3d86e09d	0.0658581
46	0x3c206e85	0.009791975
47	0x3d1cac2d	0.038250137
48	0x3b9c3670	0.0047672316
49	0xbd5a34e1	-0.053273086
50	0xbd0f701b	-0.03501902
51	0x3c47e091	0.012199537
52	0xbcd30126	-0.025757384
53	0x3d288cf6	0.041150056
54	0xbc708596	-0.014680287
55	0x3d42f0cb	0.04759292
56	0xbd8356f5	-0.0641307
57	0x3c014514	0.007890005
58	0x3cff97f5	0.031200388
59	0x3cd7117e	0.026253458
60	0x3cb3f7f4	0.02196882
61	0xbd500fae	-0.050796203
62	0xbd4b7753	-0.049674343
63	0xbc8fea92	-0.017567907
64	0xbd7cdc7b	-0.061733704
65	0x3d260018	0.040527433
66	0x39bacfb4	0.00035631435
67	0xbd3ac15f	-0.04559457
68	0x38f14e52	0.00011506364
69	0xbd345c4a	-0.044033326
70	0xbd37f5cf	-0.044912156
71	0xbbc2f677	-0.005949791
72	0x39606cea	0.00021402878
73	0xbd54bd48	-0.051938325
74	0xbd370bac	-0.044688866
75	0xbd3956f7	-0.04524895
76	0x3d56be7b	0.05242775
77	0x3d8e61f6	0.06952278
78	0x37bcbba1	2.2498718e-05
79	0xbce5fb3f	-0.028073905
80	0x3c7f270d	0.015573275
81	0xbd23bb0e	-0.03997331
82	0x3d65d1b8	0.056108207
83	0x3c9a452d	0.018831814
84	0xbc535204	-0.012897972
85	0x3d06100f	0.03273016
86	0xbd3b6d2a	-0.045758404
87	0xbc341d0f	-0.010993256
88	0xbc3aaf05	-0.011394267
89	0x3cc9606f	0.024582116
90	0x3b89adff	0.00420165
91	0x3d7ff34d	0.06248789
92	0x3cb1ffe7	0.021728469
93	0xbc663375	-0.014050354
94	0x3d832404	0.06403354
95	0xbd35e832	-0.04441089
96	0xbd41b1a1	-0.04728854
97	0x3d76f168	0.060288817
98	0xbd4e5658	-0.050375313
99	0xbbbf54bc	-0.0058389585
100	0xbc8dd007	-0.01731111
101	0xbc872f2f	-0.016501991
102	0x3d8f8efc	0.07009694
103	0x3c80d934	0.01572857
104	0x3d1443e4	0.036197558
105	0xbca17d3b	-0.019713035
106	0xbcd45dd7	-0.025923653
107	0x3c4ad147	0.012378997
108	0x3d649c2e	0.055813007
109	0xbd081481	-0.03322268
110	0x3d94a2ef	0.072576396
111	0x3d4113da	0.047138073
112	0x3d21a463	0.039463412
113	0x3d3888c7	0.045052316
114	0xbd0ce155	-0.03439458
115	0xbcd82fb3	-0.026389932
116	0xbd5f158a	-0.0544639
117	0xbd00597f	-0.03133535
118	0xbcf11f41	-0.029433848
119	0x3cbc7e7a	0.023009527
120	0xbd229b39	-0.039698813
121	0xbc84b85e	-0.016201194
122	0x3cec8fc2	0.028877143
123	0x3d550a3f	0.052011725
124	0xbd38bcaa	-0.0451018
125	0xbd42cfc8	-0.047561437
126	0x3d1a709e	0.037705056
127	0xbc4774cc	-0.012173843
128	0xbd81cba9	-0.06337673
129	0x3cdc6fd4	0.026908793
130	0x3cca9fc4	0.024734385
131	0xbce9708b	-0.028496047
132	0xbd1de4f1	-0.038548414
133	0xbce2a69e	-0.02766734
134	0xbca883d4	-0.020570673
135	0xba623d89	-0.0008630385
136	0x3c1e823c	0.009674605
137	0xbd5e62a8	-0.054293305
138	0x3d8ed6f3	0.06974592
139	0x3d910a4f	0.07082044
140	0xbd316a91	-0.04331452
141	0x3d3fe160	0.046845794
142	0x3d181fc7	0.03713968
143	0x3d5f7a7c	0.05456017
144	0xbd2ee3a2	-0.042697556
145	0xbd0bb8a9	-0.034111653
146	0xbbd637e2	-0.0065374235
147	0x3bafc317	0.0053638327
148	0x3d596823	0.05307783
149	0x3d780708	0.06055358
150	0x3c773ef9	0.015090697
151	0x3d8691be	0.06570767
152	0x3d69bec7	0.057066705
153	0x3bacc934	0.0052730087
154	0x3d04fca6	0.032467507
155	0x3d181999	0.037133787
156	0xbd441e8c	-0.047880694
157	0xbd4a48c7	-0.049385812
158	0xbd0351a8	-0.032060295
159	0xbc87309a	-0.016502667
160	0xbd68053e	-0.056645624
161	0xbd2be67f	-0.041967865
162	0x3bb9f443	0.00567487
163	0xbc80a005	-0.015701303
164	0x3cd91d84	0.026503332
165	0x3c3c8aa2	0.011507662
166	0xbd2f49f0	-0.04279512
167	0x3c542c7f	0.012950062
168	0x3bb89732	0.0056332583
169	0x3d8252aa	0.06363423
170	0x3d3fa9ad	0.046792675
171	0x3c56d8bc	0.013113197
172	0x3bf3350b	0.0074220947
173	0x3dac0e63	0.084011815
174	0xbcb0f813	-0.021602666
175	0x3d29d8f0	0.041466653
176	0x3d1fa824	0.03897871
177	0x3d6e5660	0.058187842
178	0xbd7863f8	-0.060642213
179	0x3d913a9b	0.07091256
180	0x3d4d1b7f	0.05007505
181	0x3d556a92	0.052103586
182	0x3c48dd32	0.012259768
183	0x3d3ea4e0	0.046543956
184	0xbd1c573b	-0.038169127
185	0x3d6e6d5b	0.05820976
186	0xbbb665ff	-0.005566358
187	0x3c39a444	0.011330668
188	0x3cee2da1	0.029074492
189	0xbd0a7df5	-0.03381153
190	0xbd0a9b33	-0.033839416
191	0x3d2d691e	0.042336576
192	0xbca44078	-0.020050272
193	0x3d1b2ab2	0.037882514
194	0x3d2e1f6c	0.042510435
195	0xbba43b02	-0.005011917
196	0xbd2e17b3	-0.04250307
197	0xbba0c5ba	-0.0049063833
198	0xbd5abb14	-0.053401068
199	0x3bd3a956	0.0064593954
200	0x3c032ea5	0.008006726
201	0x3d12e4ac	0.03586261
202	0x3cadc8f5	0.021213988
203	0x3d11fc46	0.035640977
204	0x3da6372f	0.08115994
205	0xbcd7c875	-0.026340703
206	0x3cc87475	0.024469594
207	0xbd4b0b63	-0.049571406
208	0x3cb0e5ef	0.021594016
209	0xbd0de764	-0.0346445
210	0xbd1e4ba8	-0.03864637
211	0x3d3d8221	0.04626668
212	0xbd6c712a	-0.05772511
213	0x3d8bbf02	0.06823541
214	0xbc8d768a	-0.017268438
215	0x3c530caa	0.012881437
216	0x3d0044a7	0.031315472
217	0xbcf37888	-0.02972056
218	0xbd233ce7	-0.039853003
219	0xbd56e76c	-0.052466795
220	0x3d683392	0.056689806
221	0x3bfd0329	0.007721324
222	0xbd588663	-0.052862536
223	0x3d5494a0	0.051899552
224	0xbd4ec313	-0.050479006
225	0xbd8f4d1f	-0.069971316
226	0x3b6cce0e	0.003613356
227	0x3cad0182	0.021118883
228	0x3d0553f4	0.032550767
229	0xbd106c0b	-0.035259288
230	0xbc8d1128	-0.017220095
231	0x3d5baaef	0.05362981
232	0x3ba22324	0.0049480367
233	0x3d96a3d2	0.07355465
234	0x3d558b96	0.052135073
235	0xbb9abd5f	-0.004722282
236	0x3d80e47a	0.062935784
237	0x3d70c49e	0.05878126
238	0xbd58b695	-0.0529085
239	0xbd67833e	-0.056521647
240	0x3c9eb522	0.01937348
241	0xbcb7d790	-0.022441655
242	0x3d2bddf6	0.041959725
243	0x3c9fb02c	0.019493185
244	0xbb8a91b4	-0.004228795
245	0x3d746b14	0.05967243
246	0xbbf16fce	-0.0073680645
247	0x3d39f22e	0.045396976
248	0x3d6129c7	0.054971483
249	0x3d1e3a76	0.03862997
250	0xbd727e0f	-0.05920225
251	0x3c7111ce	0.014713718
252	0xbc904c72	-0.017614577
253	0x3cfb19bf	0.030651925
254	0xbd80e15f	-0.06292986
255	0xbcb8676b	-0.022510251

bias f4 [64]
0	0x3d6ff570	0.058583677
1	0x3d546a57	0.051859226
2	0x3d3deb82	0.046367176
3	0xbbbf6de4	-0.0058419574
4	0x3ce8c701	0.028415205
5	0x3be94125	0.0071183615
6	0xbcc32e02	-0.02382565
7	0xbb412cf1	-0.002947625
8	0x3ca47c5e	0.020078834
9	0xbccbad72	-0.024862979
10	0x3d2ef289	0.04271177
11	0x3cc07ab4	0.02349601
12	0xbc8a5607	-0.016886724
13	0xbd533999	-0.0515686
14	0xbcf81e40	-0.030287862
15	0xbd249c42	-0.04018808
16	0x3caa3a86	0.02077986
17	0xbd0d1fb2	-0.034454055
18	0xbccf8f58	-0.025336906
19	0x3ba90647	0.005158219
20	0x3bc2ee85	0.005948844
21	0x3d76fdab	0.06030051
22	0x3d67a902	0.056557663
23	0xbc54eef2	-0.012996422
24	0x3d70716b	0.058701914
25	0xbc7de736	-0.0154970195
26	0x3ceeb0c0	0.029137015
27	0x3cd3b09f	0.025841055
28	0xbc213d41	-0.009841264
29	0x3cb5659d	0.02214318
30	0x3d74c2a6	0.059755944
31	0x3c5f4268	0.013626672
32	0xbd365abd	-0.04452013
33	0xbd7f984a	-0.062401094
34	0xbb28962a	-0.002572427
35	0xbd1d0e9e	-0.03834402
36	0xbccc2275	-0.024918774
37	0x3d53e1b9	0.051728938
38	0xbd7738f7	-0.06035706
39	0xbbb19439	-0.005419281
40	0xbac6dd04	-0.0015172069
41	0x3d4067ed	0.04697411
42	0x3ccebf8a	0.025237817
43	0xbd466b77	-0.04844233
44	0xbb57b599	-0.0032914637
45	0xbd84224a	-0.064518526
46	0x37d08a1c	2.4859844e-05
47	0xbd5e9833	-0.054344367
48	0x3d4f798c	0.050653026
49	0x3cbfba0d	0.023404146
50	0x3c500b75	0.012698044
51	0x3ce0ff57	0.027465506
52	0x3d6fefdc	0.058578357
53	0x3982791f	0.00024885774
54	0xbcd15b56	-0.025556248
55	0x3aa142ed	0.0012303271
56	0x3d4fdf6a	0.050750174
57	0xbcc9bc9b	-0.024626067
58	0xbbc26e7a	-0.00593358
59	0x3d0c05a1	0.034185056
60	0xbcfbac99	-0.03072195
61	0x3d64a172	0.05581803
62	0xbc8ff380	-0.017572165
63	0x3d08df4d	0.03341608
