model2.pt (torch_old, 763093 bytes, 14 tensors)

weight f4 [6, 3, 5, 5]
00000000: a7e2 a8bd 3c86 d93b a26a 90bd 96fe 4c3c
00000010: 0c6b 55bd 04a2 a53d f62e 6a3d 46aa d6bd
00000020: cb1f dbbd c3a9 38bc f708 7abd 19ad b03c
00000030: 5e93 043e 8636 853d 96a9 20bc 0784 f9bc
00000040: 86e4 abbd 3c83 133c 3e92 f6bc 7991 01bd
00000050: 9117 aabd 3099 473c 1790 86bc 40e4 d03d
00000060: 11bd 11bd 1b5f debc 02e9 313b d13d 393d
00000070: c675 b3bd 45b8 28bc b0c4 85bd afa0 193d
00000080: a59e a8bd 70e1 653c 1f11 81bd ccef 573c
00000090: d857 c4bd 75c6 333d 82f2 aebd c9e7 32bc
000000a0: cb75 06bc 1aa8 1c3d 8537 1abd 020c fd3d
000000b0: 07c5 bd3d 6097 ea3c 4a31 f13d 90a4 40bc
000000c0: 8de2 3c3c 8755 f4bc 5b6a b13d d065 b2bb
000000d0: dace c6bc fdfd 59bd aca3 c9bd 7f60 cebd
000000e0: ddd6 d03d 583a 003e 1a6a 4fbd 78c9 51bb
000000f0: b9af 7dbd b7f1 f13d 41a9 ef3c f85d eb3d
00000100: 18c2 283d 29ac 923d 8b40 0e3e e828 903c
00000110: 580b 023e f8b1 b73b 9db1 1ebd d9ed a7bd
00000120: 8833 92bc 249a 093b f140 28bd fa08 ac3d
00000130: 317b 54bd 2aef 98bc 3fdf 4a3d af73 d53d
00000140: b20d a1bd a31e 23bb 0c6d e13d f423 d93d
00000150: cc52 7abd 45e6 d53c c44c 00bd 019e debc
00000160: f82f 16bc 192d fa3c be6d 65bd 8be6 ab3c
00000170: aff3 e43d 9f4a 83bd de1f 23bd 5a34 6c3d
00000180: 6620 0c3e 57b0 0a3e f13c 5e3c afa8 ae3c
00000190: 1492 6ebc bc3d b63d 30ad 5d3d 5fa7 853d
000001a0: 5255 e73d 6366 9fbd eff9 773d 840b a4bd
000001b0: 293c db3d eb1f 013e d6f2 e03c c26e 0e3d
000001c0: a94e ac3c 9c13 0cbd 6128 4e3c e965 ba3d
000001d0: deb7 1cbd 420b a03d 8d73 143e de55 bb3d
000001e0: 7035 b6bd 8154 993c c4b0 733d 02c2 093e
000001f0: dc23 cb3d ba7c ea3d 5cf0 7c3d 0cfd 4cbd
00000200: e55e 61bd b75e 043d 51a1 b33c 26c6 57bd
00000210: e6e2 3ebd 6cf3 babd fc42 d03d d9ca 493d
00000220: 2904 c63d db7d 29bd 4af8 3e3d 2596 073b
00000230: 8f6c 2bbd ef4d 53bd 9682 ad3d de74 543d
00000240: 73b7 683d 3b8e 383d 5c73 cfbc 129e 163d
00000250: 5f6c cfbc 0588 053e b545 693d 1d9b 003e
00000260: e0dc aebd 376e 9b3d e3da a3bd bc41 55bd
00000270: 5ee0 76bd f81c d53d b1ad 0d3e 7c10 9238
00000280: a88e fc3d 5265 803d ddc1 e2bc 6222 1e3e
00000290: ccc0 92bb 17d8 223e 22dd 68bd 00fa c93c
000002a0: f60e d53d c4a2 b33d 8e15 7a3d f461 e53a
000002b0: 6558 f73d 0b95 0dbd dbe3 093e f65d f23d
000002c0: dd91 0d3d 8d6b 1c3d 35fd a1bc 08ee a7bd
000002d0: 614c e8bc 1be6 3fbc d763 4bbd 2c59 a73d
000002e0: e5c5 423d d96b e43c ac73 6bbd be73 2d3d
000002f0: 1583 9dbd 3fa1 f5bc 8259 12b8 1abe 55bd
00000300: 17b2 f03d 8ebb a2bd 19ea f33d 7c16 0ebd
00000310: 08a3 7bbd c14b 963d ec04 163e 474e b63d
00000320: a706 633d 278f b1bd 574e a53d 5f9f a3bd
00000330: 6883 0a3d c745 d9bb 198f 853d 1087 893c
00000340: 0826 5cbd 71c8 cabc 4c06 d7bc 919c edb9
00000350: 7f68 903d 4352 e43d 4630 c73d 4b09 0e3e
00000360: d0b6 263d 5cf0 883d 7ef3 ae3d 66c2 93bd
00000370: 8919 413d 16b6 a53d 44e1 753d d948 85bd
00000380: 7048 e43d d405 f7bd 4691 d8bd de15 63bd
00000390: edd7 27bd 090e f9bc b28a debd b340 f93d
000003a0: 3f4f c0bd 1752 d83d 2c51 953d 9462 b2bd
000003b0: e54c cdbd a602 d9bb ca73 373d e383 6e3c
000003c0: f450 c33d 00b7 c23d 061a 0d3e 1d04 b3bc
000003d0: 569b 0b3e 2a1e 073d 2583 91bd 518b f93d
000003e0: 6cc9 c43c 21ab 633d 99cc 9f3b 2ea9 aabd
000003f0: 6a25 42bd 76c9 c5bd 3e52 c4bc 700f 8dbb
-0.082463555 0.0066383164 -0.070515886 0.01251187 -0.05210404 0.08087543 0.05717369 -0.10481696
-0.106994234 -0.011270943 -0.061043706 0.021566914 0.12946841 0.0650454 -0.009806057 -0.030458463
-0.08393197 0.009003457 -0.03009903 -0.031632874 -0.08305276 0.012182519 -0.01642613 0.10199785
-0.0355807 -0.02714496 0.002714694 0.04522497 -0.08762698 -0.0102978395 -0.06531656 0.037506755
-0.08233384 0.014030799 -0.06302094 0.013179731 -0.09587067 0.043890435 -0.085423484 -0.01091952
-0.008206795 0.03824625 -0.037650604 0.12355806 0.092660956 0.028636634 0.11776979 -0.011757985
0.011528623 -0.029825939 0.08662864 -0.005444266 -0.024268556 -0.053220738 -0.09845671 -0.10076999
0.10197232 0.12522256 -0.050638296 -0.0032010954 -0.06193516 0.118136816 0.029255511 0.114925325
0.041200727 0.07161743 0.13891809 0.01759763 0.1269964 0.0056059323 -0.038743604 -0.08199663
-0.017846838 0.0020996416 -0.041077558 0.0840015 -0.051875297 -0.01866873 0.04952931 0.104224555
-0.0786394 -0.0024890087 0.11007127 0.10602561 -0.061114118 0.026110778 -0.03132321 -0.027174952
-0.00916671 0.030539082 -0.05601286 0.020983955 0.111792915 -0.06410717 -0.039825313 0.057667114
0.13684234 0.13543831 0.013564334 0.021320669 -0.014561195 0.08898494 0.054120243 0.06526064
0.112955704 -0.077832006 0.06054109 -0.08010009 0.10704834 0.12609832 0.027459543 0.034773596
0.021033602 -0.03419839 0.012582869 0.09101469 -0.038261287 0.07814647 0.14497204 0.09147237
-0.08896911 0.018717052 0.05949475 0.13452914 0.09918949 0.11449571 0.061752662 -0.05004601
-0.05502214 0.03231689 0.021927508 -0.052679203 -0.046603106 -0.0912846 0.10169026 0.049265716
0.09668762 -0.04137979 0.046623506 0.0020688858 -0.041851576 -0.051587995 0.08472173 0.051869266
0.056815576 0.045057517 -0.025323562 0.03677184 -0.02532023 0.13040169 0.056951243 0.12559171
-0.08538222 0.07589381 -0.08000734 -0.052064642 -0.060272567 0.10405916 0.1383579 6.964893e-05
0.12331897 0.06269325 -0.027680332 0.15442804 -0.0044785496 0.15902744 -0.056851514 0.024655342
0.10403244 0.087712795 0.061055712 0.0017500506 0.12077407 -0.034565967 0.13465826 0.11834328
0.034562934 0.038188506 -0.019774059 -0.08199698 -0.028356733 -0.011712576 -0.04965576 0.08171305
0.04755201 0.027883457 -0.05748336 0.04234671 -0.076910175 -0.029984115 -3.4892473e-05 -0.052183248
0.11752718 -0.079459295 0.11909885 -0.03468941 -0.061434776 0.07338668 0.14650315 0.08901649
0.055426266 -0.08669882 0.08071583 -0.07989382 0.033816725 -0.0066306326 0.06521434 0.016788036
-0.053747207 -0.024753781 -0.02624812 -0.00045320814 0.07051181 0.11148503 0.09726004 0.13870732
0.040701687 0.0668647 0.08542536 -0.07214813 0.047143493 0.08091371 0.060029283 -0.06508035
0.11146629 -0.120616585 -0.10574584 -0.055440776 -0.040977407 -0.0304022 -0.10866298 0.121705435
-0.09390115 0.105625324 0.07290873 -0.087102085 -0.10024432 -0.00662263 0.04478816 0.014557811
0.09536925 0.09507561 0.13779458 -0.021852547 0.13633475 0.03298775 -0.07105092 0.121847756
0.024021827 0.055583123 0.004876685 -0.0833305 -0.047398962 -0.09657566 -0.023964997 -0.004304819

bias f4 [6]
00000000: f270 903d 706c 623c 37d5 a3bd d9fb 42bd
00000010: 9e90 0b3d d558 16bd
0.070527926 0.013819799 -0.07999652 -0.047603462 0.034073465 -0.03670581

weight f4 [16, 6, 5, 5]
00000000: da06 13bd 27e1 393d 4d69 203d ef19 f63c
00000010: bee0 c53c ec0b aebc 690c 903d c926 13bd
00000020: 4ef9 763d 487c 4dbd ca6f d6bc 0c21 79bd
00000030: 9284 7dbd 2c22 813d 5ab8 89bd 28f0 c13c
00000040: 36a5 2abd 8bf3 1a39 3b47 dd3c cd8b d63b
00000050: a595 87bd 56ca 0cbd b2e7 9cbd d417 84bd
00000060: 1f7b 8ebc 9e2d 863d ca65 5fbc 23d4 2bbd
00000070: 895a ae3d cad8 45bd 9df5 4e3c 54fd 223a
00000080: 8d6a 07bd f89f ca3c affe 9cbb 942d 6bbd
00000090: 3d19 dabc 983b 493c 03d8 8a3d 42da 7ebc
000000a0: 6c1c a43d feb9 99bd 2c3e 903d 3ad1 093c
000000b0: cc5f 143d 2889 0a3c d87e 383d 2186 443d
000000c0: 400c 0a3d 27ef ad3c d379 74bd 305c a4bc
000000d0: 62db 963d c86d ddbc f330 453b 319c 87bc
000000e0: 73b7 843d e161 123d 9886 8a3c 0888 7b3d
000000f0: 7cd5 a93d 6759 79bc 6848 c33c 681c a73d
00000100: 59b6 d53d 5e19 1fbb dfd2 8bbd 2172 2ebd
00000110: 95f5 0b3d 4b8c 7ebd ccf5 a0bd a025 9d3c
00000120: b154 28bd f79d fabc 4cce 83bd 9c71 2abb
00000130: 49c1 a8bb 52c5 2e3c 8c5e dc3d 966f a43c
00000140: 6bdd 023d d334 a03d 2c82 d23d fcbc 7ebc
00000150: 6cfb 3cbd 6d0e 8a3d d2aa 833d 91be 54bd
00000160: 4f31 9c3d e456 443d 7408 e8bc 5834 953d
00000170: 3aaa 49bd af31 653d 3f11 abbc 5e87 2f3c
00000180: d2a5 873d 12a8 953d c56a 8abb 0c52 483d
00000190: 9db0 80bd 87a2 853b 0db6 7a3d c3a2 4b3c
000001a0: 010c 0d3c 514d 9b3d 835a e33c d3a1 1abc
000001b0: b757 09bd 92ac 6a3d 74d5 01bc 4361 8e3d
000001c0: 17e5 15bc 297f 04bd f376 9c3d 4a44 703d
000001d0: 442d 30bd 3335 a93d e50c a03d 0354 0b3c
000001e0: 828e b13c 46b4 fbbc 6897 a63d e21b 343d
000001f0: 2c41 7d3d 18c7 b73d 96de 5c3d 3e9d 8d3c
00000200: b740 05bd 8977 26bd 3f89 5e3d 8694 66bd
00000210: dcad a0bb 7ef6 09bd f263 b23b 9e51 5c3d
00000220: 6816 303d 3f70 dd3d 0b27 b03d a75e e13d
00000230: bf05 c73d d7a9 2bbd d464 b13d 8fdc 963d
00000240: 0686 d33c 6182 063d 194b 653d 9ccb 04bc
00000250: 1a68 e7bc 2968 8b3d 4607 833d 3dd3 903d
00000260: 85ec 94bc 2310 bc3c 057e 253d ee42 8cbd
00000270: 01c5 9dbd 5a58 443d 2dea 2d3d e40e 673d
00000280: b3bc 9b3c 8ee6 443d 31d4 6fbd 63f4 c2bd
00000290: 6e2f 413c 046a 663d 4c92 5dbd d184 ad3c
000002a0: 2b97 70bd d153 b4bc eb77 04bd f76d bd3c
000002b0: 0ab0 2fbd 364a 903d 9932 7c3c a4b7 5c3d
000002c0: df58 09bd ce23 d93d 1e87 bf3d f10f 323d
000002d0: f648 89bc 13b5 2a3d e109 da3c 656c 2b3d
000002e0: 7d29 263d d3a0 7b3c 54a0 16bd fa16 14bd
000002f0: 8e19 b4bc 7673 5ebd c044 85bc f987 36bb
00000300: 7643 92bb 759c cb3c 8ba8 84bd a9f8 cabc
00000310: 7579 593d f2e7 323d 1d7c a43b 55bb 92bd
00000320: 1b0d b73d e909 643d 553e dd3d 7754 ff3c
00000330: 9144 ea3d 2ec4 8dbc f47a 323c 9cc6 8b3d
00000340: 8c26 563d 65d6 083b 05bc 79bd 10d0 bd3b
00000350: 68e4 dd3c 005b 5b3d cc7d 5bbd 5b9f 4f3d
00000360: 8dda a33c 97df 383c 9392 b2bd fa16 f4bb
00000370: ddb0 80bd 685b 2bbd 3b1c b3bd 305f 8bbd
00000380: 4364 6cbd eac0 343d ad64 7b3b 6427 be3d
00000390: 4504 aa3b 0c1a 573d a3cc 893d 474f 6a3d
000003a0: fd56 82bd 2eb6 65bd 979e 9c3d 7c98 09bd
000003b0: 35ea 813c da64 f4bb 558b bbbc 36c5 7fbd
000003c0: 499b 26bd 5d0b 98bd ac9c d2bd e5ed 8cbd
000003d0: 2ea0 ff3c 4f95 4f3c 596b 72bd a93d d7bd
000003e0: 1db7 60bd 8270 25bd c33e 44bd 3756 953d
000003f0: 59e8 12bc 8447 973d e3c0 04bd 0936 1e3d
-0.035895206 0.045380738 0.039162923 0.030041663 0.024155017 -0.02124592 0.07033617 -0.03592566
0.06029635 -0.050167352 -0.026176352 -0.06082253 -0.061894007 0.06305346 -0.067246154 0.023674086
-0.041661464 0.00014777311 0.027011504 0.0065474273 -0.06620339 -0.03437265 -0.0766138 -0.06449857
-0.017392693 0.065516695 -0.013635108 -0.041950356 0.08513362 -0.04830245 0.012631801 0.00062175584
-0.0330606 0.024734482 -0.004791103 -0.057416514 -0.026623363 0.012282275 0.06779482 -0.015554966
0.080132335 -0.07506178 0.07043108 0.0084117 0.03622417 0.008455552 0.045042843 0.047979478
0.03370309 0.0212322 -0.059686493 -0.02006349 0.07366063 -0.027029887 0.003008899 -0.01655397
0.06480303 0.035737876 0.016909882 0.061409026 0.08292672 -0.015219069 0.023838237 0.08159715
0.10435171 -0.0024276595 -0.0682733 -0.04258931 0.034169752 -0.062145513 -0.07859382 0.01918298
-0.041096393 -0.030592902 -0.064358324 -0.0026007658 -0.0051499945 0.010667162 0.10760221 0.02007274
0.031949442 0.078225754 0.102787346 -0.015547987 -0.046138212 0.06741033 0.06429066 -0.05193955
0.07626592 0.047934428 -0.028324343 0.072853744 -0.049234606 0.055955585 -0.020882247 0.010713426
0.066234246 0.073074475 -0.0042241537 0.04890637 -0.06283686 0.0040782127 0.061208773 0.012428942
0.008608819 0.07583106 0.02775312 -0.009437996 -0.033530917 0.057293482 -0.007924426 0.06952145
-0.009148858 -0.032347832 0.07639875 0.058658876 -0.04301192 0.082621 0.078149594 0.008503917
0.021674398 -0.03072561 0.08134347 0.043971904 0.06182973 0.08973521 0.053923212 0.017286893
-0.03253242 -0.04064134 0.054330107 -0.056293987 -0.004903538 -0.03368234 0.0054440433 0.053788774
0.04299012 0.10812425 0.08601197 0.110043816 0.09717893 -0.04191002 0.086618096 0.07366287
0.025820743 0.032839183 0.05597982 -0.008105185 -0.028247882 0.06806976 0.06397872 0.070715405
-0.018179188 0.022956913 0.040403385 -0.06848703 -0.07703591 0.04793582 0.042459656 0.056410685
0.019010877 0.048071437 -0.05855197 -0.09519269 0.011791093 0.056253448 -0.054094598 0.021181496
-0.058737915 -0.022012623 -0.032340925 0.023123724 -0.042892493 0.070454046 0.015392923 0.05388607
-0.03353202 0.10602532 0.093519434 0.043472234 -0.016758423 0.041676592 0.026616039 0.04185142
0.04056691 0.015358168 -0.036773995 -0.036154725 -0.021984842 -0.05430933 -0.016268134 -0.0027852042
-0.0044636084 0.024854878 -0.064774595 -0.024776774 0.053094346 0.04367823 0.0050196783 -0.07164637
0.089380465 0.055673514 0.108029045 0.031168206 0.11438859 -0.01730546 0.010893572 0.06824991
0.052282855 0.0020879742 -0.060970325 0.0057926252 0.027086452 0.05355358 -0.053586766 0.050689083
0.020001674 0.011283777 -0.08719363 -0.007449028 -0.06283734 -0.04183522 -0.08745619 -0.06805265
-0.057712805 0.04412929 0.0038359568 0.09284857 0.0051884972 0.052515075 0.067284845 0.05720451
-0.06364248 -0.056081943 0.07647436 -0.033592686 0.015858749 -0.0074583115 -0.022893587 -0.062443934
-0.040675435 -0.074240424 -0.10283789 -0.06881312 0.03120431 0.012669875 -0.059184406 -0.105098076
-0.05486213 -0.0403905 -0.047911417 0.07291835 -0.008966529 0.073866874 -0.032410514 0.03862575

bias f4 [16]
00000000: c2d2 a6bd e278 973d 5a9c b13d 4908 8c3d
00000010: d59e 1a3c a26a ac3d fca9 47bc 063b 503d
00000020: 2579 bd3c bb09 84bb 04d9 e33c d93f 95bd
00000030: bd16 41bd 2e70 1c3d 9ccd 9b3d 8e76 85bd
-0.081456676 0.073961034 0.086724 0.06837518 0.009437283 0.08418776 -0.0121865235 0.05083754
0.023129055 -0.0040294803 0.027813442 -0.072875686 -0.047140826 0.03819292 0.07607576 -0.06516753

weight f4 [8, 16, 5, 5]
00000000: 4997 3c3d 6c13 b3bb 8bf4 ee3b 868d 94bb
00000010: fc31 9fbc a902 313c 7c69 fc3c 2917 9fbb
00000020: e505 b2bc 974a c8ba eb50 06bd 52b3 01bd
00000030: d6d4 0d3b cf3f 40bd 570b 053d d12f 1c3d
00000040: 8c8d 41bc 9040 22bd 73cb 86bb 645a 343c
00000050: ba83 8dbc 5982 cc3c f43d 523c 17da 14bd
00000060: c9f0 33bd 6444 b2bc c3f4 1c3c ea7e 813d
00000070: 7fcb 113d 6b21 0dbc 2b55 043b e931 7d3d
00000080: 01d7 a1bc ec8b 85bc e41f 843d 0e8c 273d
00000090: 65b2 ea3b d3cb 2fbb 0065 163c 6500 82bc
000000a0: dba7 50bd dfb4 273d 3fc5 36bd 9c94 81bc
000000b0: 4ebf 913c a208 0a3d b20e b6bb 461d 543c
000000c0: 8784 203d caeb c03c d96c 15bd 7c17 9e3b
000000d0: 0e77 85bc a7d2 7fbc fc19 e6bc edda e7bc
000000e0: 74b2 233d 0554 8fba afb5 2f3c 5e56 d5bc
000000f0: b00f 773d cdac 073d e3db 1e3c 860c 2b3d
00000100: da43 133d 111b 943c 5ef4 063d febf 2d3c
00000110: 931e e5bc 8bdd 06bd 0fc9 80bb 77f1 493d
00000120: f7fa 0d3d f455 2b3d c1ba c93c 7ac8 9cbc
00000130: 55de b0bc e4a4 02bb 701b b03c 1ea3 ec3b
00000140: 5b53 04bc e8ee 30bc 48c0 9cbc d1f2 e13b
00000150: 94a5 563c 14c5 dfbc c156 9b3b 98fd ff3a
00000160: 9577 40bd 6212 a63c 46ea 13bd b70e e9bb
00000170: a336 a6bc 491f c2bc d84a 233d c269 1e3d
00000180: bac6 36bd 0f46 39bd 2c40 5b3c e659 90bb
00000190: d3f7 99bc f7e5 663d 3cba 84bc 415d 1dbd
000001a0: c2fd 553c d1e3 2c3d 82b0 5dbd deea 35bd
000001b0: 3e01 963c ecd2 1f3d 6acf 4bbd 0407 bc3c
000001c0: 2a81 14bd 06fa 6fbd a052 a3bc 0cbd e93c
000001d0: 71f7 55bd b230 abbc 7dba 92bc e360 c2ba
000001e0: fa56 423d e8e3 d2bc c510 d1bc f564 f9bc
000001f0: 3c58 043d 4b3e b13c 2819 bbbc cdf5 4cbd
00000200: db96 9bbb a4ff 1a3d 0c9d 343d 7987 4ebd
00000210: 97a1 f4bb af07 9ebc 49e0 26ba 9899 683d
00000220: dca0 b33c 98ba 14bc 10be 4fbc 10c6 233d
00000230: 853b 713b 0fdf 0a3d d333 ad3b fa6b 9b3c
00000240: 77c2 aa3c 0241 543d 63e3 edbb 2618 363d
00000250: c6b4 f9bc 10ac 8c3d 3ff6 543d 14cf 343d
00000260: 5055 5d3d 5080 383c c7d8 a43d 1e3f a23c
00000270: bdf0 013c d3b1 3c3d ddd1 8c3d 0421 bb3c
00000280: 5304 fabb 1bc6 88bd acc2 f93b a755 21bc
00000290: 04f6 9a3c 2dda 35bd 74e2 8fbd 9b3d 85bb
000002a0: 3480 8dbb c305 57bc 0633 663c c921 49bc
000002b0: 4c7d bf3a 8fef 5dbd 4def 85bd c14d 5c3d
000002c0: 5051 1a3b fcbd e2bc 5375 2a3c ac72 563d
000002d0: b7ac 1d3d ff4b 383c 001c 523c 9401 273c
000002e0: c826 43ba 68dc e6bb a58f 8f3b 4296 7ebb
000002f0: 257d ca3c bd8d 2dbd c04f 2d3c 5907 0a3d
00000300: 8d40 cbbc f595 0a3d 97dd 013d e0be 13bd
00000310: f3cf d23c d3e5 483d cef2 1e3d 3f85 c0bb
00000320: 7d21 14bd 84ca 6f3d dedd 7d3a 6862 d6bc
00000330: 3316 0bbd 4ef0 99bc c356 33bd ff4d 563c
00000340: 47e1 203d 5ebc c1bc 1e1e 133c 133a 5e3b
00000350: d4c4 1d3c 4285 a3bc 0ecd f5bb 261b a4bc
00000360: 8538 96bc 1190 ac3b e562 61bb d26e 57bc
00000370: 5047 d43b 1002 c2bc 7689 2bbd 1418 12bd
00000380: 550e 563d da6c fdbb 1b39 a6bc b5c3 b23c
00000390: f4b6 073d 95dc 043d e86e 263c 234b 3a3d
000003a0: 0232 5d3b de07 d0bc 92d6 213d b2e1 68bd
000003b0: 14fb cf3c fee1 8dbc e9a9 b7bc ee22 bd3c
000003c0: 9b3d 91bc 371f bd3b 8cc6 1fbd 3da8 81bc
000003d0: 38f7 0a3d 6142 f0bb 7c7b 1abd 78db a63c
000003e0: 3723 52bd c2d9 1ebd 4bbc 8c3d adc1 12bc
000003f0: 6adc 703d 019e a53b 6a8d 153b 9837 573d
0.046042714 -0.0054649618 0.0072923354 -0.0045334725 -0.019433014 0.010803857 0.030812018 -0.004855056
-0.021731326 -0.0015281019 -0.032792013 -0.031665154 0.0021641753 -0.046935853 0.032481518 0.03813154
-0.011813533 -0.039612353 -0.0041136085 0.011007879 -0.017274726 0.024964498 0.012832154 -0.0363408
-0.043930802 -0.021761127 0.00957984 0.06323035 0.03559446 -0.0086139245 0.0020192366 0.061815176
-0.019755842 -0.016302072 0.06451395 0.04090505 0.0071623796 -0.002682437 0.009179354 -0.015869329
-0.05094133 0.040943976 -0.044621702 -0.015817933 0.017791416 0.03369964 -0.005555951 0.012946432
0.039188888 0.023549933 -0.03648076 0.004824577 -0.016292121 -0.015614188 -0.028088562 -0.028302634
0.039965108 -0.0010935074 0.010724469 -0.02604216 0.060317695 0.03312378 0.00969598 0.04175999
0.03595338 0.018079313 0.03294789 0.010604857 -0.02796868 -0.032926124 -0.003930218 0.049302544
0.034663167 0.04183002 0.024625184 -0.019138563 -0.021590391 -0.0019934708 0.021497458 0.0072215935
-0.008076514 -0.010799147 -0.019134656 0.006895401 0.013101 -0.027315654 0.0047405665 0.0019530533
-0.046989042 0.020272437 -0.036112092 -0.00711235 -0.020289725 -0.023696559 0.0398663 0.038675077
-0.044623114 -0.04523283 0.013381999 -0.004405248 -0.01879493 0.056371655 -0.016202085 -0.038419012
0.013060989 0.04220945 -0.05412341 -0.04441344 0.01831114 0.03901951 -0.049758352 0.022952564
-0.036255993 -0.05858805 -0.01993686 0.028532527 -0.05223793 -0.020897243 -0.01791119 -0.00148299
0.04744623 -0.02574344 -0.025520692 -0.030443648 0.03231071 0.021636149 -0.022839144 -0.0500391
-0.004748208 0.037841454 0.044095084 -0.050422166 -0.007465552 -0.019290773 -0.00063658186 0.056787103
0.02192729 -0.009077691 -0.012679592 0.03998381 0.0036809158 0.03390413 0.005285719 0.018972386
0.020844681 0.05181981 -0.0072597726 0.044456623 -0.030481707 0.06868756 0.05199265 0.044142798
0.05403644 0.011261061 0.080491595 0.019805487 0.007930932 0.046068024 0.06875966 0.022842892
-0.00762991 -0.066784106 0.0076220836 -0.009847081 0.018916138 -0.04439752 -0.070256144 -0.004066182
-0.0043182615 -0.013123932 0.014050251 -0.012276121 0.0014609485 -0.05418354 -0.065397836 0.05378509
0.0023547001 -0.027678482 0.010403949 0.052355453 0.03849479 0.011248588 0.0128240585 0.010193247
-0.00074444385 -0.0070453174 0.0043811374 -0.0038846885 0.024717877 -0.0423715 0.010578096 0.033698414
-0.024811054 0.033834416 0.031705465 -0.036070704 0.025733924 0.049047302 0.038805775 -0.005875259
-0.03616475 0.058542743 0.0009684245 -0.02616997 -0.033956718 -0.018791344 -0.043783914 0.013080119
0.03927734 -0.02364939 0.0089793485 0.0033909127 0.009629447 -0.019961003 -0.007501251 -0.020032477
-0.018337497 0.0052661975 -0.003439122 -0.01314898 0.0064782277 -0.023682624 -0.04187914 -0.035667494
0.05225976 -0.0077339234 -0.020290902 0.021821836 0.033133462 0.032436926 0.010158278 0.045481812
0.003375173 -0.025394376 0.03951127 -0.056855865 0.025388278 -0.017319676 -0.022419887 0.023087945
-0.017729571 0.0057715434 -0.03900771 -0.015827293 0.033927172 -0.0073321317 -0.03771542 0.020368323
-0.051303115 -0.03878189 0.068718515 -0.008957309 0.058803953 0.005054236 0.0022819885 0.052543253

bias f4 [8]
00000000: 0f77 293d 7ac5 b53a e5cf c93c e29c 43bc
00000010: 8b77 29bd cb98 043d c28c 813c 57e3 d13c
0.04137331 0.0013868057 0.024635265 -0.011939259 -0.04137377 0.032372277 0.015814189 0.0256211

weight f4 [256, 648]
00000000: f84b 213c 85af 1fbd 9e87 ef3c e0b9 b73a
00000010: 54f8 ddbc dc26 8e3c 7004 bcbc 6069 40bb
00000020: 757b aabc fcd3 743c 400b 8d3c b000 ac3c
00000030: 82b2 c93c 8c61 eebc 965f 8a3c 4035 fe3a
00000040: 5490 63bc 260f 3abc 304f e63b 8baa 11bd
00000050: 3ad7 14bd fcfe a53c 652a 1f3d 609e 05bb
00000060: f840 c73b 6a60 debc 40b4 413a 904d 393c
00000070: ce1f 8e3c b9e9 133d 162e a03c 4a17 d73c
00000080: e042 0dbc eb9a acbc 209f bd3c 0813 973c
00000090: f453 28bc 6cd4 5abc 93e5 053d c428 013c
000000a0: c93e 043d 26cc df3c bc29 0a3c 1539 95bc
000000b0: d27b bd3c 61a1 95bc 4c1d e3bc 72db e83c
000000c0: baaf acbc 29bf 96bc e83f 92bb 1a10 f33c
000000d0: f3d4 05bd f44d b33c 6122 b2bc 1efc cc3c
000000e0: e7fa 1e3d c1a1 18bd 9d71 cdbc a5ac 173d
000000f0: f2cc b43c e15e 1fbd a6aa ed3c 3247 d03c
00000100: 84b7 72bc 122a 29bc 78de 4f3c b097 503b
00000110: 9ed6 debc e03b 32bc b872 f5bb c8a4 413c
00000120: 8fdb 94bc 966a ea3c e8dd bc3b 68bb 8f3b
00000130: b5ea e1bc 3c10 00bc 2a42 dc3c a84a 84bb
00000140: fd9f 1dbd 1486 e0bc 80ec 293c a005 aaba
00000150: d413 b33c d064 b03b 3d41 a0bc 60f4 143b
00000160: 02ac e93c 68ee 0a3c 48b2 00bd cbee 9cbc
00000170: e99b 0d3d 3672 d1bc 4ec1 04bd 3111 003d
00000180: 0074 e0bb 56f0 ae3c fcaa a93c bed5 ee3c
00000190: d936 0b3d a051 693c 5036 673c a0bf 793b
000001a0: dd63 063d 643c 6a3c f8f2 3a3c fbbf 8fbc
000001b0: 8a4b 02bd ffdf 17bd deea ff3c 4d5d 193d
000001c0: 0edf d4bc a08e ccba 82ae 71bc 304c 973c
000001d0: 1eba c93c 78ee 833c ccb6 6f3c 14ba 1b3c
000001e0: bc48 1a3c d6e9 a63c 7e44 42bc c046 98ba
000001f0: 108c f8bc 701d a83c 60f8 a83c 4bd7 bdbc
00000200: 42e2 f33c 0c5a 3a3c c154 1b3d 0116 aebc
00000210: c088 ecbc 58fd 803b ece7 933c fcbe 8c3c
00000220: 20ab b6bc 8c76 e6bc d085 583c 9c77 0d3c
00000230: 26c1 03bc e470 c7bc 5471 aa3c 5685 13bc
00000240: 145e ad3c 14e8 c2bc c2e2 36bc 20df 713b
00000250: 1ffc 0d3d 6628 0abc e82f 8dbb 77eb a1bc
00000260: b68e d2bc 0be9 00bd b80f d0bb ccc4 1dbd
00000270: 40f7 8a3b 28c0 903b 568d 8c3c d713 9abc
00000280: c504 80bc 10c0 2e3c 885f 623c 390f 1bbd
00000290: b293 0abd 0c47 b93c 4ae8 a9bc 5953 e6bc
000002a0: f254 04bd a303 093d e04c e13a 64b1 8d3c
000002b0: 8ebe 923c 6a5d 7dbc e6b4 f3bc 62e8 06bd
000002c0: e8b9 633c ace7 803c aa28 8a3c 5610 1fbd
000002d0: 8a37 74bc 36c4 7ebc 5c51 563c 461e 12bd
000002e0: 981f cdbb 3c55 d8bc 0004 35b9 1e51 1dbd
000002f0: d4a2 573c 7ef5 9cbc b4fe 4bbc 3ea3 24bc
00000300: f807 b13c fca1 5c3c 8c17 05bd 5268 4ebc
00000310: 40fd 5e3a a423 06bd 8057 4b3c 326b e03c
00000320: 719d 0ebd 468e b93c d83a e1bc 203a 10bd
00000330: e8fd 7a3c f9fe b0bc 7854 e2bc 639d a5bc
00000340: 4c9d 303c 96bb 9c3c c4d1 67bc 18ea 373c
00000350: 520a f9bc 8883 a93c 5e33 07bc 3e85 d5bc
00000360: fe2e 15bd f286 873c b86d 873b 2a3e 36bc
00000370: 6ae2 cf3c 0327 03bd eac6 963c daff b8bc
00000380: 8901 9fbc 881b 7c3c 0fba 123d 76bc 12bc
00000390: e42c 9d3c 4084 dfbb 360e fc3c 5082 c03b
000003a0: 30bf e8bb d857 bcbc 7483 a73c c5c5 10bd
000003b0: c8fa f73b 3ca0 4f3c 388e 9dbc d258 d53c
000003c0: 92f0 853c 8011 5a3c de9d 00bd 0b2c 97bc
000003d0: 83e2 053d e0a4 2ebb 1ee9 20bc 4018 963c
000003e0: 5471 783c 7ffa 0e3d 0005 2db9 faed 01bd
000003f0: c8cb d53b 5969 ddbc cd20 0e3d 6e07 efbc
0.0098447725 -0.038985748 0.029239472 0.0014017187 -0.027095951 0.017352514 -0.022951335 -0.0029359683
-0.020810822 0.014943119 0.017217278 0.020996422 0.024621252 -0.029099248 0.016891282 0.0019394532
-0.013889391 -0.011356151 0.007028483 -0.035563033 -0.03633807 0.020263188 0.03885879 -0.0020388588
0.006080743 -0.027145583 0.0007389225 0.011309996 0.01734915 0.036111567 0.019553225 0.026256222
-0.008621901 -0.021069964 0.023147166 0.018441692 -0.010273922 -0.013356309 0.032689642 0.007883254
0.03228644 0.027319025 0.008432802 -0.018215695 0.023130331 -0.018265428 -0.02772393 0.028424952
-0.021079887 -0.0184017 -0.0044631846 0.029670764 -0.032673787 0.021887757 -0.021744909 0.025022563
0.038813498 -0.037263636 -0.02507859 0.03702988 0.022070382 -0.038908843 0.029012036 0.025424574
-0.014814261 -0.010324972 0.012687318 0.0031828694 -0.027201947 -0.010878533 -0.007490482 0.011819072
-0.0181711 0.028615277 0.005763758 0.0043863542 -0.027577737 -0.007816371 0.026887018 -0.00403722
-0.038482655 -0.027407683 0.010371327 -0.0012971647 0.02186004 0.0053831115 -0.019562358 0.0022728667
0.028524403 0.008479692 -0.031420022 -0.019156834 0.034572516 -0.025567155 -0.032410912 0.031266395
-0.006849766 0.021354835 0.020711415 0.029154655 0.033987854 0.014240652 0.01411207 0.0038108602
0.03281008 0.014296625 0.011410467 -0.017547598 -0.03181032 -0.037078854 0.031239923 0.037442494
-0.025985267 -0.001560647 -0.014751079 0.018468946 0.02462488 0.016104922 0.0146309845 0.009504814
0.009416755 0.020375174 -0.01185715 -0.0011617765 -0.030340225 0.02052185 0.020626247 -0.023173949
0.029770974 0.011374008 0.037922624 -0.021250727 -0.028873801 0.003936451 0.018054925 0.017180912
-0.022298396 -0.0281327 0.013215497 0.008634474 -0.008041656 -0.024345823 0.020805992 -0.009003958
0.021163024 -0.023792304 -0.011162462 0.0036906675 0.03466427 -0.008432483 -0.0043086894 -0.019765599
-0.025702816 -0.031472247 -0.00634953 -0.03851776 0.0042409003 0.004417438 0.017157238 -0.018808288
-0.015627274 0.010665908 0.013816722 -0.037856314 -0.03383226 0.022616886 -0.020740647 -0.028115915
-0.032307573 0.033450734 0.0017189048 0.0172965 0.01791313 -0.015464166 -0.029749345 -0.03293646
0.013899304 0.01573547 0.016865093 -0.03883394 -0.01490582 -0.01554971 0.013080921 -0.035673402
-0.00625987 -0.02640783 -0.00017262995 -0.038407438 0.01316138 -0.019160029 -0.012450863 -0.010048686
0.021610245 0.013466354 -0.03249316 -0.012598114 0.0008506365 -0.032748833 0.012410998 0.027394865
-0.034818117 0.02265085 -0.02749388 -0.035211682 0.015319325 -0.021605955 -0.027628168 -0.02021665
0.01077969 0.019132417 -0.014149133 0.011225246 -0.030400429 0.020692602 -0.008251993 -0.026064511
-0.03642177 0.01654384 0.0041329525 -0.0111232195 0.025376517 -0.032019626 0.018405396 -0.022582937
-0.019409912 0.015387423 0.03582197 -0.008956065 0.019186445 -0.0068211854 0.030768495 0.0058749095
-0.0071028695 -0.022991106 0.020448424 -0.035344858 0.0075677373 0.01267248 -0.019232854 0.02604333
0.016350064 0.013309836 -0.031400554 -0.018453619 0.03268672 -0.0026648566 -0.0098212045 0.01832211
0.015163738 0.03490686 -0.00016500428 -0.031721093 0.0065245368 -0.027027773 0.03469925 -0.029178347

bias f4 [256]
00000000: 63dc 92bc 680e 11bc d4ba f63c 7207 1e3b
00000010: bac7 d03c bdaf 0fbd 9aec 22bb 35dc e9bc
00000020: ff17 253d cb6a af3c 9a16 763c 2847 7dbc
00000030: 9e4a 1ebd 345f 1bbd 7f14 c9bc 3444 1b3c
00000040: a912 213c 0a5c e23c dfbb ca3c b105 273d
00000050: d748 e03c 917b 8bbb 18b7 19bd 7e8b 133d
00000060: f4ab 173d 5212 963b c7a4 a3ba b38b 783c
00000070: f02c 3a3b 3ef2 9c3b 01ce 773c f259 823c
00000080: a140 0d3c 080c f5bb af3b 86bc 9a86 803a
00000090: b574 7bbc 4a2e 05bd d52b 0cbd 9eb5 253b
000000a0: 624c 153c e504 eb38 2d6b 9e3b 97bc c13c
000000b0: eee2 603c cac9 623c 9a19 34bc b088 143d
000000c0: c932 c13c 644f 49bc 019e 9a3a ebd7 e93c
000000d0: dabe 67bc 3dad 203d b856 03bd 0377 02bd
000000e0: 689f 7bbb e8e3 1838 0c61 07bb e58b 2fbc
000000f0: b319 51bc 536b 99bc e089 ca3c b3aa 9e3c
00000100: bdf2 1a3c 281b 0f3d 25a7 743c 5bba e7bc
00000110: c9eb 01bd 9208 8fbc 48fa a93c 443f ba3c
00000120: fc25 15bd 4abc dab8 1512 a1bc 10f2 59bc
00000130: 4d16 27bd a2a5 b0bc ead5 c23c 767e b2bc
00000140: c4b4 a03c 6899 85bc 3df9 803b b58e 2c3d
00000150: c609 00bd f127 a63b 7452 c6bb 688b 52bc
00000160: ba4a 8a3c 0783 12bd ea93 833c e9b5 0e3c
00000170: 091c a4bc dae4 02bd f673 5dbb a9e8 bfbc
00000180: c049 e1bc 7d49 033d fc4d 63bc 397e 293b
00000190: acfd d4ba 3ae7 7e3b a3bb 5cbc a79f 01bc
000001a0: 5d1f 4cbc 97aa ddbb fcc9 dbbb 3af7 1e3b
000001b0: 5772 11bc e5a3 2f3d 29e9 ed3c 4641 dcbc
000001c0: 8ba5 a8bc 0bce c9ba 8dc1 b63c 929d 0ebc
000001d0: 32a3 d13c 575b c63c 488c 25bd f10f ca3c
000001e0: b9e7 11bd 05dc cebb 9cd0 0c3c ce5c 083d
000001f0: 8d43 4fbb 5dab 503c f1a3 28bb 067c f53c
00000200: ba3a e23c 25a5 ac3c de97 573c c217 52bc
00000210: 379d ca3c f0d6 a73c 6c42 4d3c 502c c4bc
00000220: 8fde dbbc 9184 e23c f9cd 133c 3f7e aa3c
00000230: fd3c 1d3c 07f2 033d 1acb 0f3d fbc3 373d
00000240: 9d45 08bd 77c7 b93a 437c 473c db98 d2bc
00000250: f0e4 81bb b331 143d 61c1 f8bc 2977 013d
00000260: cbc5 2abb 4a30 733c f51b e83b c22c 163c
00000270: 1a2b 1ebc 83e1 5fbc 6d84 f03c 349d 24bd
00000280: c27c 0e3d 955c eabc 1f46 3abc f897 37bc
00000290: f580 9f3c a759 88bb f356 abbc 2659 b0bc
000002a0: a054 ffbb d5e0 073c 9321 d3bc f241 94bc
000002b0: bdb6 1cbc c955 1d3d bb5a cabb 8ae5 8e3b
000002c0: fe20 24bd b17d 9b3c 6020 02bd 0218 ba3c
000002d0: 863b b43c 4738 15bd 971e 07bc 5f9b 8abc
000002e0: eb16 87bb b834 ec3b 78f5 7d3c 4f8f 0abd
000002f0: 95b7 25bd 5255 7fbc 914c d1bc 7963 483c
00000300: 82e1 9fbc c0b5 143d 62d2 0dbd ed4e 0a3b
00000310: 921b 653b 9559 603c 3a47 25bd 759d bdbc
00000320: ee61 153d 69c0 123d 51d1 1dbd 7477 b8bc
00000330: 63d2 193d b0cd 233d 0751 85bc 6de1 22bc
00000340: 2aaa beb9 27ac 1b3d 3b8e 15bd 3209 26bd
00000350: 1c02 023d 49f9 b03c d62d 163d 970c e63c
00000360: bf2e d73c 4719 ebbb c37d 5b3c c7e8 b93c
00000370: 0b5b 9b3c 5bbf 673c 6340 6cbc 2bdf 1a3d
00000380: 6779 9a3c 8bc8 f6bc d8fb 0d3d 5ff2 003d
00000390: b51e d1bc 6b62 c03c 9f98 683a 228d 01bd
000003a0: beaf af3c f1b2 13bc ff3a 23bd 6d38 283d
000003b0: 18b2 dbbc c144 bd3c 7a9d eebc 97e0 f8bc
000003c0: 7c37 d03c 52c1 91bb 970e 7f3c e838 00bd
000003d0: c5d0 283c 74db 0a3b b280 003d 2f05 9f3b
000003e0: 2002 713b 1842 463d 536f b9bc a05e 713c
000003f0: b153 c53c 79f4 30bd 6ab8 cdba c864 f63c
-0.017927354 -0.008853532 0.030118383 0.0024113324 0.025485862 -0.035079706 -0.0024860264 -0.028547386
0.040306088 0.021413228 0.015020037 -0.0154588595 -0.03864538 -0.03793259 -0.024545906 0.00947671
0.009831109 0.027631778 0.024747787 0.040776912 0.027378483 -0.0042566736 -0.037528127 0.036021702
0.03702922 0.0045798207 -0.001248502 0.015170026 0.0028408132 0.0047896197 0.015124799 0.01591203
0.008621366 -0.007478241 -0.016385881 0.0009805739 -0.015347649 -0.032514848 -0.03422149 0.0025285254
0.009112449 0.00011206585 0.0048345537 0.023649497 0.013725979 0.013842056 -0.010992432 0.036263168
0.023583787 -0.012286995 0.0011796356 0.02854534 -0.014144624 0.039227713 -0.032065123 -0.03185178
-0.0038394574 3.645188e-05 -0.002065721 -0.010714506 -0.012762475 -0.018727934 0.024723947 0.019368505
0.009457287 0.034938008 0.0149324285 -0.028287103 -0.031719003 -0.017460141 0.020749226 0.022735246
-0.036413178 -0.000104301216 -0.019661942 -0.013302341 -0.040792752 -0.021563355 0.023783643 -0.021788817
0.019617446 -0.016308501 0.0039359615 0.042128284 -0.03125932 0.0050706794 -0.0060523096 -0.01285062
0.016881336 -0.03576949 0.016061742 0.008710363 -0.0200329 -0.03195653 -0.0033791042 -0.02342637
-0.027500987 0.032052506 -0.013873573 0.0025862588 -0.0016249917 0.0038895146 -0.01347247 -0.007911599
-0.012458649 -0.0067647207 -0.006707428 0.0024256245 -0.008877358 0.04288091 0.029041843 -0.026886594
-0.02058675 -0.0015396489 0.02230909 -0.00870456 0.025590513 0.024213476 -0.040416986 0.024665805
-0.03562138 -0.0063128495 0.008594658 0.03329163 -0.0031625957 0.012736169 -0.0025732482 0.029966366
0.027615894 0.02107484 0.013158767 -0.012823047 0.024733169 0.020488232 0.012528043 -0.023946911
-0.026839523 0.027651103 0.009021276 0.020812152 0.00959706 0.032213237 0.035105802 0.044864636
-0.033269513 0.0014173825 0.012175622 -0.025707653 -0.003964059 0.03618021 -0.030365648 0.03160778
-0.0026057835 0.014843056 0.007083411 0.0091659445 -0.009653831 -0.013664606 0.02936002 -0.040188983
0.034786947 -0.0286086 -0.011369257 -0.011205666 0.019470671 -0.004161078 -0.020915484 -0.021526884
-0.0077920705 0.00829335 -0.025772845 -0.018097851 -0.009565053 0.03841189 -0.0061753667 0.0043608593
-0.040070526 0.018980833 -0.031769156 0.022716526 0.02200104 -0.036430623 -0.008247039 -0.01691979
-0.004122605 0.007208433 0.015500419 -0.033828076 -0.04045828 -0.015584307 -0.025549205 0.012230747
-0.01951671 0.036306143 -0.034624465 0.0021104172 0.003495906 0.013693233 -0.04035113 -0.02314637
0.036470346 0.035828028 -0.038529698 -0.022517897 0.037554156 0.03999108 -0.016273988 -0.009941441
-0.00036366406 0.038005974 -0.036512595 -0.040536113 0.031740293 0.021603243 0.036664806 0.028082175
0.026267407 -0.007174644 0.013396683 0.022694005 0.018964311 0.014144744 -0.014419648 0.037810486
0.018856717 -0.030124923 0.034664005 0.031481143 -0.025527338 0.02348443 0.000887284 -0.031628735
0.021446105 -0.009014831 -0.039851185 0.041069437 -0.02681832 0.023104073 -0.029127825 -0.03038053
0.025417082 -0.0044480944 0.015567443 -0.03130427 0.010303681 0.0021187933 0.031372733 0.004852913
0.0036774948 0.048402876 -0.022636091 0.014732033 0.024087759 -0.043201897 -0.0015695218 0.030077353

weight f4 [64, 256]
00000000: f0cb 733c 5a58 39bd bba1 953d 4d0b 743a
00000010: 14e9 543c 8591 2bbd 9b7e 0bbd d0d6 dc3c
00000020: 9b70 603d d7e0 323d 94ac 16bb 3f6e 0e3d
00000030: e75e 44bd ba8c 71bd c77a 333d b9c0 7d3d
00000040: dc97 2ebd 8039 c73b bf55 323d 3f74 1ebd
00000050: 628b 613d e60b 26bc 3193 df3c 8177 81bd
00000060: 660c 143d 0c20 893c b593 6cbd 9aeb db3c
00000070: d770 333c 2ef9 2a3d 94f8 f9bc 6a09 213d
00000080: 299b 833d a88a 1d3d 4031 383b f75b a13b
00000090: da37 31bc 8205 7bbd 7845 b03c 0425 4d3d
000000a0: 8008 d4bb 2915 7e3d fc2b 4f3c edda 5cbd
000000b0: 4623 71bd 422f febc 62f4 dcbc 8bdc 66bd
000000c0: 1051 653d 7124 93bc 18c6 673c 3a2f 74bd
000000d0: c8be 5f3d 95c3 f73c 8cbc c6bc db1f 553c
000000e0: 6039 223d 562d dbbb 214f 96bc 02dc 753d
000000f0: 0219 c7bb c24c 423d 9ed1 e33b 97a1 31bd
00000100: 4684 ea3c a654 bfbb d08a 0dbd fb13 f73c
00000110: 8287 bcbc 5cab dbbc e1fb a83d 716d 483c
00000120: dd0a f93c cbf7 b8bc 153f 7fbb ad1d 4a3d
00000130: e84f 70bc abee 7eba 5fc5 ac3d f868 d5bc
00000140: 699a cd3c 7ca9 b03d d544 b83c be5e d3bb
00000150: eae1 aa3d 508c f83b 0365 483d f56c 8dbd
00000160: 7e63 e138 73c8 443d 1ceb 843d f808 483d
00000170: f780 753c 0990 edbc 7923 123c d4ff 733d
00000180: dacc 743d fcaf 413c 2457 78bd 4e8f ac3c
00000190: 2231 3abc 0c12 583c 426b 52bd 3b57 83bc
000001a0: 5abd 8cbc 22f2 293d 9332 123d f328 ef3c
000001b0: 325c 963c fc09 053d 3534 a4bc 5b82 c83c
000001c0: bc57 403d 759d f43c c34e 98bc aa11 a93c
000001d0: 12ab fd3c 0bfe 18bd bf89 32bb 4f5b 3abc
000001e0: 67b2 323d 95ce 193d 6e65 ae3c eb2e f73b
000001f0: ff1f 2f3d c650 1b3c 4df2 6ebd 5daa d1bc
00000200: 5c9f 0b3d 4c20 89ba 17e6 043d 3d80 f7bb
00000210: ff9d f43c d461 57bd 3bd0 703d e789 103d
00000220: 18c3 8fbb f4cb 553d 7bcd 063d 5ed8 60bc
00000230: a350 1a3d effb 723c c01f 6ebd a8ee d738
00000240: b9de d33c f47b 0dbd a056 e2bc 9c3e b4bc
00000250: abae 5b3d 5b1b 0e3d 3a3c 8b3d 4ccf 1cbd
00000260: d99e 81bb 872c a43b e516 09bd ea91 ae3c
00000270: b565 a33c ffbc 183d abfe 15bc 31d5 f7bc
00000280: e8c0 963c a6cb cd3c f23d 0abd 2236 c4bc
00000290: c749 953d 9de9 0fb9 7181 9dbc 0bfe 8a3d
000002a0: 52e3 95bc 7c4a 183c b87b 0abd f4eb 33bd
000002b0: 7900 413d f2bd e13c cc9b cc3d 0962 8fbb
000002c0: 87a4 2b3d 909f 133d b1f2 f3bb e701 a2ba
000002d0: cfa6 cd3b b257 763d a448 3b3d 5b49 523c
000002e0: 5549 fe3c a1df 8a3d 6c9e b53c 06a3 bb3d
000002f0: 3d1c 5dbd e428 6fbd 26ce 35bd 239a 52bc
00000300: d3f9 933a acf5 6f3d 8e10 7cbc ca8c f7bb
00000310: b886 d2bc a147 143d 1006 9f3d 186e 613d
00000320: 5c50 bbbc ed7e 77bb d865 733d 6a1b 883d
00000330: b2de edbc 926b a8bb d6ec 5abc fe78 013d
00000340: ceb1 32bd bbd0 1cbd 78c0 cc3c b7c1 12bd
00000350: c31c cb3c c4a2 d9bc da95 523d a514 573d
00000360: 834e 843d 16d4 acbb db90 1f3d fca7 943d
00000370: 4e7c 87bb a2ab 3a3d 20be 7a3c dc34 05bd
00000380: 8023 7aba e103 773d 1741 35bd dec9 2a3d
00000390: 608a 533d 5def fabc 7a97 913d 1618 33bd
000003a0: 9661 94bb 5ce9 bb3c b95c 863d b79f a5bc
000003b0: 9323 2abd a241 88bc 4fd2 b5bc 9439 a83d
000003c0: 53b1 ecbc d617 943c 9666 a23d 6aaa c73c
000003d0: a947 7c3d 82cf fd3b 9145 f4bc e191 683d
000003e0: c3b1 44bd f3c5 40bc 145d d43c 66d0 d73c
000003f0: 6d4b 42bd 06ae 843d 3dcf 19bd 0a4e 193d
0.014880165 -0.045250274 0.07306238 0.0009309545 0.012995023 -0.041886825 -0.034056287 0.0269579
0.05479489 0.043671455 -0.0022991048 0.034773108 -0.04794207 -0.058972098 0.04381826 0.061951373
-0.042625293 0.0060798526 0.043538805 -0.03868508 0.055064566 -0.010134673 0.027291866 -0.06321622
0.036144637 0.016738914 -0.057758052 0.026845742 0.010952196 0.041741543 -0.03051404 0.03931562
0.06426079 0.03846231 0.0028105527 0.004924293 -0.010816539 -0.06128455 0.0215175 0.05008413
-0.00647074 0.0620319 0.012644764 -0.05391972 -0.05887153 -0.031028394 -0.026972 -0.05636267
0.05598551 -0.017961713 0.01414635 -0.05961535 0.054625303 0.030244628 -0.024259828 0.013008083
0.0396055 -0.006688754 -0.018348278 0.06002427 -0.006075979 0.047436483 0.0069524786 -0.043366995
0.028627526 -0.0058389483 -0.03455621 0.030160895 -0.023013834 -0.026815109 0.08251167 0.012233124
0.030400688 -0.022579094 -0.0038947512 0.049344707 -0.014667489 -0.00097248954 0.08436083 -0.02605103
0.025098043 0.086260766 0.02249376 -0.006450503 0.08343871 0.007585086 0.048924457 -0.069055475
0.00010747368 0.048042726 0.06490156 0.04883668 0.014984361 -0.028999345 0.00891959 0.05957015
0.059765674 0.011821743 -0.06062998 0.021064427 -0.011364253 0.013187896 -0.05137182 -0.016032806
-0.017180134 0.04149068 0.035692763 0.02919433 0.018354509 0.032480225 -0.020044426 0.02447622
0.04695867 0.029860238 -0.018592244 0.020638306 0.030965362 -0.03735165 -0.0027242748 -0.011374309
0.04362717 0.037550528 0.0212886 0.007543435 0.042755123 0.009479707 -0.058336545 -0.02559393
0.034087524 -0.0010461896 0.032445993 -0.007553129 0.029860495 -0.05258353 0.058792334 0.035287764
-0.0043872707 0.052196458 0.032910805 -0.013723461 0.037674557 0.014830573 -0.058135748 0.00010296452
0.025863038 -0.03454204 -0.027629197 -0.02200251 0.053633373 0.034694057 0.06798597 -0.03828363
-0.0039557037 0.005010191 -0.0334691 0.021309812 0.019945959 0.037289616 -0.009154956 -0.030253025
0.018402532 0.025121521 -0.033750482 -0.023951594 0.072894625 -0.0001372457 -0.019226762 0.06786736
-0.018296871 0.009295102 -0.033809394 -0.043926194 0.04711959 0.027556393 0.099906534 -0.0043757004
0.041904952 0.036040843 -0.0074447026 -0.0012360186 0.0062759886 0.060142227 0.045723572 0.012834872
0.031040827 0.06780935 0.022170268 0.09161954 -0.05398201 -0.058388606 -0.04438605 -0.012854132
0.0011289663 0.0585839 -0.015384806 -0.007554625 -0.025699005 0.036201123 0.07764828 0.055036634
-0.022865467 -0.0037764863 0.059423298 0.06645854 -0.029036853 -0.0051397765 -0.01336213 0.031609528
-0.0436266 -0.038285 0.02499412 -0.035829272 0.024793988 -0.02656687 0.05141244 0.052509923
0.064602874 -0.005274306 0.038956504 0.07258603 -0.0041346913 0.045573838 0.015304118 -0.032521114
-0.0009542033 0.060306434 -0.044251528 0.04169642 0.051645637 -0.030631715 0.0710897 -0.043724142
-0.0045282347 0.022938423 0.06560654 -0.02021776 -0.041537832 -0.016632859 -0.02219501 0.08214107
-0.028893149 0.018077772 0.07929723 0.024373252 0.061591778 0.007745684 -0.029818328 0.056779746
-0.04802109 -0.011765945 0.02592329 0.02634449 -0.047435213 0.06478505 -0.037551153 0.03742794

bias f4 [64]
00000000: d968 3cbd 9831 6bbd 3c9b 293c ed2d 66bd
00000010: 3b2b 94bc 63ab 863d 2022 b93c 36eb 183d
00000020: 203f 49bb 556d 6c3d 63ae 3e3d 001d c0ba
00000030: f019 733d 5ca3 f13c 0275 82bd 4e46 0c3d
00000040: f614 38bc cec1 14bc 6a09 dc3c ba88 cbbc
00000050: 9f5e b5bb 0592 873d 83ac 233d 6382 1f3a
00000060: 6a99 24bd 537b 413b e4ce 5fbd 9b9d ae38
00000070: 426d ed3c 0655 b5bc 7155 d6bc cc69 87bc
00000080: aed2 3ebd 5655 253d 951e 563d caf1 713d
00000090: 28f8 623d 2290 343d 8dd8 09bb 059e 2abd
000000a0: f28e f83c db25 073d 4028 2cbd e01b c43c
000000b0: f840 42bd ec86 fabc cd64 a4bb 2a1e e1bc
000000c0: b027 293d cad6 b8bc 2e8b 823d c7b5 ed3c
000000d0: f6bb 153d 6895 26bd e6f8 793c 85b9 2cbd
000000e0: 1340 653d b16c bdbb 88e9 be3c 00a3 813c
000000f0: 4f1a 163a 9a69 263d 3cbc dabc 25d9 b13c
-0.045998428 -0.057420343 0.010351952 -0.056196142 -0.01808702 0.06575658 0.02259928 0.03733369
-0.0030707791 0.057721455 0.046553027 -0.001465708 0.059350908 0.029496841 -0.06369974 0.034246735
-0.011235466 -0.00907941 0.026859958 -0.02484547 -0.0055349614 0.06619648 0.039959442 0.0006084798
-0.04018537 0.002952297 -0.054640666 8.326323e-05 0.028982762 -0.022135269 -0.026163789 -0.01652994
-0.04658764 0.040364586 0.05227526 0.05906848 0.05541244 0.04408277 -0.0021033615 -0.041654605
0.0303416 0.032995086 -0.042030573 0.023939073 -0.04742524 -0.030581914 -0.005016899 -0.027480204
0.041297615 -0.022563357 0.06374203 0.029017342 0.036556207 -0.04066983 0.015257096 -0.042169113
0.05596931 -0.0057807793 0.023304716 0.015824795 0.0005725966 0.040628053 -0.026701085 0.021709988

weight f4 [16, 64]
00000000: 40ed 023e 1034 123d 9a73 1fbc ce73 093b
00000010: 1999 5e3d 7aef 043e 354e d93c e280 553d
00000020: 40ea a13b 7084 cebd f96a a9bd d409 6c3d
00000030: 4192 ce3d c085 e6ba 38f6 8a3c 83f2 40bd
00000040: 94dc b1bb 4935 fabd 3499 bcbd 1230 abbc
00000050: 03b0 46bc fe66 b3bc 7826 5f3d 706b c9bc
00000060: 9e0b 7a3d a87f 59bd 9e17 563d 524e 92bd
00000070: efaf c6bd cc54 5d3d f220 bc3d ef7b 813d
00000080: d6b9 d93d 2a87 603c 18e1 5a3d e30e 523d
00000090: 0423 9c3d 9fcc acbd 11b2 ef3c 8e68 133e
000000a0: 6d14 b23b 6c12 57bc c516 9ebc 8bbf e73d
000000b0: 4783 a7bd 2856 933c 3237 1f3e 2fa5 943d
000000c0: 4ca2 61bd 9b4e e5bd dd19 90bd 47aa 303c
000000d0: e809 13bd 1022 3b3c 4b56 06bd 96c8 723d
000000e0: 6c0d 8cbd 74fd c4bc ab34 a8b9 e260 1bbd
000000f0: b8fc a13d 599c 3b3c 482f 31bd 292a 713d
00000100: 18b5 a9bc 4483 8fbd 1624 a2bd 37db 6e3d
00000110: d062 de3b 07fd bc3d ef64 e03b 4071 c83d
00000120: 5886 a2bc 1c29 33bd 353d f0bd bcc0 8dbd
00000130: fc09 cd3c 733c 833d 25eb adbd 8e43 843d
00000140: 2348 b43d 23dd cabc 6112 2e3c 0e5f b03d
00000150: 6ffd d03d 4349 f2bd 269f 9bbc 9256 91bd
00000160: 46cd 38bd 911a 2abd 01a8 a03d c6d9 95bd
00000170: 2b3b dd3d 4001 d2bc a84a 64bd ee53 c43c
00000180: bae3 e13d aee7 8f3d caf3 3fbd a324 5c3d
00000190: dca7 033e 1456 a43d 6531 2abb f975 81bd
000001a0: 9024 dbbd 5ead 393d d620 b03a 8f9b e53d
000001b0: e102 90bd fe63 dfbd 8f91 06bc 412c 56bd
000001c0: ff82 d8bd 8867 8e3d ea32 d83c 1ca7 923c
000001d0: 5320 ccbc 6818 d53c de68 00bc 6d40 a6bd
000001e0: c2aa a8bd d88e f73c fef8 ab3d 911c 683d
000001f0: 76f2 dd3d 31ef 3ebd 4bf8 afbd f22a b63d
00000200: 723b 973d 324e 9a3d 8dab 30bd 836f 0abc
00000210: 7a6e 473d d5de ab3d a2fc 7f3d b7a5 563d
00000220: 30df 79bc f477 913d 7f4f fa3c 20bf 633d
00000230: 5a20 ea3c f2de 87bd 3fb2 e0bd ebe1 9b3d
00000240: 9350 043e 6dee 8dbc 40f2 0b3e da7b ad3d
00000250: cc7c 6d3d 3900 dd3c d360 8fbd c1a9 8ebd
00000260: e0b7 02bd 3741 65bd de64 89bd 435b 133e
00000270: 90c3 683d 8c58 fd3d d6b0 ddbd 5e1b 09bd
00000280: 383f 7ebd 07b8 c5bb d470 2cbd 2abb b83d
00000290: bf66 ca3d 2e96 2c3c 610a ebbd d1b9 ba3a
000002a0: 6efa f1bd 9fc3 1f3d 94eb bfbd 864d c83c
000002b0: 4d17 4cbd c671 9ebd 289b 893d 67ed 073e
000002c0: 9338 afbd 3871 ec3d e041 d5bd 4ff3 febd
000002d0: f2bf bf3b e090 51bc 5c95 28bd 1dd0 41bd
000002e0: 672f a53d ccf7 4cbd b5d2 37bd 6719 4bbd
000002f0: e1cc 87bd 88b4 c3bd 94df ae3d fe51 03bd
00000300: dd87 c8bc ae90 f5bd 1892 6abb 1d7b be3d
00000310: f8f1 c0bd e290 633b 09c5 0fbc e455 25bb
00000320: 78ba 9ebc 5385 7cbd 1528 5c3c 389a a1bd
00000330: c7f0 7a3c bc59 a6bd c463 bebd b8ed 9fbd
00000340: 4ec5 b5bd eeba f5bd 905f f03d f39b a0bc
00000350: e815 ed3d db19 be3d 5d99 e53c ef4e adbd
00000360: 6ed0 cb3d 1058 5cbd 92f6 eebc 691e 773b
00000370: 2f21 ff3d 7c44 6a3d c67a b33d 2c0f d5bd
00000380: 80b8 5bbc ea55 073d 394b c2bd e94a d03c
00000390: 1f8b 7bbc 2528 93bd 2392 6d3d ba55 853d
000003a0: 0b90 82bd bbcc 04be 0e52 a6ba 2f6c e43d
000003b0: 4ac1 8a3d 5039 0bbd d649 b2bc 737d de3b
000003c0: 08e8 033e 9d4f b2bd c67f fa3d 44db 68bd
000003d0: 11bc 0a3e 303a 833d 0dcf dc3d 708d 21bd
000003e0: 71fb b6bc 2397 3ebc 1872 1b3d f88c f63d
000003f0: 59a6 3b3d 8c76 003e ffb5 2f3d 38d3 bb3d
0.12785816 0.035694182 -0.009732151 0.0020973566 0.054345224 0.12981978 0.02652655 0.052124865
0.004941255 -0.10083854 -0.082723565 0.05762656 0.100864895 -0.0017587468 0.01696311 -0.047106277
-0.0054279063 -0.122171946 -0.09208909 -0.020896945 -0.012126925 -0.021899696 0.054480046 -0.024587363
0.061046235 -0.053100258 0.052268617 -0.07143845 -0.097015254 0.054035947 0.09185971 0.063224666
0.106311485 0.013704101 0.053437322 0.05128373 0.07623866 -0.08437466 0.029259713 0.14395353
0.005434564 -0.013126951 -0.019297967 0.11315831 -0.08179336 0.017985418 0.15548399 0.07258069
-0.05508642 -0.111966334 -0.07036183 0.010782785 -0.03589812 0.011421695 -0.03279714 0.059273325
-0.068384975 -0.024046637 -0.00032082698 -0.03793419 0.079095304 0.01145085 -0.04325798 0.058878098
-0.020716235 -0.07007459 -0.07917039 0.05831453 0.0067866817 0.09227949 0.0068479697 0.09787226
-0.01983945 -0.043740377 -0.11730424 -0.06921527 0.025029175 0.06408014 -0.08492116 0.064581975
0.088028215 -0.02476365 0.010624499 0.0861188 0.102045886 -0.1183038 -0.018996786 -0.0709659
-0.04511764 -0.041529242 0.07844544 -0.073169276 0.10802301 -0.025635362 -0.05573526 0.023965802
0.110297635 0.07026611 -0.046863355 0.053745877 0.12857002 0.080242306 -0.0025969383 -0.063213296
-0.10700333 0.04533135 0.001343752 0.11211311 -0.07031799 -0.10907744 -0.008213415 -0.052288298
-0.105718605 0.06953341 0.026391465 0.01790195 -0.024917757 0.026012614 -0.007837502 -0.08117757
-0.082356945 0.03021948 0.08397101 0.056667868 0.108372614 -0.04661483 -0.0859228 0.0889491
0.07384385 0.07534446 -0.043132354 -0.008449438 0.048689343 0.08392111 0.06249679 0.05240413
-0.015250966 0.07102957 0.030555485 0.055602193 0.02857988 -0.0663432 -0.10971498 0.0761145
0.12921362 -0.017325604 0.1366663 0.084708884 0.057980344 0.026977645 -0.0700089 -0.06965972
-0.031913638 -0.055970397 -0.06708692 0.14390282 0.056827128 0.123704046 -0.108247444 -0.033473365
-0.06207201 -0.0060339007 -0.04209979 0.09020074 0.098828785 0.0105338525 -0.11476589 0.0014246051
-0.11815344 0.03900492 -0.09371105 0.024451029 -0.04982691 -0.07736544 0.06719047 0.13274156
-0.085557126 0.11545032 -0.10412955 -0.12448751 0.005851739 -0.012790889 -0.041158065 -0.047317613
0.08065682 -0.050041005 -0.04487868 -0.049584772 -0.066308744 -0.09555918 0.08538738 -0.032060616
-0.024478847 -0.11990486 -0.0035792645 0.09300826 -0.09421152 0.0034723808 -0.008775004 -0.0025228197
-0.019376025 -0.061650585 0.013437291 -0.07890743 0.015316195 -0.08122584 -0.092963725 -0.07809013
-0.088755235 -0.11998545 0.11736977 -0.019605612 0.11576444 0.09282275 0.02802723 -0.08462321
0.09951864 -0.05379492 -0.029170308 0.0037707335 0.12457501 0.057194218 0.087636515 -0.104032844
-0.013410687 0.03304092 -0.09487004 0.025426345 -0.015352993 -0.07185391 0.058000695 0.06510492
-0.0637513 -0.12968723 -0.0012689249 0.11153447 0.06775148 -0.033990204 -0.021763723 0.006789857
0.12881482 -0.08706591 0.12231402 -0.056849733 0.13548304 0.06407583 0.10781679 -0.039441526
-0.022336693 -0.0116327135 0.037950605 0.120386064 0.04581294 0.12545222 0.042898174 0.09171146

bias f4 [16]
00000000: 6b59 963d eb84 8bbd 18c7 d23b 7fba d9bb
00000010: cba9 8dbc 5931 cd3c 61a7 87bb b0a9 bbbd
00000020: d2af 8fbd 805d fb3c d73e de3d c89a 8f3d
00000030: e46f 703d 2240 d63d a9fb 72bc 3550 f33d
0.07341274 -0.068124615 0.006432425 -0.0066445465 -0.017292878 0.025047945 -0.004139826 -0.09163225
-0.07015957 0.030684233 0.108518295 0.07011944 0.058700457 0.10461451 -0.014830508 0.11880533

weight f4 [2, 16]
00000000: d276 02bd c950 d0bd 33a5 513e b318 083e
00000010: 373a 153e d56e 7d3e 8f47 dc3d acc1 9e3d
00000020: 6dee a2bd 3e73 b3bd 1ec4 413e e402 81bb
00000030: 396b 01be bd21 893e 6456 84be a650 d0bb
00000040: db16 09be 9531 3dbe 1c77 09bd 4647 0abe
00000050: 08ac 28be 1e48 163e 2694 8ebd 296a 643e
00000060: 22b5 433e 4868 32be 3dd3 babd 66b8 8f3e
00000070: 92b6 29be 5bd4 d4bd 8794 99bd 2c19 c7bd
-0.031851597 -0.101716585 0.20473175 0.13290672 0.14572988 0.2474931 0.10755836 0.07751784
-0.07955632 -0.08762215 0.18922469 -0.003937112 -0.12638558 0.26783553 -0.2584716 -0.0063572703
-0.13387625 -0.18475945 -0.033560857 -0.13503751 -0.16471875 0.14675948 -0.06961851 0.22306122
0.19112065 -0.17422593 -0.09122322 0.28070372 -0.16573551 -0.10392066 -0.074990325 -0.09721598

bias f4 [2]
00000000: cfe3 f1bd d96a 453e
-0.11811029 0.1927904
