model1.pt (torch_old, 763093 bytes, 14 tensors)

weight f4 [6, 3, 5, 5]
-0.07773254 0.0124851875 -0.062959746 0.024204874 -0.041129142 0.08601122 0.058126353 -0.09987383
-0.09621424 -0.002202785 -0.053767107 0.02437637 0.12756693 0.06667945 -0.0058156135 -0.025150577
-0.080423616 0.01069004 -0.030834172 -0.02884506 -0.07589659 0.018384207 -0.011045219 0.10592247
-0.027959496 -0.029371668 0.0015161408 0.045541726 -0.08317257 -0.006723606 -0.0672839 0.031388972
-0.08488391 0.017149406 -0.06161938 0.013235469 -0.10019675 0.034932934 -0.09115535 -0.014509857
-0.010064462 0.034530874 -0.04348174 0.11545406 0.087615415 0.027857635 0.11576997 -0.015004077
0.006849005 -0.031343546 0.081879005 -0.009354544 -0.026736863 -0.051584624 -0.09776279 -0.10522872
0.09278436 0.119888425 -0.050010685 -0.0043140273 -0.06435388 0.11070336 0.016932542 0.10615255
0.034768026 0.06742526 0.13240637 0.008727793 0.11548901 -0.0024716863 -0.041726585 -0.08659004
-0.023919856 -0.005639669 -0.04534188 0.070836335 -0.06641191 -0.033334974 0.0348367 0.09077563
-0.09525353 -0.0186114 0.09405985 0.09003121 -0.075964324 0.011529387 -0.046271384 -0.04342242
-0.026600963 0.013766026 -0.07078407 0.006297963 0.09942894 -0.078451306 -0.05469823 0.043171067
0.123858415 0.12398593 0.0015315828 0.009948826 -0.018319301 0.083933614 0.048920933 0.059879012
0.1088243 -0.084646314 0.0541438 -0.08649061 0.10051956 0.12067233 0.021995619 0.028820764
0.013749375 -0.042790253 0.004581934 0.08415041 -0.045244496 0.0730646 0.1378604 0.083993144
-0.0969348 0.011796004 0.05391571 0.12841861 0.09400705 0.11580697 0.061852023 -0.05012819
-0.05529572 0.03311422 0.021137608 -0.05307272 -0.04707318 -0.09203511 0.1019641 0.05024763
0.097151585 -0.04241879 0.044184152 0.00013158696 -0.042436846 -0.052513912 0.085558824 0.050558083
0.0551587 0.042848025 -0.026730828 0.0366799 -0.026045345 0.13072103 0.043278832 0.11198619
-0.09950764 0.061038952 -0.09393235 -0.06993973 -0.07620409 0.088458 0.12262154 -0.015284955
0.10541291 0.045110915 -0.045184582 0.13770476 -0.020674422 0.14229399 -0.075027496 0.0073103127
0.08722423 0.07248574 0.043695156 -0.014319377 0.10616476 -0.049296692 0.1225823 0.11357293
0.029746084 0.03294151 -0.025750628 -0.086935915 -0.036631566 -0.018338177 -0.05602941 0.075184524
0.041635107 0.01916397 -0.06596614 0.033819795 -0.08482878 -0.037322544 -0.008497172 -0.06210371
0.108053714 -0.08843325 0.111685336 -0.04456008 -0.07032748 0.06558222 0.13858548 0.08369744
0.0546688 -0.08749315 0.07957107 -0.081905134 0.032737434 -0.009663091 0.06370297 0.015569569
-0.05522984 -0.025733784 -0.02899445 -0.0029113858 0.0680398 0.10953969 0.09585125 0.13677478
0.037312023 0.063751966 0.08279138 -0.07326311 0.044296995 0.07888098 0.058932856 -0.066444635
0.112746045 -0.11964213 -0.107092336 -0.058617733 -0.04577848 -0.03381667 -0.107487805 0.12028078
-0.09786046 0.100571096 0.06908709 -0.08739748 -0.10401855 -0.013826814 0.03667211 0.00858476
0.091852866 0.088038735 0.12839286 -0.031165196 0.129413 0.028853804 -0.07789097 0.1134336
0.016340962 0.049678054 0.007580541 -0.08301397 -0.04887408 -0.0996343 -0.025727702 -0.0010319307
00000000: 3d32 9fbd ac8e 4c3c 0af1 80bd 4d49 c63c
00000010: 0877 28bd a726 b03d e615 6e3d a78a ccbd
00000020: f90b c5bd 9a5c 10bb e63a 5cbd f4b0 c73c
00000030: e8a0 023e 3c8f 883d e790 bebb 9508 cebc
00000040: 23b5 a4bd 4725 2f3c f297 fcbc 7a4c ecbc
00000050: ac6f 9bbd 7a9a 963c 02f7 34bc e1ed d83d
00000060: 500b e5bc da9c f0bc 3eb9 c63a f689 3a3d
00000070: 6156 aabd b251 dcbb 24cc 89bd b991 003d
00000080: 9ed7 adbd e97c 8c3c 9a64 7cbd 95d9 583c
00000090: f433 cdbd d615 0f3d a8af babd c0ba 6dbc
000000a0: 6ae5 24bc 3f70 0d3d e919 32bd 2e73 ec3d
000000b0: b66f b33d b235 e43c ce18 ed3d a9d3 75bc
000000c0: 9e6d e03b 1762 00bd 2eb0 a73d cd43 19bc
000000d0: 4407 dbbc 664a 53bd dc37 c8bd 2882 d7bd
000000e0: ba05 be3d 1088 f53d 01d8 4cbd af5c 8dbb
000000f0: f8cb 83bd 71b8 e23d 1db6 8a3c 8266 d93d
00000100: eb68 0e3d 4116 8a3d 8995 073e 04ff 0e3c
00000110: 8185 ec3d 04fc 21bb 7fe9 2abd 1e56 b1bd
00000120: 93f3 c3bc f9cc b8bb 68b8 39bd a412 913d
00000130: f802 88bd 418a 08bd edb0 0e3d 93e8 b93d
00000140: 4814 c3bd ef76 98bc 73a2 c03d 4862 b83d
00000150: 2f93 9bbd c1e5 3c3c 1087 3dbd b5db 31bd
00000160: 43ea d9bc e68a 613c 3df7 90bd 255f ce3b
00000170: 66a1 cb3d 14ab a0bd 400b 60bd 25d4 303d
00000180: 7ba9 fd3d 56ec fd3d 64bf c83a 6700 233c
00000190: 5c12 96bc 63e5 ab3d 5161 483d b243 753d
000001a0: 46df de3d 0c5b adbd e4c5 5d3d fd21 b1bd
000001b0: 33dd cd3d 0e23 f73d 2830 b43c 8619 ec3c
000001c0: 0f45 613c d544 2fbd 0c24 963b 0d57 ac3d
000001d0: 4b52 39bd e5a2 953d 472b 0d3e 9904 ac3d
000001e0: c185 c6bd 0744 413c b8d6 5c3d 2b80 033e
000001f0: c586 c03d 342c ed3d 8c58 7d3d 3853 4dbd
00000200: c47d 62bd c7a2 073d c728 ad3c c862 59bd
00000210: cfcf 40bd e77c bcbd 8ed2 d03d 75d0 4d3d
00000220: 69f7 c63d 53bf 2dbd 71fa 343d 9bfa 0939
00000230: 42d2 2dbd d418 57bd 7739 af3d fe15 4f3d
00000240: 17ee 613d 6981 2f3d 9cfa dabc aa3d 163d
00000250: 0c5d d5bc bcdb 053e 2545 313d 0459 e53d
00000260: a9ca cbbd fb03 7a3d 9b5f c0bd 903c 8fbd
00000270: e410 9cbd 7829 b53d 0121 fb3d bf6d 7abc
00000280: b9e2 d73d 39c6 383d 7813 39bd 7a02 0d3e
00000290: 685d a9bc 84b5 113e 04a8 99bd 598b ef3b
000002a0: 9ea2 b23d 6773 943d b1f9 323d d29b 6abc
000002b0: e96c d93d 54eb 49bd 6e0c fb3d ed98 e83d
000002c0: 0fae f33c aded 063d fbf2 d2bc 750b b2bd
000002d0: fb0a 16bd f239 96bc 187f 65bd 58fa 993d
000002e0: 9389 2a3d c2fd 9c3c 4119 87bd a086 0a3d
000002f0: b6ba adbd 86df 18bd b937 0bbc 7660 7ebd
00000300: 444b dd3d 7e1c b5bd 48bb e43d a184 36bd
00000310: db07 90bd f94f 863d 5ae9 0d3e 9069 ab3d
00000320: 64ec 5f3d 9c2f b3bd 28f6 a23d e1bd a7bd
00000330: b017 063d f151 1ebc b476 823d 8117 7f3c
00000340: af38 62bd a8cf d2bc c585 edbc f3cc 3ebb
00000350: 7358 8b3d 5856 e03d a94d c43d b00e 0c3e
00000360: 7ed4 183d 6490 823d 878e a93d f80a 96bd
00000370: c470 353d 5a8c a13d 9463 713d 2014 88bd
00000380: 66e7 e63d ef06 f5bd 3a53 dbbd 2619 70bd
00000390: 3782 3bbd 5983 0abd 9122 dcbd c555 f63d
000003a0: 116b c8bd 38f8 cd3d 887d 8d3d 73fd b2bd
000003b0: ad07 d5bd dc89 62bc 7f35 163d 18a7 0c3c
000003c0: 5b1d bc3d a74d b43d 6b79 033e 274e ffbc
000003d0: d784 043e d05e ec3c 4d85 9fbd e04f e83d
000003e0: 7bdd 853c 377b 4b3d 3066 f83b 3a03 aabd
000003f0: 3030 48bd 110d ccbd e7c2 d2bc d941 87ba

bias f4 [6]
0.06230156 0.018720156 -0.0730301 -0.034785114 0.035464052 -0.040975012
00000000: ec2f 7f3d 035b 993c ce90 95bd d67a 0ebd
00000010: c142 113d 6ad5 27bd

weight f4 [16, 6, 5, 5]
-0.020365385 0.058396168 0.052626085 0.03979657 0.03314373 -0.008037574 0.080252394 -0.024319753
0.071503304 -0.04369699 -0.016575424 -0.052965563 -0.054317158 0.06922684 -0.0627389 0.03485319
-0.031418186 0.010161722 0.033717297 0.014361404 -0.053424016 -0.024732005 -0.06541534 -0.056330785
-0.008322587 0.068962604 -0.0109216105 -0.04048369 0.08535123 -0.04699053 0.01574847 0.0025350824
-0.033410393 0.022919364 -0.0058150245 -0.054121908 -0.024505954 0.012590509 0.0663496 -0.016559737
0.08339963 -0.07330914 0.07079761 0.0072726156 0.035099443 0.011686049 0.047502726 0.049444363
0.034071855 0.02090442 -0.056020312 -0.017549112 0.07473186 -0.027616045 0.0024211863 -0.0140050305
0.065468 0.034825433 0.0138464635 0.05722691 0.08472971 -0.014817894 0.022477988 0.078610964
0.099663354 0.00010488327 -0.06686797 -0.04257583 0.032803226 -0.06456925 -0.07541472 0.021215353
-0.039668944 -0.030902786 -0.06517641 0.00028810365 -0.004215665 0.011180514 0.104722805 0.017529916
0.03328966 0.07673051 0.10045589 -0.020966224 -0.05276716 0.0662262 0.061806213 -0.056080304
0.07046533 0.042564772 -0.02711347 0.07341538 -0.04949293 0.05356524 -0.022305422 0.013835342
0.06842464 0.07473127 -0.0052888663 0.049882952 -0.058332734 0.0076817935 0.0644853 0.015427394
0.011037502 0.08193594 0.033148725 -0.004708312 -0.0300937 0.06105971 -0.0017614575 0.07386471
-0.0052988725 -0.030733 0.07740599 0.06315671 -0.04064067 0.08443029 0.077763684 0.0069311005
0.027488714 -0.026915658 0.08525515 0.047071695 0.06317675 0.090296715 0.054625355 0.013722454
-0.035552755 -0.04416766 0.055641696 -0.05633616 -0.007966026 -0.036590293 -0.00036298283 0.053132337
0.04112572 0.10274417 0.080664314 0.10254727 0.09404864 -0.045485377 0.080563724 0.06857655
0.019959318 0.031953584 0.053312596 -0.013875077 -0.03416695 0.06327562 0.06468988 0.070341356
-0.020945143 0.01868205 0.037356455 -0.06675385 -0.07618216 0.047340784 0.040969044 0.054933228
0.018186267 0.046546794 -0.058331516 -0.09536114 0.010698393 0.056642283 -0.052802514 0.023030676
-0.05710665 -0.020995144 -0.0349507 0.020459889 -0.043039285 0.06862042 0.015285179 0.052939292
-0.034674782 0.10469426 0.09198951 0.04175773 -0.017123418 0.04102781 0.025488824 0.040401757
0.03845865 0.01644789 -0.035591796 -0.034920152 -0.021303745 -0.054900452 -0.013016276 0.0010960556
-0.00057550444 0.027464142 -0.06356335 -0.020444524 0.058676865 0.04957908 0.010073891 -0.06806823
0.088557065 0.05439306 0.10652375 0.029048342 0.112306945 -0.016713355 0.011362803 0.06826796
0.051730856 0.0008721883 -0.05881161 0.00868023 0.030191049 0.055829197 -0.052322786 0.054905213
0.02547364 0.016768709 -0.08236878 -0.0042868443 -0.057733845 -0.035025604 -0.080238 -0.061215445
-0.05208137 0.043842215 0.002531104 0.09036108 0.001784435 0.049435727 0.06980417 0.059057157
-0.062768675 -0.056036476 0.076288715 -0.029648189 0.019795336 -0.0034151687 -0.019944962 -0.06046505
-0.03362256 -0.06661355 -0.09494829 -0.06253051 0.035634294 0.020498842 -0.050291352 -0.09575785
-0.047122847 -0.033602186 -0.049380336 0.07145231 -0.010231268 0.07317442 -0.03315054 0.03688965
00000000: 4fd5 a6bc d230 6f3d 738e 573d ba01 233d
00000010: b8c1 073d 07b0 03bc 5e5b a43d 383a c7bc
00000020: 5370 923d 9dfb 32bd 2fc9 87bc 6bf2 58bd
00000030: ab7b 5ebd cdc6 8d3d 417d 80bd 38c2 0e3d
00000040: 5bb0 00bd 5a7d 263c 261b 0a3d 184c 6b3c
00000050: 24d3 5abd c69a cabc 7af8 85bd 1cbb 66bd
00000060: 765b 08bc 443c 8d3d 8ef0 32bc 3ad2 25bd
00000070: a0cc ae3d 2479 40bd ef02 813c a023 263b
00000080: 56d9 08bd 64c1 bb3c f68b bebb efae 5dbd
00000090: b6c0 c8bc 6c48 4e3c 4de2 873d 49a8 87bc
000000a0: 6dcd aa3d 1a23 96bd 56fe 903d 1f4f ee3b
000000b0: 6fc4 0f3d d876 3f3c 3892 423d 2c86 4a3d
000000c0: ee8e 0b3d bf3f ab3c 8e75 65bd 28c3 8fbc
000000d0: 040d 993d 0b3b e2bc c4ac 1e3b 5b75 65bc
000000e0: 1614 863d 1da5 0e3d 47dc 623c c466 6a3d
000000f0: c586 ad3d c1c6 72bc c223 b83c c9fe a03d
00000100: 4d1c cc3d c7f4 db38 13f2 88bd fe63 2ebd
00000110: ad5c 063d e23c 84bd 0873 9abd d2cb ad3c
00000120: e77b 22bd d727 fdbc 367b 85bd 9e0c 9739
00000130: 9023 8abb 792e 373c e978 d63d e69a 8f3c
00000140: bd5a 083d e324 9d3d d1bb cd3d 5cc1 abbc
00000150: 6122 58bd 9aa1 873d 8328 7d3d 76b4 65bd
00000160: 2050 903d 6658 2e3d 111d debc ce5a 963d
00000170: 19b9 4abd 3a67 5b3d dcb9 b6bc a1ad 623c
00000180: 3822 8c3d b50c 993d 3a4e adbb 1152 4c3d
00000190: 4eee 6ebd 8eb7 fb3b de10 843d 2ec3 7c3c
000001a0: a4d6 343c 08ce a73d f5c6 073d 2f48 9abb
000001b0: 1087 f6bc bf19 7a3d b5e0 e6ba 6246 973d
000001c0: 2aa2 adbb c6c3 fbbc 0887 9e3d 4e58 813d
000001d0: d576 26bd cae9 ac3d 9142 9f3d 491e e33b
000001e0: 0330 e13c 3a7e dcbc 419a ae3d 40ce 403d
000001f0: d062 813d 7ced b83d d6be 5f3d 25d4 603c
00000200: c49f 11bd 26e9 34bd 8ce8 633d bfc0 66bd
00000210: ef83 02bc b4df 15bd bb4e beb9 4ba1 593d
00000220: 7173 283d 896b d23d 5533 a53d 4e04 d23d
00000230: 939c c03d e04e 3abd 98fe a43d dd71 8c3d
00000240: b981 a33c c3e1 023d 4f5e 5a3d 4a54 63bc
00000250: a5f2 0bbd a696 813d 217c 843d 210f 903d
00000260: 2695 abbc 190b 993c 1503 193d 3eb6 88bd
00000270: 6405 9cbd 69e8 413d 28cf 273d aa01 613d
00000280: 5efb 943c daa7 3e3d 07ed 6ebd b44c c3bd
00000290: 5048 2f3c bd01 683d 7347 58bd d4aa bc3c
000002a0: aae8 69bd 02fe abbc 7728 0fbd 7f9b a73c
000002b0: f649 30bd dd88 8c3d b06e 7a3c dfd6 583d
000002c0: 2507 0ebd f269 d63d ff64 bc3d 270a 2b3d
000002d0: 6946 8cbc c70c 283d f0cd d03c 507c 253d
000002e0: d186 1d3d babd 863c b4c8 11bd 6f08 0fbd
000002f0: 3185 aebc 4cdf 60bd 3842 55bc 86a9 8f3a
00000300: 73dd 16ba 7bfc e03c 802d 82bd 467b a7bc
00000310: 2757 703d 6f13 4b3d f60c 253c 5b67 8bbd
00000320: 685d b53d 42cb 5e3d 2029 da3d caf6 ed3c
00000330: 2f01 e63d 72ea 88bc 0d2b 3a3c 12d0 8b3d
00000340: bce3 533d 91a3 643a 71e4 70bd 8637 0e3c
00000350: 3853 f73c 28ad 643d 6b50 56bd 4ae4 603d
00000360: 18ae d03c 885e 893c f7b0 a8bd a878 8cbb
00000370: 537a 6cbd 0277 0fbd d253 a4bd 0cbd 7abd
00000380: 4653 55bd e593 333d e1e0 253b 3b0f b93d
00000390: b4e3 e93a 1e7d 4a3d 7df5 8e3d ebe5 713d
000003a0: dd8c 80bd 8186 65bd 423d 9c3d c2e0 f2bc
000003b0: d429 a23c 06d1 5fbb 9e63 a3bc 33aa 77bd
000003c0: cfb7 09bd af6c 88bd 4074 c2bd ff0f 80bd
000003d0: 44f5 113d 30ed a73c 4efe 4dbd b11c c4bd
000003e0: e303 41bd 72a2 09bd 0943 4abd 9755 923d
000003f0: 0ca1 27bc 78dc 953d dcc8 07bd 9a19 173d

bias f4 [16]
-0.076037034 0.07251102 0.08367447 0.067398295 0.010769284 0.07716868 -0.01651414 0.05251287
0.025654858 -0.0052762353 0.025364542 -0.06916923 -0.046372123 0.043410778 0.07844907 -0.059946667
00000000: 4eb9 9bbd a880 943d 855d ab3d 1e08 8a3d
00000010: a771 303c 9d0a 9e3d a948 87bc bc17 573d
00000020: 232a d23c 45e4 acbb 4dc9 cf3c 99a8 8dbd
00000030: b2f0 3dbd 80cf 313d e8a9 a03d a38a 75bd

weight f4 [8, 16, 5, 5]
0.04357417 -0.009759626 0.0012658747 -0.009953212 -0.021898977 0.011093061 0.029986007 -0.0074359346
-0.023957675 -0.0013960876 -0.028422518 -0.027334854 0.0049326126 -0.04450034 0.035640907 0.04190032
-0.008151537 -0.037360493 -0.0024412493 0.013514397 -0.014233079 0.027612114 0.014076779 -0.036497332
-0.043180868 -0.026587537 0.00372226 0.056056447 0.02787699 -0.01515888 -0.0035724405 0.05570022
-0.02742016 -0.02447301 0.05882603 0.041727502 0.008565779 -0.0027350502 0.007941164 -0.0155579075
-0.04638606 0.046033174 -0.041648403 -0.013832272 0.020712385 0.036245335 -0.003443566 0.013517608
0.04067255 0.02666447 -0.035356347 0.008631989 -0.012850294 -0.01464041 -0.028844206 -0.028432805
0.04311451 0.0025863082 0.012048878 -0.026210329 0.057266522 0.033736654 0.010301467 0.04024046
0.033769306 0.016941292 0.03464979 0.011383045 -0.029664043 -0.03607693 -0.0064913556 0.04944046
0.03607079 0.042588405 0.02350152 -0.019989392 -0.023434106 -0.005308058 0.01856334 0.006582834
-0.0063080247 -0.009250578 -0.018767003 0.0067767496 0.01432691 -0.02494449 0.0077320766 0.003751517
-0.046097122 0.022159515 -0.034159668 -0.0048124217 -0.0192011 -0.023343222 0.04061703 0.039727118
-0.04292314 -0.044651393 0.0129174 -0.004798684 -0.020207908 0.053505503 -0.020308293 -0.04091193
0.013273329 0.045538098 -0.051427595 -0.042637862 0.020507412 0.042076156 -0.04519071 0.027043527
-0.032729305 -0.055144925 -0.016311288 0.0308177 -0.050618235 -0.019838745 -0.017302461 -7.870366e-05
0.049853075 -0.022922056 -0.023784276 -0.030074038 0.032711457 0.017986685 -0.024641367 -0.048265316
-0.0022262873 0.037403088 0.042527292 -0.045630913 0.0019736607 -0.011089862 0.0015370274 0.045505784
0.019106561 -0.006638694 -0.012367828 0.03633653 -0.006711076 0.030795174 0.0039194105 0.0136634605
0.012869703 0.04441593 -0.008627609 0.04331982 -0.03349907 0.062753536 0.03624451 0.026496775
0.033611003 -0.010494602 0.05855836 0.0028255517 -0.008199867 0.029539268 0.049954098 0.004289638
-0.00929386 -0.063372314 0.013022459 -0.0071796183 0.019281378 -0.041139632 -0.06274275 0.00031145685
-0.004095027 -0.013118887 0.014819675 -0.012230596 -0.004140677 -0.060176253 -0.065565206 0.05220649
-0.0009977947 -0.03275317 0.00621166 0.051880408 0.041669674 0.014082426 0.013806259 0.011725618
0.002748582 -0.0008405112 0.009892474 -0.0011794107 0.027410338 -0.038613588 0.01486102 0.036498405
-0.024266152 0.03450461 0.033435605 -0.03213889 0.028857986 0.05044256 0.039043996 -0.005268197
-0.037179407 0.05594561 -0.00350365 -0.030787947 -0.03606279 -0.017022943 -0.04289567 0.011957517
0.037786413 -0.023079688 0.013668037 0.008250611 0.012618195 -0.018028887 -0.0044841673 -0.015078938
-0.0131906215 0.008341753 -0.0013416882 -0.010404668 0.010830128 -0.019284425 -0.03940885 -0.03456287
0.05361071 -0.011857582 -0.025923407 0.014447982 0.025882091 0.02789734 0.008490025 0.04334451
0.00030512313 -0.028346146 0.038804147 -0.05351293 0.030107614 -0.013913189 -0.019915333 0.026489634
-0.0142833665 0.0098050535 -0.036865186 -0.014011294 0.036610715 -0.0042223134 -0.035107683 0.021574207
-0.050588947 -0.03791369 0.061463945 -0.01694924 0.050764974 -0.0019784232 -0.0021185188 0.048313454
00000000: d47a 323d d7e6 1fbc b5eb a53a cc12 23bc
00000010: 7c65 b3bc acbf 353c 37a5 f53c 24a9 f3bb
00000020: e342 c4bc edfc b6ba 57d6 e8bc 58ed dfbc
00000030: c1a1 a13b fd45 36bd 33fc 113d ac9f 2b3d
00000040: 068e 05bc 5107 19bd 5efd 1fbb 7d6b 5d3c
00000050: dc31 69bc cd32 e23c 4aa2 663c 3a7e 15bd
00000060: 6cde 30bd 1bce d9bc 29f1 733b 729b 653d
00000070: 495e e43c f35c 78bc 9b1f 6abb ea25 643d
00000080: 3ea0 e0bc 9f7b c8bc 90f3 703d 75ea 2a3d
00000090: 7b57 0c3c 873e 33bb a81b 023c 98e6 7ebc
000000a0: 4fff 3dbd 488d 3c3d 8497 2abd c1a0 62bc
000000b0: 05ad a93c fd75 143d 73ad 61bb f578 5d3c
000000c0: 4398 263d 726f da3c d1d1 10bd 306d 0d3c
000000d0: 0a8a 52bc 55de 6fbc af4a ecbc eaeb e8bc
000000e0: d798 303d 0d7f 293b a868 453c 0bb7 d6bc
000000f0: 4d90 6a3d 722f 0a3d 7cc7 283c 2ed3 243d
00000100: af51 0a3d 77c8 8a3c f0ec 0d3d f47f 3a3c
00000110: 0202 f3bc 67c5 13bd 70b5 d4bb 1482 4a3d
00000120: f7be 133d 2e71 2e3d 4286 c03c cbc0 a3bc
00000130: e2f8 bfbc 38ef adbb 2512 983c d0b4 d73b
00000140: 8cb3 cebb bc8f 17bc 42bd 99bc 7f0f de3b
00000150: 6abb 6a3c 6358 ccbc 5c5d fd3b 03dc 753b
00000160: 56d0 3cbd df87 b53c 02eb 0bbd 85b1 9dbb
00000170: a04b 9dbc 493a bfbc 0b5e 263d e7b8 223d
00000180: 2dd0 2fbd 61e4 36bd 81a3 533c 473e 9dbb
00000190: 0e8b a5bc 9628 5b3d 945d a6bc 4593 27bd
000001a0: 6078 593c 2886 3a3d bea5 52bd 0aa5 2ebd
000001b0: 29ff a73c 0c58 2c3d e519 39bd 638a dd3c
000001c0: 2a0f 06bd a5df 61bd 409f 85bc 6775 fc3c
000001d0: 1155 4fbd dd84 a2bc e4bd 8dbc b50d a5b8
000001e0: bd32 4c3d 09c7 bbbc 3ed7 c2bc d45d f6bc
000001f0: 73fc 053d d058 933c b1dc c9bc dab1 45bd
00000200: e7e6 11bb fb33 193d 1931 2e3d 7be7 3abd
00000210: 8858 013b 41b2 35bc 1576 c93a 4664 3a3d
00000220: 5d85 9c3c 6789 d9bb 6ea2 4abc 9dd5 143d
00000230: 96e8 dbbb 2946 fc3c 666e 803b b5dc 5f3c
00000240: 72db 523c 7aed 353d d15a 0dbc 2070 313d
00000250: 5236 09bd ed84 803d 2075 143d c40f d93c
00000260: b1ab 093d 8df1 2bbc e4da 6f3d e42c 393b
00000270: bc58 06bc 56fc f13c ab9c 4c3d 1790 8c3b
00000280: 4645 18bc 58c9 81bd 275c 553c 0143 ebbb
00000290: fbf3 9d3c 0882 28bd 457f 80bd 084b a339
000002a0: 942f 86bb 9af0 56bc 39ce 723c d662 48bc
000002b0: 84ae 87bb 607b 76bd 0d47 86bd 79d6 553d
000002c0: 6fc8 82ba 3028 06bd 2e8b cb3b 8d80 543d
000002d0: d2ad 2a3d fab9 663c a633 623c ce1c 403c
000002e0: 8e21 343b c055 5cba 0b14 223c 7596 9aba
000002f0: a58b e03c 4829 1ebd a37b 733c 5a7f 153d
00000300: cfc9 c6bc b554 0d3d c6f3 083d 12a4 03bd
00000310: 9567 ec3c dc9c 4e3d 99ec 1f3d d7a0 acbb
00000320: 6f49 18bd 3927 653d 7e9d 65bb 0137 fcbc
00000330: 93b6 13bd b373 8bbc 5fb3 2fbd 76e9 433c
00000340: edc5 1a3d 9d11 bdbc e7ef 5f3c 922d 073c
00000350: 8cbc 4e3c 51b1 93bc ecef 92bb a60d 77bc
00000360: 7a1d 58bc d9ab 083c 96db afba 5778 2abc
00000370: d970 313c 5ffa 9dbc 2d6b 21bd cc91 0dbd
00000380: e796 5b3d 4e46 42bc 535d d4bc 3bb7 6c3c
00000390: ae06 d43c f688 e43c bf19 0b3c 038a 313d
000003a0: eff8 9f39 2d36 e8bc 19f1 1e3d 6030 5bbd
000003b0: 3ea4 f63c 25f4 63bc 7b25 a3bc ca00 d93c
000003c0: c804 6abc 60a5 203c f3ff 16bd a08f 65bc
000003d0: 1ef5 153d 555b 8abb 13cd 0fbd 64bc b03c
000003e0: 5b36 4fbd 634b 1bbd 9ec1 7b3d 22d9 8abc
000003f0: efee 4f3d 6fa8 01bb d9d6 0abb 54e4 453d

bias f4 [8]
0.041921463 0.0013867853 0.02648677 -0.0082279965 -0.039863613 0.032600485 0.011791486 0.026750462
00000000: d7b5 2b3d cbc4 b53a c8fa d83c b8ce 06bc
00000010: 0748 23bd 1688 053d 1431 413c c923 db3c

weight f4 [256, 648]
0.0098447725 -0.038985748 0.029239472 0.0014017187 -0.027095951 0.017352514 -0.022951335 -0.0029359683
-0.020810822 0.014943119 0.017217278 0.020996422 0.024621252 -0.029099248 0.016891282 0.0019394532
-0.013889391 -0.011356151 0.007028483 -0.035563033 -0.03633807 0.020263188 0.03885879 -0.0020388588
0.006080743 -0.027145583 0.0007389225 0.011309996 0.01734915 0.036111567 0.019553225 0.026256222
-0.008621901 -0.021069964 0.023147166 0.018441692 -0.010273922 -0.013356309 0.032689642 0.007883254
0.03228644 0.027319025 0.008432802 -0.018215695 0.023130331 -0.018265428 -0.02772393 0.028424952
-0.021079887 -0.0184017 -0.0044631846 0.029670764 -0.032673787 0.021887757 -0.021744909 0.025022563
0.038813498 -0.037263636 -0.02507859 0.03702988 0.022070382 -0.038908843 0.029012036 0.025424574
-0.014814261 -0.010324972 0.012687318 0.0031828694 -0.027201947 -0.010878533 -0.007490482 0.011819072
-0.0181711 0.028615277 0.005763758 0.0043863542 -0.027577737 -0.007816371 0.026887018 -0.00403722
-0.038482655 -0.027407683 0.010371327 -0.0012971647 0.02186004 0.0053831115 -0.019562358 0.0022728667
0.028524403 0.008479692 -0.031420022 -0.019156834 0.034572516 -0.025567155 -0.032410912 0.031266395
-0.006849766 0.021354835 0.020711415 0.029154655 0.033987854 0.014240652 0.01411207 0.0038108602
0.03281008 0.014296625 0.011410467 -0.017547598 -0.03181032 -0.037078854 0.031239923 0.037442494
-0.025985267 -0.001560647 -0.014751079 0.018468946 0.02462488 0.016104922 0.0146309845 0.009504814
0.009416755 0.020375174 -0.01185715 -0.0011617765 -0.030340225 0.02052185 0.020626247 -0.023173949
0.029770974 0.011374008 0.037922624 -0.021250727 -0.028873801 0.003936451 0.018054925 0.017180912
-0.022298396 -0.0281327 0.013215497 0.008634474 -0.008041656 -0.024345823 0.020805992 -0.009003958
0.021163024 -0.023792304 -0.011162462 0.0036906675 0.03466427 -0.008432483 -0.0043086894 -0.019765599
-0.025702816 -0.031472247 -0.00634953 -0.03851776 0.0042409003 0.004417438 0.017157238 -0.018808288
-0.015627274 0.010665908 0.013816722 -0.037856314 -0.03383226 0.022616886 -0.020740647 -0.028115915
-0.032307573 0.033450734 0.0017189048 0.0172965 0.01791313 -0.015464166 -0.029749345 -0.03293646
0.013899304 0.01573547 0.016865093 -0.03883394 -0.01490582 -0.01554971 0.013080921 -0.035673402
-0.00625987 -0.02640783 -0.00017262995 -0.038407438 0.01316138 -0.019160029 -0.012450863 -0.010048686
0.021610245 0.013466354 -0.03249316 -0.012598114 0.0008506365 -0.032748833 0.012410998 0.027394865
-0.034818117 0.02265085 -0.02749388 -0.035211682 0.015319325 -0.021605955 -0.027628168 -0.02021665
0.01077969 0.019132417 -0.014149133 0.011225246 -0.030400429 0.020692602 -0.008251993 -0.026064511
-0.03642177 0.01654384 0.0041329525 -0.0111232195 0.025376517 -0.032019626 0.018405396 -0.022582937
-0.019409912 0.015387423 0.03582197 -0.008956065 0.019186445 -0.0068211854 0.030768495 0.0058749095
-0.0071028695 -0.022991106 0.020448424 -0.035344858 0.0075677373 0.01267248 -0.019232854 0.02604333
0.016350064 0.013309836 -0.031400554 -0.018453619 0.03268672 -0.0026648566 -0.0098212045 0.01832211
0.015163738 0.03490686 -0.00016500428 -0.031721093 0.0065245368 -0.027027773 0.03469925 -0.029178347
00000000: f84b 213c 85af 1fbd 9e87 ef3c e0b9 b73a
00000010: 54f8 ddbc dc26 8e3c 7004 bcbc 6069 40bb
00000020: 757b aabc fcd3 743c 400b 8d3c b000 ac3c
00000030: 82b2 c93c 8c61 eebc 965f 8a3c 4035 fe3a
00000040: 5490 63bc 260f 3abc 304f e63b 8baa 11bd
00000050: 3ad7 14bd fcfe a53c 652a 1f3d 609e 05bb
00000060: f840 c73b 6a60 debc 40b4 413a 904d 393c
00000070: ce1f 8e3c b9e9 133d 162e a03c 4a17 d73c
00000080: e042 0dbc eb9a acbc 209f bd3c 0813 973c
00000090: f453 28bc 6cd4 5abc 93e5 053d c428 013c
000000a0: c93e 043d 26cc df3c bc29 0a3c 1539 95bc
000000b0: d27b bd3c 61a1 95bc 4c1d e3bc 72db e83c
000000c0: baaf acbc 29bf 96bc e83f 92bb 1a10 f33c
000000d0: f3d4 05bd f44d b33c 6122 b2bc 1efc cc3c
000000e0: e7fa 1e3d c1a1 18bd 9d71 cdbc a5ac 173d
000000f0: f2cc b43c e15e 1fbd a6aa ed3c 3247 d03c
00000100: 84b7 72bc 122a 29bc 78de 4f3c b097 503b
00000110: 9ed6 debc e03b 32bc b872 f5bb c8a4 413c
00000120: 8fdb 94bc 966a ea3c e8dd bc3b 68bb 8f3b
00000130: b5ea e1bc 3c10 00bc 2a42 dc3c a84a 84bb
00000140: fd9f 1dbd 1486 e0bc 80ec 293c a005 aaba
00000150: d413 b33c d064 b03b 3d41 a0bc 60f4 143b
00000160: 02ac e93c 68ee 0a3c 48b2 00bd cbee 9cbc
00000170: e99b 0d3d 3672 d1bc 4ec1 04bd 3111 003d
00000180: 0074 e0bb 56f0 ae3c fcaa a93c bed5 ee3c
00000190: d936 0b3d a051 693c 5036 673c a0bf 793b
000001a0: dd63 063d 643c 6a3c f8f2 3a3c fbbf 8fbc
000001b0: 8a4b 02bd ffdf 17bd deea ff3c 4d5d 193d
000001c0: 0edf d4bc a08e ccba 82ae 71bc 304c 973c
000001d0: 1eba c93c 78ee 833c ccb6 6f3c 14ba 1b3c
000001e0: bc48 1a3c d6e9 a63c 7e44 42bc c046 98ba
000001f0: 108c f8bc 701d a83c 60f8 a83c 4bd7 bdbc
00000200: 42e2 f33c 0c5a 3a3c c154 1b3d 0116 aebc
00000210: c088 ecbc 58fd 803b ece7 933c fcbe 8c3c
00000220: 20ab b6bc 8c76 e6bc d085 583c 9c77 0d3c
00000230: 26c1 03bc e470 c7bc 5471 aa3c 5685 13bc
00000240: 145e ad3c 14e8 c2bc c2e2 36bc 20df 713b
00000250: 1ffc 0d3d 6628 0abc e82f 8dbb 77eb a1bc
00000260: b68e d2bc 0be9 00bd b80f d0bb ccc4 1dbd
00000270: 40f7 8a3b 28c0 903b 568d 8c3c d713 9abc
00000280: c504 80bc 10c0 2e3c 885f 623c 390f 1bbd
00000290: b293 0abd 0c47 b93c 4ae8 a9bc 5953 e6bc
000002a0: f254 04bd a303 093d e04c e13a 64b1 8d3c
000002b0: 8ebe 923c 6a5d 7dbc e6b4 f3bc 62e8 06bd
000002c0: e8b9 633c ace7 803c aa28 8a3c 5610 1fbd
000002d0: 8a37 74bc 36c4 7ebc 5c51 563c 461e 12bd
000002e0: 981f cdbb 3c55 d8bc 0004 35b9 1e51 1dbd
000002f0: d4a2 573c 7ef5 9cbc b4fe 4bbc 3ea3 24bc
00000300: f807 b13c fca1 5c3c 8c17 05bd 5268 4ebc
00000310: 40fd 5e3a a423 06bd 8057 4b3c 326b e03c
00000320: 719d 0ebd 468e b93c d83a e1bc 203a 10bd
00000330: e8fd 7a3c f9fe b0bc 7854 e2bc 639d a5bc
00000340: 4c9d 303c 96bb 9c3c c4d1 67bc 18ea 373c
00000350: 520a f9bc 8883 a93c 5e33 07bc 3e85 d5bc
00000360: fe2e 15bd f286 873c b86d 873b 2a3e 36bc
00000370: 6ae2 cf3c 0327 03bd eac6 963c daff b8bc
00000380: 8901 9fbc 881b 7c3c 0fba 123d 76bc 12bc
00000390: e42c 9d3c 4084 dfbb 360e fc3c 5082 c03b
000003a0: 30bf e8bb d857 bcbc 7483 a73c c5c5 10bd
000003b0: c8fa f73b 3ca0 4f3c 388e 9dbc d258 d53c
000003c0: 92f0 853c 8011 5a3c de9d 00bd 0b2c 97bc
000003d0: 83e2 053d e0a4 2ebb 1ee9 20bc 4018 963c
000003e0: 5471 783c 7ffa 0e3d 0005 2db9 faed 01bd
000003f0: c8cb d53b 5969 ddbc cd20 0e3d 6e07 efbc

bias f4 [256]
-0.017927354 -0.008853532 0.031498037 0.0031784885 0.026826197 -0.033969883 -0.0020622753 -0.026989294
0.040603675 0.022205366 0.016190182 -0.0154588595 -0.038646348 -0.03793259 -0.023193747 0.00947671
0.0074454867 0.027631778 0.02321875 0.04157945 0.027378483 -0.0042566736 -0.036762387 0.033520263
0.03702922 0.004572005 -0.00267574 0.016399095 0.0028426298 0.0047896197 0.015124799 0.016869172
0.010476263 -0.006288323 -0.016385881 0.0009834566 -0.015347649 -0.032527674 -0.034296595 0.00034340375
0.01204988 -0.0004611791 0.0058575766 0.023649497 0.013880537 0.013842056 -0.010764556 0.036383044
0.026102502 -0.011841319 0.0011796356 0.02856043 -0.014144624 0.040123623 -0.033562165 -0.029156733
-0.0038394574 0.0010010732 -0.0031755664 -0.006863366 -0.011680984 -0.018727934 0.025878474 0.019368505
0.008546211 0.03476219 0.0149324285 -0.027671397 -0.03068761 -0.018608788 0.021645498 0.01918831
-0.03590976 0.0016380145 -0.019665413 -0.011889286 -0.040792752 -0.019701686 0.023921233 -0.02068217
0.020671012 -0.014518808 0.0030990792 0.042982366 -0.029560355 0.0050707394 -0.005147036 -0.014506004
0.016871642 -0.03462311 0.017294157 0.00979774 -0.017411767 -0.030984666 -0.004993993 -0.023388162
-0.027500987 0.030326527 -0.015109307 0.0025862588 -0.00051801704 0.0065782336 -0.012842365 -0.0066177165
-0.012458649 -0.0059275087 -0.005433462 0.003874349 -0.011365706 0.04375768 0.03088379 -0.026886594
-0.02058675 -0.0015350779 0.022840105 -0.00870456 0.02534707 0.022291055 -0.03811434 0.023990797
-0.034175653 -0.0059485454 0.007061805 0.03351755 -0.0021297762 0.013672993 -0.004423888 0.030756308
0.028636575 0.02195964 0.011605845 -0.016185304 0.023320999 0.020488232 0.012668786 -0.021075167
-0.027163502 0.02819063 0.009750167 0.021639848 0.010184427 0.030670047 0.032362744 0.041132085
-0.033269476 0.0014274535 0.012837495 -0.0239983 -0.0027105955 0.037002753 -0.029487425 0.03160778
-0.0027860326 0.01629579 0.008391624 0.010249981 -0.009653831 -0.013964385 0.03027576 -0.040188983
0.034786947 -0.027098004 -0.010103967 -0.009569424 0.02069319 -0.004149753 -0.020915484 -0.019859303
-0.0101531455 0.00829335 -0.025772845 -0.01770624 -0.009556444 0.03982263 -0.0053337333 0.0067042704
-0.04006532 0.019426033 -0.031769156 0.021463277 0.023031866 -0.03713116 -0.0073193368 -0.016032133
-0.0033699651 0.009026068 0.013809327 -0.030570026 -0.04045828 -0.015584307 -0.025549205 0.012716346
-0.019347962 0.037065145 -0.034099996 0.005283372 0.003495906 0.013703533 -0.038339183 -0.02314637
0.036470346 0.036607187 -0.038529698 -0.020478927 0.03704971 0.04099433 -0.016270194 -0.009941441
-0.0018249636 0.03737966 -0.03651325 -0.038539942 0.030163663 0.023452815 0.036664806 0.025957715
0.027146133 -0.006117278 0.013551261 0.024437422 0.0186969 0.012413232 -0.014419648 0.038605977
0.018856717 -0.030084707 0.0327335 0.031481143 -0.025527338 0.023484431 0.0036374454 -0.031628735
0.022553068 -0.009014831 -0.03880322 0.042180065 -0.02632413 0.02446179 -0.030430622 -0.027305674
0.026952323 -0.0031292462 0.017412359 -0.030563852 0.010303681 0.0021187956 0.031372733 0.007082266
0.0021347723 0.045860834 -0.022254305 0.014732033 0.024087759 -0.040407248 -0.0029511354 0.030077353
00000000: 63dc 92bc 680e 11bc 1604 013d 304e 503b
00000010: 9dc2 db3c 0124 0bbd 3d27 07bb a718 ddbc
00000020: 0a50 263d 07e8 b53c 46a1 843c 2847 7dbc
00000030: a24b 1ebd 345f 1bbd d000 bebc 3444 1b3c
00000040: 45f9 f33b 0a5c e23c 3f35 be3c 374f 2a3d
00000050: d748 e03c 917b 8bbb 2894 16bd 8b4c 093d
00000060: f4ab 173d c2d0 953b 785b 2fbb 6557 863c
00000070: 6a4b 3a3b 3ef2 9c3b 01ce 773c 3831 8a3c
00000080: a2a4 2b3c 470e cebb af3b 86bc 54e7 803a
00000090: b574 7bbc bd3b 05bd 967a 0cbd df0a b439
000000a0: dc6c 453c 69ca f1b9 eaf0 bf3b 97bc c13c
000000b0: 316b 633c cac9 623c d25d 30bc 6306 153d
000000c0: ead4 d53c 1702 42bc 019e 9a3a 90f7 e93c
000000d0: dabe 67bc ab58 243d 7b78 09bd 1ada eebc
000000e0: 689f 7bbb 7136 833a 2a1d 50bb 16e6 e0bb
000000f0: 9961 3fbc 536b 99bc 18ff d33c b3aa 9e3c
00000100: 6805 0c3c cc62 0e3d 25a7 743c 20af e2bc
00000110: 9564 fbbc 7571 98bc e651 b13c cd30 9d3c
00000120: 1d16 13bd a5b2 d63a 5c19 a1bc 48cb 42bc
00000130: 4d16 27bd 6e65 a1bc 76f6 c33c a76d a9bc
00000140: 4156 a93c 4be0 6dbc ec19 4b3b 470e 303d
00000150: 8f28 f2bc 7228 a63b 78a8 a8bb 97aa 6dbc
00000160: 6636 8a3c f6d0 0dbd 7aac 8d3c b386 203c
00000170: 1fa3 8ebc 8ed3 fdbc a6a4 a3bb 8898 bfbc
00000180: c049 e1bc 566f f83c 078d 77bc 397e 293b
00000190: 89cb 07ba 398e d73b c868 52bc 6ed9 d8bb
000001a0: 5d1f 4cbc 8c3b c2bb 2f0b b2bb cae8 7d3b
000001b0: 3a37 3abc 413b 333d 0100 fd3c 4641 dcbc
000001c0: 8ba5 a8bc ab34 c9ba 2c1b bb3c 929d 0ebc
000001d0: a9a4 cf3c bb9b b63c c81d 1cbd 5988 c43c
000001e0: c5fb 0bbd 04ec c2bb b766 e73b b349 093d
000001f0: b793 0bbb b004 603c 43f6 90bb a7f4 fb3c
00000200: 4097 ea3c b4e4 b33c 7126 3e3c 0b97 84bc
00000210: ae0b bf3c f0d6 a73c bd90 4f3c d4a5 acbc
00000220: fe85 debc 09f0 e63c 2abf 1f3c 0d46 b13c
00000230: 95dc 263c c03f fb3c cc8e 043d 1e7a 283d
00000240: 9345 08bd 6419 bb3a 5b54 523c 1598 c4bc
00000250: 3fa4 31bb 3390 173d 9d8f f1bc 2977 013d
00000260: df95 36bb c07e 853c 067d 093c 89ef 273c
00000270: 1a2b 1ebc e0ca 64bc df04 f83c 349d 24bd
00000280: c27c 0e3d a2fc ddbc 1c8b 25bc 13c9 1cbc
00000290: c484 a93c a7fa 87bb f356 abbc faaf a2bc
000002a0: 6159 26bc d5e0 073c 9321 d3bc ad0c 91bc
000002b0: a292 1cbc 0e1d 233d 99c6 aebb 7faf db3b
000002c0: 881b 24bd 5823 9f3c 6020 02bd c1d3 af3c
000002d0: 53ad bc3c d816 18bd 0cd7 efbb d255 83bc
000002e0: a2da 5cbb 13e2 133c 8440 623c fe6d fabc
000002f0: 95b7 25bd 5255 7fbc 914c d1bc 3958 503c
00000300: 9e7f 9ebc 9fd1 173d 70ac 0bbd 2320 ad3b
00000310: 921b 653b c984 603c 8c09 1dbd 759d bdbc
00000320: ee61 153d 6bf1 153d 51d1 1dbd 6cc3 a7bc
00000330: 70c1 173d ace9 273d 1249 85bc 6de1 22bc
00000340: 9e33 efba 6a1b 193d eb8e 15bd 0fdc 1dbd
00000350: c919 f73c 1e20 c03c d62d 163d 46a5 d43c
00000360: 9161 de3c 7273 c8bb 1c06 5e3c fd30 c83c
00000370: 3e2a 993c de60 4b3c 6340 6cbc 4d21 1e3d
00000380: 6779 9a3c 3474 f6bc 9013 063d 5ff2 003d
00000390: b51e d1bc 6c62 c03c 3562 6e3b 228d 01bd
000003a0: 36c1 b83c f1b2 13bc 20f0 1ebd 01c5 2c3d
000003b0: b4a5 d7bc 1864 c83c a449 f9bc 26b0 dfbc
000003c0: 1ecb dc3c 0a14 4dbb 5da4 8e3c 0b61 fabc
000003d0: c5d0 283c 7edb 0a3b b280 003d 5a12 e83b
000003e0: 89e7 0b3b 92d8 3b3d a94e b6bc a05e 713c
000003f0: b153 c53c 1282 25bd d667 41bb c864 f63c

weight f4 [64, 256]
0.014880165 -0.045250274 0.070882335 -0.00074805866 0.01075226 -0.04083947 -0.035854027 0.028015707
0.053955447 0.044159617 -0.0024231656 0.034773108 -0.047998242 -0.058972098 0.03875907 0.061951373
-0.042198375 0.0060798526 0.04439287 -0.042508516 0.055064566 -0.010134673 0.0060409606 -0.04241756
0.036144637 0.016715562 -0.056225922 0.019638427 0.009200506 0.041741543 -0.03051404 0.039399564
0.055610888 0.03755234 0.0028105527 0.005180841 -0.010816539 -0.061732613 0.010687497 0.050894905
-0.015397981 0.061898176 0.015113145 -0.05391972 -0.058622185 -0.031028394 -0.02490604 -0.055924274
0.057030752 -0.023998369 0.01414635 -0.06197132 0.054625303 0.030569173 -0.023396758 0.004591868
0.0396055 -0.007106149 -0.017223453 0.05147032 -0.0064953817 0.047436483 0.005510175 -0.043366995
0.014710448 -0.0070459684 -0.03455621 0.029925974 -0.026048783 -0.034888323 0.07924405 0.012670846
0.02419467 -0.03213611 -0.004196952 0.04544802 -0.014667489 -0.002797056 0.07956818 -0.025605395
0.023811145 0.084974416 0.021119084 -0.005863198 0.07729058 0.007584682 0.04842443 -0.068098396
-0.0014372516 0.045809805 0.06341994 0.047448 0.010029156 -0.03292656 0.0103599755 0.047796413
0.059765674 0.013195469 -0.060006246 0.021064427 -0.016903568 0.005020995 -0.05350597 -0.019720374
-0.017180134 0.04121711 0.033837214 0.029648017 0.01986139 0.034368597 -0.0239565 0.02447622
0.04695867 0.029830527 -0.02836206 0.020638306 0.021563636 -0.03646816 -0.014323792 -0.011287163
0.036519233 0.030488847 0.022583006 0.0055932277 0.043141995 0.010357629 -0.056722652 -0.025718462
0.035758942 -0.007852334 0.032662675 -0.006690199 0.029918533 -0.05258353 0.053781193 0.031654067
-0.004118715 0.04729598 0.032473158 -0.015433553 0.03591929 0.014670966 -0.057879087 0.0009025946
0.025862508 -0.03498807 -0.036160212 -0.02187626 0.055133898 0.035667863 0.0643493 -0.03828363
-0.00416077 0.0033215354 -0.037299715 0.020890228 0.019945959 0.03811322 -0.010742802 -0.030253025
0.018402532 0.024435736 -0.036171608 -0.03017393 0.070593245 -0.0013156235 -0.019226762 0.060275886
-0.01739043 0.009294956 -0.033809394 -0.043084532 0.046184756 0.026331553 0.085874856 -0.015160595
0.041378044 0.034483936 -0.0074447026 -0.0016339318 0.006707734 0.0576763 0.0432287 0.012198762
0.030313924 0.05366793 0.022822965 0.07741559 -0.053982016 -0.058388606 -0.04438605 -0.013803118
-0.012228832 0.058524318 -0.03449016 -0.012528318 -0.025699005 0.035129506 0.06483815 0.055036634
-0.022865467 -0.003469104 0.059423298 0.06312115 -0.035052467 -0.004716551 -0.013387938 0.031609528
-0.043026473 -0.038450122 0.024991626 -0.036846057 0.025213089 -0.037001103 0.05141244 0.053254813
0.06552621 -0.0062880614 0.038649503 0.06507493 -0.016223868 0.04631102 0.015304118 -0.03328793
-0.0009542033 0.060294837 -0.043319922 0.04169642 0.051645637 -0.030631801 0.05846119 -0.043724142
-0.0040179603 0.022938423 0.05572507 -0.023859564 -0.04209293 -0.019382259 -0.022240123 0.07065622
-0.038631946 0.016287789 0.07476923 0.025209552 0.061591778 0.0077448436 -0.029818328 0.052473128
-0.047375705 -0.011251717 0.021057993 0.02634449 -0.047435213 0.058547724 -0.03738187 0.03742794
00000000: f0cb 733c 5a58 39bd c22a 913d 5e19 44ba
00000010: 3f2a 303c 4a47 27bd acdb 12bd 3281 e53c
00000020: 6300 5d3d b7e0 343d f9cd 1ebb 3f6e 0e3d
00000030: ce99 44bd ba8c 71bd d5c1 1e3d b9c0 7d3d
00000040: 34d8 2cbd 8039 c73b 4cd5 353d 691d 2ebd
00000050: 628b 613d e60b 26bc 40f3 c53b 09be 2dbd
00000060: 660c 143d 13ef 883c 274d 66bd c4e0 a03c
00000070: b8bd 163c 2ef9 2a3d 94f8 f9bc 7061 213d
00000080: 3ec8 633d 7cd0 193d 4031 383b 0bc4 a93b
00000090: da37 31bc 56db 7cbd 9d1a 2f3c 2d77 503d
000000a0: d047 7cbc f188 7d3d 209d 773c edda 5cbd
000000b0: d11d 70bd 422f febc c007 ccbc da10 65bd
000000c0: 1499 693d 3a98 c4bc 18c6 673c a4d5 7dbd
000000d0: c8be 5f3d 346c fa3c 8faa bfbc 6177 963b
000000e0: 6039 223d b3da e8bb 3318 8dbc 8bd2 523d
000000f0: 36d7 d4bb c24c 423d b38e b43b 97a1 31bd
00000100: 1704 713c dee1 e6bb d08a 0dbd 5127 f53c
00000110: 4264 d5bc 0fe7 0ebd b44a a23d 6199 4f3c
00000120: e733 c63c 27a1 03bd 9686 89bb b427 3a3d
00000130: e84f 70bc d04e 37bb a4f4 a23d 68c2 d1bc
00000140: 970f c33c 1107 ae3d ee01 ad3c 1220 c0bb
00000150: 864a 9e3d ed88 f83b b258 463d 2c77 8bbd
00000160: 2962 bcba 10a3 3b3d 50e2 813d d658 423d
00000170: 5451 243c 00de 06bd e3bc 293c 2cc6 433d
00000180: dacc 743d cf31 583c 1cc9 75bd 4e8f ac3c
00000190: 5a79 8abc 2987 a43b 1329 5bbd 9f8c a1bc
000001a0: 5abd 8cbc 46d3 283d e498 0a3d 66e0 f23c
000001b0: 5bb4 a23c 16c6 0c3d 6c40 c4bc 5b82 c83c
000001c0: bc57 403d 265f f43c 8d57 e8bc aa11 a93c
000001d0: 39a6 b03c a35f 15bd 57ae 6abc cbed 38bc
000001e0: 3195 153d bfc3 f93c ffff b83c 6547 b73b
000001f0: a9b5 303d 0bb3 293c 0356 68bd 86af d2bc
00000200: f877 123d 13a7 00bc 4cc9 053d 7539 dbbb
00000210: b617 f53c d461 57bd ab49 5c3d b2a7 013d
00000220: 49f6 86bb 6eb9 413d 9302 053d 03dd 7cbc
00000230: 1b20 133d 7e5e 703c 9f12 6dbd 199c 6c3a
00000240: 9cdd d33c a74f 0fbd bb1c 14bd d835 b3bc
00000250: 15d4 613d 7718 123d 91c9 833d 4ccf 1cbd
00000260: 1257 88bb 1eae 593b 96c7 18bd fc21 ab3c
00000270: b565 a33c 9c1c 1c3d 9402 30bc 31d5 f7bc
00000280: e8c0 963c 742d c83c ae28 14bd 512f f7bc
00000290: 3193 903d 0071 acba 7181 9dbc d9e3 763d
000002a0: 6076 8ebc df49 183c b87b 0abd 6879 30bd
000002b0: 3a2c 3d3d 45b5 d73c 28df af3d 2564 78bc
000002c0: 067c 293d 073f 0d3d b1f2 f3bb a729 d6ba
000002d0: 8dcc db3b fc3d 6c3d 9410 313d 51dd 473c
000002e0: e854 f83c e7d2 5b3d 3af7 ba3c 118c 9e3d
000002f0: 3f1c 5dbd e428 6fbd 26ce 35bd 7926 62bc
00000300: 705b 48bc 32b7 6f3d 8e45 0dbd 9343 4dbc
00000310: b886 d2bc f5e3 0f3d ddc9 843d 186e 613d
00000320: 5c50 bbbc e859 63bb d865 733d a945 813d
00000330: 2d93 0fbd 4c8d 9abb 1559 5bbc fe78 013d
00000340: 873c 30bd e07d 1dbd 3dbb cc3c e4eb 16bd
00000350: ae8b ce3c 788e 17bd da95 523d b821 5a3d
00000360: 9b32 863d 150c cebb f14e 1e3d 0146 853d
00000370: ebe7 84bc a0b0 3d3d 20be 7a3c ed58 08bd
00000380: 8023 7aba b8f7 763d 3b70 31bd dec9 2a3d
00000390: 608a 533d 8bef fabc 0075 6f3d 1618 33bd
000003a0: 18a9 83bb 5ce9 bb3c f93f 643d 2275 c3bc
000003b0: a369 2cbd 8bc7 9ebc eb30 b6bc 35b4 903d
000003c0: 883c 1ebd f86d 853c 9c20 993d 4384 ce3c
000003d0: a947 7c3d 75c8 fd3b 9145 f4bc 10ee 563d
000003e0: 070d 42bd 1f59 38bc d081 ac3c 66d0 d73c
000003f0: 6d4b 42bd bdcf 6f3d bb1d 19bd 0a4e 193d

bias f4 [64]
-0.044470623 -0.057420343 0.011168529 -0.05471715 -0.01808702 0.06678933 0.022800041 0.03785686
-0.0030707791 0.05629991 0.046553027 -0.001465708 0.058846347 0.029496841 -0.06369974 0.030607563
-0.009993987 -0.011480296 0.028083904 -0.025551703 -0.007653582 0.06389751 0.03664825 -0.0013352564
-0.03948659 0.002952297 -0.056958072 0.001243586 0.027531391 -0.022135269 -0.028567899 -0.019332074
-0.04658764 0.04119686 0.05227526 0.06029054 0.056339454 0.04191934 -0.0009693389 -0.04038929
0.0303416 0.031350583 -0.040406108 0.025117747 -0.04742524 -0.030581914 -0.003590768 -0.02589997
0.041297615 -0.020281367 0.064910464 0.027356844 0.037736744 -0.04066983 0.016334482 -0.042169113
0.05676301 -0.004153309 0.024565067 0.016885677 0.00094782445 0.041861527 -0.026701085 0.022313729
00000000: d426 36bd 9831 6bbd 35fc 363c 171f 60bd
00000010: 3b2b 94bc d8c8 883d 27c7 ba3c cb0f 1b3d
00000020: 203f 49bb bc9a 663d 63ae 3e3d 001d c0ba
00000030: de08 713d 5ca3 f13c 0275 82bd b6bc fa3c
00000040: d2bd 23bc da17 3cbc 3710 e63c ce51 d1bc
00000050: e6ca fabb b3dc 823d 7a1c 163d c503 afba
00000060: b1bc 21bd 537b 413b de4c 69bd d2ff a23a
00000070: 8389 e13c 0655 b5bc 3a07 eabc 4c5e 9ebc
00000080: aed2 3ebd 0abe 283d 951e 563d 37f3 763d
00000090: 33c4 663d 9db3 2b3d 3b1b 7eba 3d6f 25bd
000000a0: f28e f83c 7869 003d e080 25bd bcc3 cd3c
000000b0: f840 42bd ec86 fabc 1753 6bbb 2d2c d4bc
000000c0: b027 293d 1c25 a6bc c7ef 843d 761b e03c
000000d0: d891 1a3d 6895 26bd e4cf 853c 85b9 2cbd
000000e0: 5480 683d 7b18 88bb ae3c c93c d553 8a3c
000000f0: 6c77 783a fe76 2b3d 3cbc dabc 48cb b63c

weight f4 [16, 64]
0.12186986 0.035694182 -0.013108587 -0.004606625 0.054345224 0.12344494 0.023852281 0.04913712
0.004941255 -0.09983529 -0.082723565 0.05762656 0.09806842 -0.0017587468 0.01696311 -0.04913462
-0.009760872 -0.12273744 -0.09502168 -0.02344243 -0.014929866 -0.023678275 0.05236746 -0.025708394
0.05456758 -0.053100258 0.051549774 -0.07836339 -0.09926927 0.054035947 0.09120953 0.062110826
0.106311485 0.0099284155 0.053437322 0.0492775 0.070729986 -0.08517459 0.026805438 0.14050284
0.005434564 -0.013068067 -0.030297223 0.10797051 -0.08179336 0.017985418 0.14806415 0.066446744
-0.05508642 -0.11302167 -0.07365203 0.010023083 -0.039222434 0.011421695 -0.03735085 0.059273325
-0.07207264 -0.030008554 -0.0046318597 -0.04388417 0.07084592 0.005565392 -0.04325798 0.055727646
-0.024865158 -0.07007459 -0.07925975 0.052600008 0.0067866817 0.086846285 0.008360099 0.0979009
-0.01983945 -0.03651149 -0.11730424 -0.06921527 0.02555774 0.06408014 -0.08492116 0.06708054
0.08460793 -0.01972736 0.008806439 0.0877623 0.1039807 -0.11532331 -0.01660738 -0.06594149
-0.050566327 -0.041529242 0.08296017 -0.07872476 0.11021075 -0.025635362 -0.05089084 0.02798042
0.110297635 0.067637995 -0.046863355 0.054547403 0.12389907 0.08515058 -0.0020374765 -0.064709656
-0.10700333 0.05020528 -0.0072698556 0.10823462 -0.07031799 -0.10907744 -0.013966374 -0.057240404
-0.105718605 0.06854871 0.024325201 0.022519626 -0.027437188 0.026012614 -0.011600224 -0.08117757
-0.08412585 0.025814746 0.08086599 0.05179455 0.101832226 -0.05131321 -0.0859228 0.08912324
0.069447346 0.07534446 -0.04401158 -0.014479717 0.048689343 0.078238145 0.06290434 0.05175689
-0.015250966 0.076426335 0.030555485 0.055602193 0.028296983 -0.0663432 -0.10971498 0.077368096
0.12560129 -0.013888407 0.13472188 0.085257225 0.058602788 0.028607056 -0.068868995 -0.066463836
-0.03763085 -0.055970397 -0.06411735 0.13805339 0.05780826 0.123704046 -0.10506838 -0.030948013
-0.06207201 -0.0088187205 -0.04209979 0.090340294 0.093918495 0.013733094 -0.11490817 -0.00040856414
-0.11815344 0.042433683 -0.102738865 0.020313714 -0.04982691 -0.07736544 0.06114458 0.12752327
-0.085557126 0.11387709 -0.1063367 -0.12143453 0.0031924054 -0.012790889 -0.045119934 -0.047317613
0.078604646 -0.054717608 -0.048147634 -0.05468713 -0.073227145 -0.10052087 0.08538738 -0.032673474
-0.028831571 -0.11990486 -0.004199324 0.08699898 -0.09421152 -0.0022013758 -0.008010161 -0.0029384224
-0.019376025 -0.055646252 0.013437291 -0.07890743 0.015306425 -0.08122584 -0.092963725 -0.07643903
-0.09235825 -0.11604341 0.11544182 -0.018700367 0.11680924 0.094875224 0.02956416 -0.08085541
0.09380967 -0.05379492 -0.025718315 -0.0020653764 0.12594277 0.057194218 0.091322 -0.10104526
-0.013410687 0.03027489 -0.09487004 0.025791347 -0.020256089 -0.06812502 0.058097128 0.06338937
-0.0637513 -0.12581189 -0.010242498 0.10740527 0.06775148 -0.033990204 -0.027785754 0.001580678
0.12881482 -0.0887005 0.12012799 -0.0533042 0.13282813 0.06407583 0.10386215 -0.039441526
-0.024290364 -0.016259389 0.03468879 0.115300454 0.038947385 0.120500855 0.042898174 0.09136289
00000000: e896 f93d 1034 123d 66c5 56bc 2cf3 96bb
00000010: 1999 5e3d b3d0 fc3d dc65 c33c 0144 493d
00000020: 40ea a13b 7276 ccbd f96a a9bd d409 6c3d
00000030: 19d8 c83d c085 e6ba 38f6 8a3c 6241 49bd
00000040: 11ec 1fbc c45d fbbd ba9a c2bd 570a c0bc
00000050: 669c 74bc f1f8 c1bc 437f 563d 699a d2bc
00000060: 4182 5f3d a87f 59bd db25 533d fc7c a0bd
00000070: b04d cbbd cc54 5d3d 10cc ba3d ec67 7e3d
00000080: d6b9 d93d cbaa 223c 18e1 5a3d 34d7 493d
00000090: e2da 903d 0470 aebd 1497 db3c fadf 0f3e
000000a0: 6d14 b23b 721b 56bc e231 f8bc a51f dd3d
000000b0: 4783 a7bd 2856 933c 219e 173e 3b15 883d
000000c0: 4ca2 61bd e877 e7bd e0d6 96bd db37 243c
000000d0: b4a7 20bd 1022 3b3c 34fd 18bd 96c8 723d
000000e0: d29a 93bd 80d4 f5bc dbc6 97bb e3bf 33bd
000000f0: aa17 913d e45d b63b 482f 31bd ac42 643d
00000100: 04b2 cbbc 4483 8fbd f052 a2bd 1b73 573d
00000110: d062 de3b 77dc b13d ccf8 083c 4480 c83d
00000120: 5886 a2bc 128d 15bd 353d f0bd bcc0 8dbd
00000130: 775e d13c 733c 833d 25eb adbd 8661 893d
00000140: ec46 ad3d 469b a1bc e248 103c b9bc b33d
00000150: d5f3 d43d a12e ecbd 330c 88bc 550c 87bd
00000160: a31e 4fbd 911a 2abd 06e7 a93d 723a a1bd
00000170: 2cb6 e13d 4001 d2bc ea72 50bd 3237 e53c
00000180: bae3 e13d ca85 8a3d caf3 3fbd 196d 5f3d
00000190: ccbe fd3d 6d63 ae3d 2f87 05bb 7f86 84bd
000001a0: 9024 dbbd 0da4 4d3d f837 eebb 1daa dd3d
000001b0: e102 90bd fe63 dfbd 38d3 64bc ea74 6abd
000001c0: ff82 d8bd 4463 8c3d a545 c73c 147b b83c
000001d0: f4c3 e0bc 6818 d53c de0e 3ebc 6d40 a6bd
000001e0: 2c4a acbd 7279 d33c 119d a53d 8626 543d
000001f0: 6a8d d03d cd2d 52bd 4bf8 afbd 3f86 b63d
00000200: 693a 8e3d 324e 9a3d 7d45 34bd 563c 6dbc
00000210: 7a6e 473d 523b a03d fed3 803d 08ff 533d
00000220: 30df 79bc 6985 9c3d 7f4f fa3c 20bf 633d
00000230: 13cf e73c f2de 87bd 3fb2 e0bd 2a73 9e3d
00000240: a09d 003e 338c 63bc 88f4 093e 579b ae3d
00000250: 7a09 703d 5859 ea3c 300b 8dbd 311e 88bd
00000260: ce22 1abd 3741 65bd f54f 83bd de5d 0d3e
00000270: 5bc8 6c3d 8c58 fd3d 172e d7bd b086 fdbc
00000280: 383f 7ebd 657c 10bc d470 2cbd 5504 b93d
00000290: 5758 c03d c500 613c fa54 ebbd 8d34 d6b9
000002a0: 6efa f1bd f1ce 2d3d c168 d2bd f268 a63c
000002b0: 4d17 4cbd c671 9ebd bd72 7a3d 7695 023e
000002c0: 9338 afbd 6438 e93d 0ec7 d9bd abb2 f8bd
000002d0: ad37 513b e090 51bc aecf 38bd 1dd0 41bd
000002e0: 79fb a03d 921f 60bd 7436 45bd 9dff 5fbd
000002f0: 1df8 95bd e3dd cdbd 94df ae3d 9fd4 05bd
00000300: 3030 ecbc ae90 f5bd 7c9a 89bb 852c b23d
00000310: f8f1 c0bd f544 10bb 0d3d 03bc 8c92 40bb
00000320: 78ba 9ebc 53ed 63bd 1528 5c3c 389a a1bd
00000330: cdc7 7a3c bc59 a6bd c463 bebd 118c 9cbd
00000340: 5226 bdbd 2ba8 edbd c36c ec3d 8331 99bc
00000350: af39 ef3d f14d c23d 8a30 f23c 8597 a5bd
00000360: 491f c03d 1058 5cbd 37af d2bc 445b 07bb
00000370: 24f7 003e 7c44 6a3d 0707 bb3d d1f0 cebd
00000380: 80b8 5bbc 0c03 f83c 394b c2bd 6048 d33c
00000390: 19f0 a5bc 2185 8bbd 41f7 6d3d 49d2 813d
000003a0: 0b90 82bd d5d4 00be 26d0 27bc 4bf7 db3d
000003b0: 4ac1 8a3d 5039 0bbd f39e e3bc c12e cf3a
000003c0: 08e8 033e 9ca8 b5bd aa05 f63d 8155 5abd
000003d0: 1904 083e 303a 833d aeb5 d43d 708d 21bd
000003e0: 96fc c6bc 6932 85bc d515 0e3d a522 ec3d
000003f0: 4b87 1f3d 27c9 f63d ffb5 2f3d 781c bb3d

bias f4 [16]
0.072789736 -0.065861136 0.008043657 -0.0047711963 -0.016415594 0.02636211 -0.0028298835 -0.091627836
-0.073311284 0.026209323 0.1092946 0.06753303 0.06047137 0.10562924 -0.018990085 0.11880533
00000000: c912 953d 34e2 86bd 8bc9 033c b257 9cbb
00000010: ff79 86bc 5af5 d73c 9175 39bb 60a7 bbbd
00000020: 3a24 96bd efb4 d63c d9d5 df3d c24e 8a3d
00000030: d4b0 773d 2554 d83d 1891 9bbc 3550 f33d

weight f4 [2, 16]
-0.039600085 -0.10070485 0.2009408 0.12924016 0.1411386 0.24268483 0.10152797 0.077508956
-0.07564454 -0.09487064 0.18376577 0.0017132758 -0.1255179 0.26344842 -0.25023496 -0.0063572703
-0.1261279 -0.18577155 -0.029769711 -0.13137096 -0.16012743 0.15156777 -0.063588105 0.22306958
0.18720894 -0.16697748 -0.08576407 0.2750532 -0.1666032 -0.09953389 -0.083226904 -0.09721598
00000000: b333 22bd 583e cebd 6dc3 4d3e 8857 043e
00000010: a386 103e 5f82 783e e5ed cf3d 04bd 9e3d
00000020: 86eb 9abd 8a4b c2bd 182d 3c3e ff8f e03a
00000030: c487 00be b6e2 863e cc1e 80be a650 d0bb
00000040: ac27 01be e63a 3ebe 9cdf f3bc 1c86 06be
00000050: 72f8 23be 9534 1b3e 7b3a 82bd 5a6c 643e
00000060: b3b3 3f3e 25fc 2abe 13a5 afbd c6d3 8c3e
00000070: 079a 2abe 6dd8 cbbd de72 aabd 2c19 c7bd

bias f4 [2]
-0.115823835 0.19050394
00000000: 0c35 edbd 7713 433e
