model3.pt (torch_old, 763093 bytes, 14 tensors)

weight f4 [6, 3, 5, 5]
-0.08464857 0.002943726 -0.07532982 0.005821565 -0.057811923 0.07863229 0.056097597 -0.10794298
-0.11280525 -0.016156124 -0.06473824 0.019441996 0.12969923 0.06402461 -0.011820929 -0.034056105
-0.08687442 0.007573867 -0.030130358 -0.03279313 -0.08682735 0.008682166 -0.01944524 0.09995364
-0.03849678 -0.024777874 0.0036911096 0.04528866 -0.08922883 -0.010811386 -0.062962785 0.0408792
-0.080601126 0.0134125035 -0.0627289 0.014078826 -0.09360625 0.04834044 -0.08197668 -0.008215252
-0.0073986463 0.039667886 -0.03465137 0.12776086 0.09608794 0.029550023 0.118971296 -0.009908756
0.014272804 -0.02752675 0.09216459 -0.0013319071 -0.021113556 -0.051801275 -0.09589605 -0.09497884
0.10907077 0.1305625 -0.047994267 0.0003240651 -0.05763362 0.12408202 0.03761341 0.12213414
0.047552556 0.07555219 0.14369129 0.024293462 0.13500501 0.01287942 -0.03454994 -0.07738381
-0.012275159 0.00869782 -0.034771744 0.09030716 -0.045125853 -0.012029019 0.056079738 0.11006516
-0.07079256 0.0049315724 0.11732183 0.11299331 -0.054391105 0.032398697 -0.024859807 -0.020430585
-0.001672374 0.038267374 -0.049450193 0.027598342 0.11720906 -0.05798469 -0.033338398 0.06388453
0.14281094 0.1405193 0.018744862 0.026423132 -0.013675171 0.0902798 0.055362865 0.06647718
0.11354909 -0.075643376 0.062462255 -0.078201115 0.108721636 0.1275665 0.028745465 0.03629187
0.022816718 -0.031673852 0.015360475 0.093093045 -0.036060423 0.079379715 0.14688697 0.09368834
-0.086435884 0.021169811 0.061159052 0.13624296 0.100751996 0.11294415 0.060549356 -0.051313534
-0.056335937 0.030480627 0.02111962 -0.053756192 -0.04763808 -0.092493415 0.10031676 0.047260366
0.0949115 -0.042835586 0.045943838 0.0017372498 -0.043113027 -0.052686077 0.08269425 0.050590474
0.055865426 0.044399846 -0.025905514 0.035339687 -0.02667209 0.12889226 0.06313732 0.13163173
-0.079031006 0.082519785 -0.073808536 -0.04305074 -0.052002687 0.11170643 0.14584905 0.0076932027
0.13178532 0.07145586 -0.019239381 0.16219008 0.0033724923 0.16712664 -0.047608517 0.03312967
0.1121669 0.09518607 0.069188476 0.009515778 0.12740788 -0.027739694 0.1405533 0.118843436
0.03494486 0.0387962 -0.018979428 -0.081602916 -0.025682632 -0.00964214 -0.048003227 0.08326046
0.049187027 0.030400706 -0.05468317 0.044957373 -0.07484257 -0.02779358 0.0026278005 -0.048511576
0.12071147 -0.07659006 0.12144198 -0.03147336 -0.05843295 0.07554565 0.14879443 0.09050741
0.05376925 -0.08855905 0.079039894 -0.08134445 0.032005608 -0.0068095345 0.06437304 0.015559147
-0.055040758 -0.02588807 -0.027015721 -0.0009959757 0.069825605 0.11023434 0.09618701 0.13769443
0.04071738 0.06650923 0.08473919 -0.07331575 0.04642423 0.08006288 0.05843236 -0.06644431
0.10932753 -0.123019196 -0.10779529 -0.056821875 -0.041833237 -0.03190141 -0.11130042 0.119925395
-0.094924755 0.10539687 0.072124764 -0.08855977 -0.10032903 -0.004875526 0.04718106 0.015539697
0.0954689 0.09716882 0.14138019 -0.018133545 0.13864109 0.03216166 -0.070278294 0.12401943
0.026560448 0.056954153 0.0021738622 -0.0855867 -0.04896541 -0.097605556 -0.025537223 -0.00731573
00000000: 3b5c adbd 87eb 403b 8546 9abd d4c2 be3b
00000010: 32cc 6cbd f709 a13d 98c6 653d 3611 ddbd
00000020: 7006 e7bd d959 84bc 7b95 84bd d244 9f3c
00000030: e0cf 043e 561f 833d 92ac 41bc 6a7e 0bbd
00000040: 37eb b1bd 342e f83b f1d3 f6bc 1752 06bd
00000050: 8ad2 b1bd a53f 0e3c a04b 9fbc 7eb4 cc3d
00000060: cdae 1dbd f8fa cabc 8be6 713b 9a80 393d
00000070: 9bbd b6bd 3d22 31bc a2f2 80bd f370 273d
00000080: 3412 a5bd 1ec0 5b3c 0278 80bd e0aa 663c
00000090: a2b4 bfbd a000 463d 64e3 a7bd 4499 06bc
000000a0: 5870 f2bb cb7a 223d 98ee 0dbd bed3 023e
000000b0: c1c9 c43d e412 f23c 39a7 f33d 5658 22bc
000000c0: 7bd8 693c c77f e1bc cac0 bc3d 6393 aeba
000000d0: 56f6 acbc 932d 54bd 2665 c4bd 4484 c2bd
000000e0: 7f60 df3d 2db2 053e a395 44bd 48e7 a939
000000f0: 3b11 6cbd b71e fe3d 8510 1a3d 7721 fa3d
00000100: 78c6 423d 1bbb 9a3d cf23 133e 1503 c73c
00000110: c13e 0a3e 3404 533c 3d84 0dbd 677b 9ebd
00000120: c01d 49bc 4d81 0e3c d16c 0ebd f6f2 b83d
00000130: e3d5 38bd 5d15 45bc deb3 653d d869 e13d
00000140: b1fb 90bd 0799 a13b 6d46 f03d 0969 e73d
00000150: 35c9 5ebd 7fb4 043d cba6 cbbc 0b5e a7bc
00000160: 8f33 dbba 40be 1c3d 498c 4abd eb15 e23c
00000170: 4e0b f03d 5b81 6dbd d88d 08bd e4d5 823d
00000180: 083d 123e 4be4 0f3e d38e 993c 5375 d83c
00000190: d30d 60bc 9ee4 b83d 2cc4 623d 3025 883d
000001a0: 6d8c e83d eaea 9abd 6cd8 7f3d e827 a0bd
000001b0: 73a9 de3d cba0 023e 9c7b eb3c c9a6 143d
000001c0: 20ea ba3c 71bc 01bd 80aa 7b3c 91a7 be3d
000001d0: 18b4 13bd d591 a23d 8a69 163e acdf bf3d
000001e0: 4c05 b1bd 506c ad3c ea81 7a3d 4683 0b3e
000001f0: 1057 ce3d 434f e73d 9a02 783d 242e 52bd
00000200: 83c0 66bd 82b2 f93c 0e03 ad3c 742f 5cbd
00000210: 2620 43bd 306d bdbd e072 cd3d 1694 413d
00000220: f660 c23d 5e74 2fbd 9b2f 3c3d 6eb4 e33a
00000230: 4997 30bd 5bcd 57bd 9a5b a93d f537 4f3d
00000240: 25d3 643d 9ddc 353d cd37 d4bc 59c0 103d
00000250: 6d7f dabc 55fc 033e 244e 813d 78ca 063e
00000260: 02db a1bd 2200 a93d ee28 97bd f955 30bd
00000270: c500 55bd 57c6 e43d 7459 153e 4317 fc3b
00000280: bbf2 063e 7357 923d e89b 9dbc 2815 263e
00000290: 0805 5d3b 3f23 2b3e 2601 43bd fab2 073d
000002a0: c2b7 e53d eaf0 c23d b0b2 8d3d 11e8 1b3c
000002b0: 3677 023e 5b3e e3bc 34ed 0f3e 3064 f33d
000002c0: 5722 0f3d c4e8 1e3d bf7a 9bbc 6e1f a7bd
000002d0: 6264 d2bc 11fa 1dbc 089f 44bd 7684 aa3d
000002e0: 5678 493d e70a f93c 76fb 5fbd 3925 383d
000002f0: 1047 99bd 5daf e3bc 2d37 2c3b 13b4 46bd
00000300: 9337 f73d 40db 9cbd 93b6 f83d 36ea 00bd
00000310: 6457 6fbd aeb7 9a3d 915d 183e f35b b93d
00000320: 253d 5c3d 725e b5bd abdf a13d eb97 a6bd
00000330: 5018 033d 8422 dfbb 03d6 833d cbeb 7e3c
00000340: 6b72 61bd 3813 d4bc 1350 ddbc 668b 82ba
00000350: ba00 8f3d 8bc2 e13d b2fd c43d c5ff 0c3e
00000360: 44c7 263d fe35 883d be8b ad3d 9126 96bd
00000370: 5527 3e3d 02f8 a33d c556 6f3d f413 88bd
00000380: 1de7 df3d 7df1 fbbd c7c3 dcbd 0ebe 68bd
00000390: 5459 2bbd 0eab 02bd 79f1 e3bd 729b f53d
000003a0: e967 c2bd 50da d73d 26b6 933d d35e b5bd
000003b0: 4e79 cdbd e0c2 9fbb ed40 413d 379a 7e3c
000003c0: 3385 c33d 7200 c73d f8c5 103e cd8c 94bc
000003d0: eef7 0d3e f2bb 033d 11ee 8fbd e6fd fd3d
000003e0: 4c95 d93c c248 693d 5b77 0e3b 1448 afbd
000003f0: f48f 48bd 6ce5 c7bd 7033 d1bc cbb8 efbb

bias f4 [6]
0.07238889 0.011979533 -0.08240599 -0.059399202 0.03243747 -0.036752794
00000000: a040 943d ce45 443c 79c4 a8bd 944c 73bd
00000010: 27dd 043d 198a 16bd

weight f4 [16, 6, 5, 5]
-0.045195874 0.03744163 0.03149721 0.024661938 0.01887021 -0.028271414 0.06608908 -0.040982563
0.05698486 -0.05134055 -0.032691788 -0.066717826 -0.06564335 0.060950648 -0.06780483 0.015699184
-0.049437568 -0.0060300287 0.022018544 0.001432875 -0.07144882 -0.038869366 -0.08202666 -0.06799215
-0.019868134 0.061850313 -0.016887797 -0.04479014 0.082673036 -0.05123384 0.0088929655 -0.0020671755
-0.03449643 0.024258202 -0.004782633 -0.06108263 -0.029549677 0.010837489 0.06772572 -0.014927998
0.0760583 -0.07843937 0.068721905 0.008211043 0.03699299 0.005373704 0.042492066 0.04619689
0.032717247 0.020882143 -0.063197635 -0.023173362 0.071296364 -0.028712943 0.0011882737 -0.019652754
0.06299768 0.034751453 0.017632954 0.06310856 0.07998039 -0.017307801 0.023029638 0.082518354
0.10679202 -0.0064295833 -0.07160691 -0.044764485 0.033672802 -0.06156073 -0.0814218 0.016856566
-0.043417167 -0.031415246 -0.064631194 -0.00468955 -0.0064361007 0.010221237 0.108900145 0.020799885
0.031745877 0.07991673 0.10512109 -0.010825875 -0.04043471 0.06748162 0.06479803 -0.04972101
0.08008722 0.052427206 -0.029460076 0.07132958 -0.049237184 0.057171267 -0.019777846 0.0102418
0.06568989 0.07253157 -0.003036436 0.04944351 -0.06711094 5.1068055e-05 0.05708511 0.008359378
0.004196232 0.07109399 0.023443677 -0.013680208 -0.037582595 0.0529333 -0.011979697 0.06636505
-0.011970456 -0.03412098 0.07577585 0.054372974 -0.0459732 0.080561884 0.07781327 0.010101247
0.016108163 -0.035897944 0.07705472 0.04087245 0.060628533 0.089344166 0.05260485 0.017599389
-0.03281065 -0.040226046 0.052755825 -0.056195173 -0.0038569383 -0.032488164 0.008694112 0.051977146
0.04414071 0.11056902 0.088473216 0.11449695 0.09746028 -0.04045561 0.0896195 0.07627256
0.028765919 0.03452968 0.05847117 -0.0071631544 -0.026030563 0.07087201 0.062944405 0.06992296
-0.016914666 0.025626535 0.04337311 -0.06955783 -0.07817426 0.048005056 0.042824745 0.05637558
0.020653978 0.048768338 -0.0571468 -0.09320077 0.014858936 0.05562242 -0.055530448 0.019975489
-0.059575263 -0.0217379 -0.030752132 0.023114529 -0.045169383 0.06904917 0.0134772295 0.054973375
-0.032262076 0.10753123 0.0952058 0.045190174 -0.016218552 0.04241504 0.027883595 0.043560635
0.042694308 0.015139938 -0.037234075 -0.036442596 -0.021808416 -0.053571727 -0.017503077 -0.0045720385
-0.006176098 0.023940548 -0.06489038 -0.026407909 0.050324287 0.04050513 0.002217727 -0.073604755
0.08991131 0.056382414 0.10897688 0.032703906 0.11597094 -0.017531237 0.010659946 0.06833369
0.053077865 0.0032834944 -0.06169908 0.0044452543 0.025661228 0.052718453 -0.053800803 0.04884803
0.017081324 0.008330012 -0.08964599 -0.008834409 -0.06487094 -0.04540985 -0.091636814 -0.07219596
-0.061103977 0.04330033 0.0037692334 0.093690686 0.0068881493 0.054014686 0.065185845 0.05570083
-0.06414063 -0.056028984 0.075981595 -0.03580153 0.013766651 -0.009508024 -0.023789387 -0.06308972
-0.045519527 -0.07932565 -0.1078084 -0.07270328 0.028302416 0.007284906 -0.065342695 -0.111965805
-0.061543193 -0.046643168 -0.045839988 0.07457687 -0.007243669 0.07527659 -0.031006958 0.039191894
00000000: 4f1f 39bd 655c 193d 3803 013d d507 ca3c
00000010: b395 9a3c 7499 e7bc b659 873d 55dd 27bd
00000020: f568 693d 784a 52bd d3e7 05bd 5ba3 88bd
00000030: 0570 86bd 63a7 793d 42dd 8abd 939b 803c
00000040: 0c7f 4abd 8c97 c5bb 3c60 b43c 4fcf bb3a
00000050: c253 92bd 7c35 1fbd 98fd a7bd 783f 8bbd
00000060: 7fc2 a2bc c156 7d3d 4758 8abc de75 37bd
00000070: 7b50 a93d 93da 51bd cdb3 113c 7379 07bb
00000080: 214c 0dbd 23b9 c63c a2b7 9cbb c831 7abd
00000090: 2a12 f2bc b98f 313c c8b3 8a3d 9094 74bc
000000a0: 74c4 9b3d d2a4 a0bd 12be 8c3d 9c87 063c
000000b0: f685 173d e515 b03b 290c 2e3d f338 3d3d
000000c0: 8502 063d 0711 ab3c c36d 81bd 10d6 bdbc
000000d0: d403 923d 6837 ebbc d9bf 9b3a d0fe a0bc
000000e0: ed04 813d 8a57 0e3d fc72 903c 103f 813d
000000f0: c2cc a33d 17c9 8dbc a7a8 bc3c 62ff a83d
00000100: c6b5 da3d 41af d2bb a5a6 92bd f75a 37bd
00000110: 7eec 093d 1b27 7cbd 79c0 a6bd c816 8a3c
00000120: 33d6 31bd 46ad 00bd 5c5d 84bd ccaa 99bb
00000130: ede5 d2bb fa76 273c 0a07 df3d 8564 aa3c
00000140: f707 023d 62ab a33d ba49 d73d 035f 31bc
00000150: de9e 25bd ce33 8a3d d4b4 843d 42a8 4bbd
00000160: c504 a43d e9bd 563d 4256 f1bc 3e15 923d
00000170: eeac 49bd 6b2c 6a3d 2605 a2bc 39cd 273c
00000180: 6c88 863d 6f8b 943d f1fe 46bb 4785 4a3d
00000190: 7671 89bd e831 5638 14d2 693d c6f5 083c
000001a0: 8c80 893b ba99 913d f40c c03c f322 60bc
000001b0: 35f0 19bd 97d0 583d 7e46 44bc 66ea 873d
000001c0: bb1f 44bc 71c2 0bbd 5e30 9b3d 32b6 5e3d
000001d0: 654e 3cbd a1fd a43d 905c 9f3d b37f 253c
000001e0: 44f5 833c b909 13bd ddce 9d3d df69 273d
000001f0: a055 783d 13fa b63d 2f78 573d 982c 903c
00000200: 7664 06bd 11c4 24bd 7e16 583d e92c 66bd
00000210: b0c4 7cbb 4f12 05bd c071 0e3c fde5 543d
00000220: e4cc 343d 0372 e23d 7231 b53d 607d ea3d
00000230: 4199 c73d c8b4 25bd 6e8a b73d ca34 9c3d
00000240: 81a6 eb3c fe6e 0d3d 777f 6f3d e5b8 eabb
00000250: 0c3e d5bc 5825 913d ffe8 803d c533 8f3d
00000260: a090 8abc bdee d13c 01a8 313d 5674 8ebd
00000270: d419 a0bd f3a0 443d 0069 2f3d 15ea 663d
00000280: 8832 a93c 4fc1 473d c312 6abd 0ce0 bebd
00000290: e572 733c 56d4 633d e573 63bd a3a3 a33c
000002a0: 3105 74bd ae13 b2bc e5eb fbbc ae5a bd3c
000002b0: 8803 39bd a769 8d3d 99cf 5c3c c32b 613d
000002c0: 3d25 04bd 5539 dc3d 42fb c23d 5519 393d
000002d0: c5dc 84bc 65bb 2d3d 236c e43c a36c 323d
000002e0: 3ae0 2e3d 810d 783c c282 18bd d544 15bd
000002f0: 90a7 b2bc 076e 5bbd 9d62 8fbc 0ad1 95bb
00000300: dd60 cabb f81e c43c 3fe5 84bd 6655 d8bc
00000310: d720 4e3d b5e8 253d 4957 113b 17be 96bd
00000320: 6c23 b83d 3ff1 663d 452f df3d 88f4 053d
00000330: 2c82 ed3d ab9d 8fbc 0ea7 2e3c 89f2 8b3d
00000340: 2d68 593d e52f 573b 2db8 7cbd 7fa9 913b
00000350: 7f37 d23c 4eef 573d 3b5e 5cbd df14 483d
00000360: 22ee 8b3c 9a7a 083c 5198 b7bd 32be 10bc
00000370: 0edb 84bd aeff 39bd 15ac bbbd 7adb 93bd
00000380: 2a48 7abd b05b 313d 3e05 773b e7e0 bf3d
00000390: fcb5 e13b 813e 5d3d 2880 853d 8e26 643d
000003a0: 2a5c 83bd a67e 65bd 3d9c 9b3d a0a4 12bd
000003b0: 858d 613c 8bc7 1bbc f6e1 c2bc 2f35 81bd
000003c0: af72 3abd 7d75 a2bd a7ca dcbd 75e5 94bd
000003d0: 78da e73c 39b6 ee3b 64d2 85bd 544e e5bd
000003e0: b714 7cbd e80c 3fbd b6c2 3bbd c2bb 983d
000003f0: 4d5c edbb 9d2a 9a3d 4e02 febc ae87 203d

bias f4 [16]
-0.086830184 0.075275965 0.08720313 0.06628419 0.00675443 0.08507308 -0.010869575 0.05054906
0.02295047 -0.004261641 0.027900841 -0.07558289 -0.05034874 0.037501223 0.07575383 -0.067495435
00000000: 06d4 b1bd 492a 9a3d 8e97 b23d 01c0 873d
00000010: 4454 dd3b cc3a ae3d 4d16 32bc 880c 4f3d
00000020: a002 bc3c 3ca5 8bbb 4e90 e43c 34cb 9abd
00000030: 7b3a 4ebd e29a 193d d324 9b3d 0c3b 8abd

weight f4 [8, 16, 5, 5]
0.04913176 -0.0009832783 0.01200118 -0.0011753713 -0.018798305 0.0114011485 0.032559115 -0.0025095106
-0.020527238 -0.0026998566 -0.034236692 -0.032994144 0.0009050248 -0.049013827 0.029455846 0.036990535
-0.012527381 -0.039612822 -0.004579727 0.009704876 -0.020698661 0.022353157 0.011764979 -0.036333468
-0.044036973 -0.016988603 0.0150621 0.068726815 0.040811747 -0.0039968705 0.0068413108 0.067276776
-0.013518821 -0.01058473 0.06752143 0.04137292 0.00743077 -0.0019822544 0.009782049 -0.017237091
-0.04994819 0.040473666 -0.04502404 -0.016938489 0.015288623 0.03502067 -0.0043439786 0.014898337
0.040178854 0.02287528 -0.036594078 0.0017214161 -0.018097185 -0.015445641 -0.0279487 -0.027176457
0.038064115 -0.0033372103 0.009400588 -0.026492763 0.061803147 0.03173333 0.009033165 0.042176876
0.03664901 0.015771369 0.028187025 0.0076817106 -0.028065115 -0.032283165 -0.0038267523 0.046094168
0.03030188 0.037849795 0.021482289 -0.017505 -0.01881514 0.0010110242 0.023754125 0.007179392
-0.0076440554 -0.010110461 -0.017912941 0.0074264905 0.011468777 -0.027352724 0.003775264 0.0015909985
-0.047261104 0.018682454 -0.037839226 -0.008858819 -0.021232743 -0.024018165 0.039095137 0.03569099
-0.047790773 -0.047336087 0.0120420195 -0.0054046954 -0.016908398 0.059511527 -0.013014232 -0.037221894
0.011653788 0.04090684 -0.054832608 -0.045490015 0.016210418 0.035960373 -0.051242672 0.021650806
-0.037697576 -0.060855083 -0.022518598 0.025561413 -0.054034565 -0.021910261 -0.018270774 -0.0017997491
0.042363666 -0.030234832 -0.028604737 -0.032646127 0.031062353 0.024478648 -0.020529361 -0.04842636
-0.0044514015 0.037452016 0.04579353 -0.05509332 -0.01436531 -0.025509303 -0.0046241265 0.06442139
0.023058815 -0.011485956 -0.013878093 0.041558366 0.0060427813 0.03232871 0.003998483 0.02071665
0.024746392 0.052236717 -0.01152053 0.04018716 -0.033404727 0.06749225 0.062962756 0.059261285
0.069734655 0.024191331 0.0912451 0.027191825 0.016294913 0.0562808 0.08017879 0.031615
-0.0068256776 -0.06819793 0.0052161836 -0.013158314 0.014557796 -0.03991896 -0.068949506 -0.0033360114
-0.0037691416 -0.014546081 0.01840698 -0.0098114135 0.006417377 -0.04925186 -0.06496241 0.056846447
0.0065045073 -0.022901697 0.013869457 0.05256741 0.038433537 0.011642645 0.013923795 0.0100375675
-0.0032534122 -0.008652416 0.0025544758 -0.0047665443 0.023107918 -0.045190737 0.007961525 0.031674165
-0.025095131 0.033736426 0.031034058 -0.04102233 0.02168914 0.047021415 0.037980404 -0.006365449
-0.033911277 0.06191876 0.005005577 -0.02283265 -0.032859135 -0.018275106 -0.042804778 0.015059175
0.040650845 -0.024383875 0.007993727 0.0019477946 0.009110146 -0.020666126 -0.00950728 -0.022143783
-0.020680228 0.004340384 -0.0039609233 -0.01427279 0.0023618913 -0.0278043 -0.043982405 -0.036306564
0.05183378 -0.0033005087 -0.014765041 0.027771141 0.038567737 0.035231274 0.012418497 0.048013605
0.0064507485 -0.02310959 0.039274905 -0.0567255 0.024254274 -0.018368525 -0.023959208 0.019972455
-0.017470265 0.004934353 -0.03909048 -0.016108958 0.0323834 -0.010570313 -0.04095615 0.01860213
-0.051689398 -0.03874461 0.0765198 -0.0010343305 0.06548107 0.011082589 0.0055079986 0.05592883
00000000: 623e 493d 58e1 80ba 99a0 443c eb0e 9aba
00000010: e7fe 99bc e2cb 3a3c b55c 053d 9a76 24bb
00000020: bd28 a8bc 14f0 30bb c63b 0cbd de24 07bd
00000030: 303f 6d3a b9c2 48bd 634d f13c 6383 173d
00000040: a53f 4dbc 0e41 22bd 8911 96bb 3301 1f3c
00000050: 3d90 a9bc f81d b73c e6c1 403c 67d2 14bd
00000060: 1d60 34bd af2b 8bbc 07c7 763c a5c0 8c3d
00000070: 382a 273d 2ef8 82bb 132d e03b 68c8 893d
00000080: 0c7e 5dbc 936b 2dbc ad48 8a3d a776 293d
00000090: d17d f33b b6e8 01bb e344 203c cd34 8dbc
000000a0: 7996 4cbd b7c7 253d 216b 38bd 96c2 8abc
000000b0: 227d 7a3c d671 0f3d ef57 8ebb 2818 743c
000000c0: 9592 243d f064 bb3c ace3 15bd 24a1 e13a
000000d0: 8c40 94bc b70f 7dbc acf4 e4bc 29a1 debc
000000e0: 1ee9 1b3d 19b5 5abb ed04 1a3c 5a07 d9bc
000000f0: 4c25 7d3d cffa 013d d7ff 133c a9c1 2c3d
00000100: 461d 163d f532 813c 7ae8 e63c dcb6 fb3b
00000110: d0e8 e5bc 5a3b 04bd 40ca 7abb 3dcd 3c3d
00000120: a63b f83c 6308 1b3d a0fb af3c a566 8fbc
00000130: 3522 9abc 5884 843a 0398 c23c 1b41 eb3b
00000140: fc7a fabb 59a6 25bc 29be 92bc eb59 f33b
00000150: 8ae7 3b3c d212 e0bc 6b6a 773b 0d89 d03a
00000160: dc94 41bd f20b 993c 4efd 1abd 9424 11bc
00000170: 4af0 adbc bec1 c4bc 3922 203d b730 123d
00000180: 42c0 43bd 7ce3 41bd e44b 453c df19 b1bb
00000190: 7b83 8abc 5cc2 733d a539 55bc fc75 18bd
000001a0: 88ef 3e3c ee8d 273d 2898 60bd bd53 3abd
000001b0: b6cb 843c 2f4b 133d d6e3 51bd 085d b13c
000001c0: c668 1abd 2e43 79bd ec78 b8bc 2b66 d13c
000001d0: 5953 5dbd 267d b3bc 97ac 95bc 8fe5 ebba
000001e0: 8685 2d3d 0aaf f7bc 7b54 eabc f2b7 05bd
000001f0: 7a76 fe3c 7287 c83c 312d a8bc b85a 46bd
00000200: 10dd 91bb 4967 193d ff91 3b3d 88a9 61bd
00000210: 7a5c 6bbc e3f8 d0bc fc85 97bb 5def 833d
00000220: d7e5 bc3c 972f 3cbc f160 63bc 1b39 2a3d
00000230: 8602 c63b 1c6b 043d b505 833b f7b5 a93c
00000240: f2b8 ca3c 2bf6 553d 9bc0 3cbc 4b9b 243d
00000250: 65d3 08bd 6039 8a3d 9ef2 803d f6bb 723d
00000260: 0bd1 8e3d e62c c63c b6de ba3d 64c1 de3c
00000270: e97c 853c b286 663d c734 a43d bb7e 013d
00000280: efa9 dfbb 5bab 8bbd 85ec aa3b f895 57bc
00000290: d283 6e3c 1082 23bd 6635 8dbd fca0 5abb
000002a0: b403 77bb b052 6ebc 3cca 963c 0dc0 20bc
000002b0: dc48 d23b 51bc 49bd 030b 85bd d2d7 683d
000002c0: c323 d53b 579c bbbc b83c 633c ed50 573d
000002d0: 7c6c 1d3d cbc0 3e3c a120 643c 9c74 243c
000002e0: 3337 55bb ddc2 0dbc fe68 273b ac30 9cbb
000002f0: d14c bd3c ec19 39bd 0e71 023c c5bc 013d
00000300: 4e94 cdbc 352f 0a3d 233b fe3c 0807 28bd
00000310: 6cad b13c 8799 403d 5791 1b3d 4295 d0bb
00000320: 8de6 0abd 879e 7d3d d305 a43b 8a0b bbbc
00000330: 4d97 06bd adb5 95bc 1054 2fbd c2ba 763c
00000340: 8081 263d b1c0 c7bc 1ff8 023c 244d ff3a
00000350: b942 153c 024c a9bc 6cc4 1bbc e166 b5bc
00000360: 9569 a9bc c839 8e3b a2ca 81bb 6cd8 69bc
00000370: f6c9 1a3b d8c5 e3bc e526 34bd 31b6 14bd
00000380: a84f 543d 594d 58bb 12e9 71bc 4e80 e33c
00000390: 34f9 1d3d ab4e 103d f476 4b3c eaa9 443d
000003a0: cd60 d33b 5350 bdbc b9de 203d ff58 68bd
000003b0: e6b0 c63c 9779 96bc 1a46 c4bc 469d a33c
000003c0: cd1d 8fbc 5ab0 a13b 571d 20bd eff6 83bc
000003d0: 75a4 043d 1b2f 2dbc a3c1 27bd 7e63 983c
000003e0: 43b8 53bd abb2 1ebd 6ab6 9c3d 5f92 87ba
000003f0: f01a 863d bf93 353c 717c b43b a115 653d

bias f4 [8]
0.041483052 0.0013868057 0.024623603 -0.012801257 -0.047560435 0.03143009 0.017411903 0.02546415
00000000: 22ea 293d 7ac5 b53a 70b7 c93c 5dbc 51bc
00000010: bbce 42bd d7bc 003d 68a3 8e3c 319a d03c

weight f4 [256, 648]
0.0098447725 -0.038985748 0.029239472 0.0014017187 -0.027095951 0.017352514 -0.022951335 -0.0029359683
-0.020810822 0.014943119 0.017217278 0.020996422 0.024621252 -0.029099248 0.016891282 0.0019394532
-0.013889391 -0.011356151 0.007028483 -0.035563033 -0.03633807 0.020263188 0.03885879 -0.0020388588
0.006080743 -0.027145583 0.0007389225 0.011309996 0.01734915 0.036111567 0.019553225 0.026256222
-0.008621901 -0.021069964 0.023147166 0.018441692 -0.010273922 -0.013356309 0.032689642 0.007883254
0.03228644 0.027319025 0.008432802 -0.018215695 0.023130331 -0.018265428 -0.02772393 0.028424952
-0.021079887 -0.0184017 -0.0044631846 0.029670764 -0.032673787 0.021887757 -0.021744909 0.025022563
0.038813498 -0.037263636 -0.02507859 0.03702988 0.022070382 -0.038908843 0.029012036 0.025424574
-0.014814261 -0.010324972 0.012687318 0.0031828694 -0.027201947 -0.010878533 -0.007490482 0.011819072
-0.0181711 0.028615277 0.005763758 0.0043863542 -0.027577737 -0.007816371 0.026887018 -0.00403722
-0.038482655 -0.027407683 0.010371327 -0.0012971647 0.02186004 0.0053831115 -0.019562358 0.0022728667
0.028524403 0.008479692 -0.031420022 -0.019156834 0.034572516 -0.025567155 -0.032410912 0.031266395
-0.006849766 0.021354835 0.020711415 0.029154655 0.033987854 0.014240652 0.01411207 0.0038108602
0.03281008 0.014296625 0.011410467 -0.017547598 -0.03181032 -0.037078854 0.031239923 0.037442494
-0.025985267 -0.001560647 -0.014751079 0.018468946 0.02462488 0.016104922 0.0146309845 0.009504814
0.009416755 0.020375174 -0.01185715 -0.0011617765 -0.030340225 0.02052185 0.020626247 -0.023173949
0.029770974 0.011374008 0.037922624 -0.021250727 -0.028873801 0.003936451 0.018054925 0.017180912
-0.022298396 -0.0281327 0.013215497 0.008634474 -0.008041656 -0.024345823 0.020805992 -0.009003958
0.021163024 -0.023792304 -0.011162462 0.0036906675 0.03466427 -0.008432483 -0.0043086894 -0.019765599
-0.025702816 -0.031472247 -0.00634953 -0.03851776 0.0042409003 0.004417438 0.017157238 -0.018808288
-0.015627274 0.010665908 0.013816722 -0.037856314 -0.03383226 0.022616886 -0.020740647 -0.028115915
-0.032307573 0.033450734 0.0017189048 0.0172965 0.01791313 -0.015464166 -0.029749345 -0.03293646
0.013899304 0.01573547 0.016865093 -0.03883394 -0.01490582 -0.01554971 0.013080921 -0.035673402
-0.00625987 -0.02640783 -0.00017262995 -0.038407438 0.01316138 -0.019160029 -0.012450863 -0.010048686
0.021610245 0.013466354 -0.03249316 -0.012598114 0.0008506365 -0.032748833 0.012410998 0.027394865
-0.034818117 0.02265085 -0.02749388 -0.035211682 0.015319325 -0.021605955 -0.027628168 -0.02021665
0.01077969 0.019132417 -0.014149133 0.011225246 -0.030400429 0.020692602 -0.008251993 -0.026064511
-0.03642177 0.01654384 0.0041329525 -0.0111232195 0.025376517 -0.032019626 0.018405396 -0.022582937
-0.019409912 0.015387423 0.03582197 -0.008956065 0.019186445 -0.0068211854 0.030768495 0.0058749095
-0.0071028695 -0.022991106 0.020448424 -0.035344858 0.0075677373 0.01267248 -0.019232854 0.02604333
0.016350064 0.013309836 -0.031400554 -0.018453619 0.03268672 -0.0026648566 -0.0098212045 0.01832211
0.015163738 0.03490686 -0.00016500428 -0.031721093 0.0065245368 -0.027027773 0.03469925 -0.029178347
00000000: f84b 213c 85af 1fbd 9e87 ef3c e0b9 b73a
00000010: 54f8 ddbc dc26 8e3c 7004 bcbc 6069 40bb
00000020: 757b aabc fcd3 743c 400b 8d3c b000 ac3c
00000030: 82b2 c93c 8c61 eebc 965f 8a3c 4035 fe3a
00000040: 5490 63bc 260f 3abc 304f e63b 8baa 11bd
00000050: 3ad7 14bd fcfe a53c 652a 1f3d 609e 05bb
00000060: f840 c73b 6a60 debc 40b4 413a 904d 393c
00000070: ce1f 8e3c b9e9 133d 162e a03c 4a17 d73c
00000080: e042 0dbc eb9a acbc 209f bd3c 0813 973c
00000090: f453 28bc 6cd4 5abc 93e5 053d c428 013c
000000a0: c93e 043d 26cc df3c bc29 0a3c 1539 95bc
000000b0: d27b bd3c 61a1 95bc 4c1d e3bc 72db e83c
000000c0: baaf acbc 29bf 96bc e83f 92bb 1a10 f33c
000000d0: f3d4 05bd f44d b33c 6122 b2bc 1efc cc3c
000000e0: e7fa 1e3d c1a1 18bd 9d71 cdbc a5ac 173d
000000f0: f2cc b43c e15e 1fbd a6aa ed3c 3247 d03c
00000100: 84b7 72bc 122a 29bc 78de 4f3c b097 503b
00000110: 9ed6 debc e03b 32bc b872 f5bb c8a4 413c
00000120: 8fdb 94bc 966a ea3c e8dd bc3b 68bb 8f3b
00000130: b5ea e1bc 3c10 00bc 2a42 dc3c a84a 84bb
00000140: fd9f 1dbd 1486 e0bc 80ec 293c a005 aaba
00000150: d413 b33c d064 b03b 3d41 a0bc 60f4 143b
00000160: 02ac e93c 68ee 0a3c 48b2 00bd cbee 9cbc
00000170: e99b 0d3d 3672 d1bc 4ec1 04bd 3111 003d
00000180: 0074 e0bb 56f0 ae3c fcaa a93c bed5 ee3c
00000190: d936 0b3d a051 693c 5036 673c a0bf 793b
000001a0: dd63 063d 643c 6a3c f8f2 3a3c fbbf 8fbc
000001b0: 8a4b 02bd ffdf 17bd deea ff3c 4d5d 193d
000001c0: 0edf d4bc a08e ccba 82ae 71bc 304c 973c
000001d0: 1eba c93c 78ee 833c ccb6 6f3c 14ba 1b3c
000001e0: bc48 1a3c d6e9 a63c 7e44 42bc c046 98ba
000001f0: 108c f8bc 701d a83c 60f8 a83c 4bd7 bdbc
00000200: 42e2 f33c 0c5a 3a3c c154 1b3d 0116 aebc
00000210: c088 ecbc 58fd 803b ece7 933c fcbe 8c3c
00000220: 20ab b6bc 8c76 e6bc d085 583c 9c77 0d3c
00000230: 26c1 03bc e470 c7bc 5471 aa3c 5685 13bc
00000240: 145e ad3c 14e8 c2bc c2e2 36bc 20df 713b
00000250: 1ffc 0d3d 6628 0abc e82f 8dbb 77eb a1bc
00000260: b68e d2bc 0be9 00bd b80f d0bb ccc4 1dbd
00000270: 40f7 8a3b 28c0 903b 568d 8c3c d713 9abc
00000280: c504 80bc 10c0 2e3c 885f 623c 390f 1bbd
00000290: b293 0abd 0c47 b93c 4ae8 a9bc 5953 e6bc
000002a0: f254 04bd a303 093d e04c e13a 64b1 8d3c
000002b0: 8ebe 923c 6a5d 7dbc e6b4 f3bc 62e8 06bd
000002c0: e8b9 633c ace7 803c aa28 8a3c 5610 1fbd
000002d0: 8a37 74bc 36c4 7ebc 5c51 563c 461e 12bd
000002e0: 981f cdbb 3c55 d8bc 0004 35b9 1e51 1dbd
000002f0: d4a2 573c 7ef5 9cbc b4fe 4bbc 3ea3 24bc
00000300: f807 b13c fca1 5c3c 8c17 05bd 5268 4ebc
00000310: 40fd 5e3a a423 06bd 8057 4b3c 326b e03c
00000320: 719d 0ebd 468e b93c d83a e1bc 203a 10bd
00000330: e8fd 7a3c f9fe b0bc 7854 e2bc 639d a5bc
00000340: 4c9d 303c 96bb 9c3c c4d1 67bc 18ea 373c
00000350: 520a f9bc 8883 a93c 5e33 07bc 3e85 d5bc
00000360: fe2e 15bd f286 873c b86d 873b 2a3e 36bc
00000370: 6ae2 cf3c 0327 03bd eac6 963c daff b8bc
00000380: 8901 9fbc 881b 7c3c 0fba 123d 76bc 12bc
00000390: e42c 9d3c 4084 dfbb 360e fc3c 5082 c03b
000003a0: 30bf e8bb d857 bcbc 7483 a73c c5c5 10bd
000003b0: c8fa f73b 3ca0 4f3c 388e 9dbc d258 d53c
000003c0: 92f0 853c 8011 5a3c de9d 00bd 0b2c 97bc
000003d0: 83e2 053d e0a4 2ebb 1ee9 20bc 4018 963c
000003e0: 5471 783c 7ffa 0e3d 0005 2db9 faed 01bd
000003f0: c8cb d53b 5969 ddbc cd20 0e3d 6e07 efbc

bias f4 [256]
-0.017927354 -0.008853532 0.030294547 0.002671778 0.02520572 -0.03497293 -0.002926654 -0.028754402
0.040458247 0.02152114 0.015013145 -0.0154588595 -0.03888902 -0.03793259 -0.024767943 0.00947671
0.010453217 0.027631778 0.024969244 0.041173443 0.027378483 -0.0042566736 -0.037222978 0.03757679
0.03702922 0.004580909 -0.001097663 0.015071901 0.0028413178 0.0047896197 0.015124799 0.015787868
0.007893662 -0.007578839 -0.016385881 0.0009811254 -0.015347649 -0.03443501 -0.03484887 0.003067868
0.008131196 0.00077458663 0.004834536 0.023649497 0.013922734 0.013842056 -0.0108128525 0.03635007
0.023559172 -0.012041993 0.001178752 0.02854534 -0.014157769 0.039085228 -0.03186648 -0.033487786
-0.0038394574 -0.00011248212 -0.001958637 -0.011288421 -0.013433697 -0.018727934 0.023947803 0.019368505
0.009747814 0.036159325 0.0149324285 -0.028287103 -0.031974856 -0.016596174 0.021190703 0.024430558
-0.036447972 0.00026668466 -0.020198114 -0.014048598 -0.040792752 -0.021394135 0.024151923 -0.021501299
0.019547986 -0.016915223 0.004428552 0.042175945 -0.03167679 0.0050608777 -0.006031432 -0.012542317
0.017078843 -0.03589034 0.015917676 0.008872589 -0.020918878 -0.03139518 -0.0031352025 -0.023384206
-0.027500987 0.03234079 -0.013736491 0.002586254 -0.0018539007 0.0022343595 -0.01347247 -0.0077590626
-0.012458649 -0.0068729967 -0.00661902 0.0021689273 -0.008350045 0.042822666 0.028131712 -0.026886594
-0.02058675 -0.0022360876 0.021691753 -0.00870456 0.02533368 0.024482818 -0.040436044 0.025221126
-0.03585594 -0.0062674335 0.008772703 0.032916244 -0.0033725575 0.012506263 -0.002466831 0.029841902
0.027530234 0.020744262 0.0134195695 -0.011874339 0.024888223 0.020488232 0.013331481 -0.025078766
-0.0264348 0.027427908 0.009132352 0.020602342 0.00995687 0.03347319 0.035734314 0.045687295
-0.033269588 0.0014253887 0.0123343235 -0.025707653 -0.0034711508 0.036071397 -0.030087246 0.03160778
-0.00508226 0.014579394 0.0070193512 0.008967344 -0.010421352 -0.014056846 0.028892262 -0.040188983
0.034786947 -0.0286086 -0.011609594 -0.0105449315 0.018833928 -0.004161078 -0.020915484 -0.022436926
-0.0073120687 0.00829335 -0.021011235 -0.017960487 -0.009565053 0.038156264 -0.00596678 0.0041556247
-0.04007162 0.018756695 -0.031769156 0.023271974 0.021970859 -0.036299203 -0.007474488 -0.016799208
-0.004225125 0.0065417653 0.015832243 -0.034598302 -0.04045828 -0.015584307 -0.025549205 0.012223108
-0.01951671 0.03633127 -0.0352009 0.0020289 0.003495906 0.013693233 -0.04153508 -0.02314637
0.036470346 0.035799034 -0.038529698 -0.02374994 0.038345218 0.03994851 -0.016274083 -0.009941441
-0.00012630437 0.03822953 -0.036512595 -0.040536113 0.031974413 0.01982089 0.036664806 0.028613895
0.02608345 -0.0070974883 0.013396683 0.021811582 0.019213503 0.014491517 -0.016108429 0.037818775
0.018856717 -0.030124923 0.03497765 0.031481143 -0.025527338 0.02348443 -0.00016334833 -0.031628735
0.021397717 -0.009014831 -0.040393773 0.040904697 -0.02681832 0.022747828 -0.029032255 -0.031875655
0.025310278 -0.0045288308 0.014857991 -0.03119875 0.010303681 0.0021187933 0.031372733 0.004270998
0.003917256 0.04904431 -0.021926269 0.0138892075 0.024087759 -0.044369888 -0.0014252947 0.030093795
00000000: 63dc 92bc 680e 11bc 452c f83c ff18 2f3b
00000010: 3a7c ce3c c63f 0fbd 1bcd 3fbb 5a8e ebbc
00000020: 8cb7 253d 1a4d b03c b2f9 753c 2847 7dbc
00000030: 184a 1fbd 345f 1bbd 24e6 cabc 3444 1b3c
00000040: f843 2b3c 0a5c e23c 4d8c cc3c 7ca5 283d
00000050: d748 e03c 917b 8bbb 1f77 18bd 1fea 193d
00000060: f4ab 173d 731b 963b 75df 8fba 22f0 763c
00000070: 6735 3a3b 3ef2 9c3b 01ce 773c 8f55 813c
00000080: 6b54 013c e957 f8bb af3b 86bc 1b99 803a
00000090: b574 7bbc ba0b 0dbd b0bd 0ebd 490e 493b
000000a0: b538 053c a10d 4b3a 076b 9e3b 97bc c13c
000000b0: 2e1c 643c cac9 623c 6428 31bc d0e3 143d
000000c0: 2aff c03c c84b 45bc 5b80 9a3a ebd7 e93c
000000d0: fdf5 67bc d517 203d 6d86 02bd 7d2a 09bd
000000e0: 689f 7bbb 61e4 ebb8 7a5c 00bb 12f3 38bc
000000f0: 0219 5cbc 536b 99bc 2f2e c43c b3aa 9e3c
00000100: 4cb5 1f3c cd1b 143d 25a7 743c 5bba e7bc
00000110: 11f8 02bd b3f4 87bc 2098 ad3c 9822 c83c
00000120: 784a 15bd cfd1 8b39 8476 a5bc 172c 66bc
00000130: 4d16 27bd c142 afbc 41da c53c 7e23 b0bc
00000140: 1923 a03c cb91 8abc 631d 913b afc0 2c3d
00000150: 86bf 01bd b8d5 a53b 52a3 c5bb 4a7e 4dbc
00000160: eee8 8b3c c001 13bd c965 823c 565e 113c
00000170: 115e abbc 3b98 00bd f877 4dbb 3c90 bfbc
00000180: c049 e1bc c777 043d 050f 61bc 247e 293b
00000190: 96fe f2ba 556e 123b a3bb 5cbc bc3f febb
000001a0: 5d1f 4cbc e036 e1bb 5de4 d8bb 9024 0e3b
000001b0: a1ce 08bc d266 2f3d 7a74 e63c 4641 dcbc
000001c0: 8ba5 a8bc 538b 12bb e7b2 b13c 929d 0ebc
000001d0: 9488 cf3c 3190 c83c 44a0 25bd 899c ce3c
000001e0: aedd 12bd 0b5f cdbb 62bb 0f3c 2fd3 063d
000001f0: 2006 5dbb 12e7 4c3c 8eaa 21bb 0177 f43c
00000200: 1687 e13c dfef a93c c1dd 5b3c 968c 42bc
00000210: 63e2 cb3c f0d6 a73c 496c 5a3c fc71 cdbc
00000220: cb8d d8bc 7eb0 e03c dc9f 153c 3ec6 a83c
00000230: 2422 233c 2f1b 093d 255e 123d 9a22 3b3d
00000240: b145 08bd 1cd4 ba3a e715 4a3c db98 d2bc
00000250: 3f7c 63bb 9abf 133d 8779 f6bc 2977 013d
00000260: 1689 a6bb 69de 6e3c 9602 e63b c4eb 123c
00000270: 52be 2abc af4e 66bc 77af ec3c 349d 24bd
00000280: c27c 0e3d 955c eabc 2b36 3ebc a6c4 2cbc
00000290: 9c49 9a3c a759 88bb f356 abbc a5cd b7bc
000002a0: 149a efbb d5e0 073c c11f acbc df21 93bc
000002b0: bdb6 1cbc be49 1c3d fa84 c3bb e82b 883b
000002c0: 2422 24bd a4a7 993c 6020 02bd dea4 be3c
000002d0: 3bfc b33c 79ae 14bd 8dec f4bb 7e9e 89bc
000002e0: eb72 8abb 4e5c d63b 9fb2 813c f3b6 0dbd
000002f0: 95b7 25bd 5255 7fbc 914c d1bc 6e43 483c
00000300: 82e1 9fbc 19d0 143d d22e 10bd 4bf7 043b
00000310: 921b 653b 9559 603c b020 2abd 759d bdbc
00000320: ee61 153d 02a2 123d 51d1 1dbd 3c8f c2bc
00000330: e00f 1d3d 0ca1 233d 3a51 85bc 6de1 22bc
00000340: 9270 04b9 9196 1c3d 3b8e 15bd 3209 26bd
00000350: 9af7 023d 6b5f a23c d62d 163d b067 ea3c
00000360: f6ac d53c 0c92 e8bb c37d 5b3c 34ae b23c
00000370: a365 9d3c d46d 6d3c d3f5 83bc dce7 1a3d
00000380: 6779 9a3c 8bc8 f6bc b944 0f3d 5ff2 003d
00000390: b51e d1bc 6b62 c03c 7c48 2bb9 228d 01bd
000003a0: 444a af3c f1b2 13bc f173 25bd af8b 273d
000003b0: 18b2 dbbc a759 ba3c 0dd5 edbc 0c90 02bd
000003c0: 8057 cf3c 9666 94bb ee6e 733c 8594 ffbc
000003d0: c5d0 283c 74db 0a3b b280 003d baf3 8b3b
000003e0: 535c 803b b0e2 483d b89e b3bc 8f8f 633c
000003f0: b153 c53c 33bd 35bd f4d0 baba 4387 f63c

weight f4 [64, 256]
0.014880165 -0.045250274 0.07526414 0.001966337 0.014615676 -0.04138924 -0.03346201 0.026393523
0.055612136 0.04402747 -0.002345861 0.034773108 -0.047352996 -0.058972098 0.046543106 0.061951373
-0.042480048 0.0060798526 0.043799132 -0.03348073 0.055064566 -0.010134673 0.04202689 -0.0761994
0.036144637 0.016748153 -0.058127973 0.030925808 0.011109693 0.041741543 -0.03051404 0.039332915
0.072622076 0.039107453 0.0028105527 0.0049107377 -0.010816539 -0.061844703 0.027129248 0.05012379
-0.00014318114 0.062354114 0.012644721 -0.05391972 -0.058848046 -0.031028394 -0.027804542 -0.055887766
0.05598185 -0.010455105 0.014149957 -0.05961535 0.05627158 0.030280953 -0.02417135 0.018012084
0.0396055 -0.005979825 -0.019118985 0.06741094 -0.006758629 0.047436483 0.00875863 -0.043366995
0.03536415 -0.0016442076 -0.03455621 0.030160895 -0.018663738 -0.02422457 0.083668604 0.012378799
0.035418317 -0.015678622 -0.0028237791 0.051490214 -0.014667489 0.0005061041 0.08757389 -0.026527548
0.026073663 0.08936034 0.02455433 -0.0068696053 0.08804054 0.009035004 0.049357247 -0.06901562
0.0017824519 0.04913959 0.066064775 0.0504782 0.020645376 -0.028222334 0.008754996 0.06616366
0.059765674 0.011086601 -0.060373023 0.021071723 -0.0070378613 0.019289875 -0.05137182 -0.013120351
-0.017180134 0.04175434 0.036714565 0.029197516 0.01790013 0.031165548 -0.017734414 0.02447622
0.04695867 0.029815055 -0.01263013 0.020638306 0.03654113 -0.03772905 0.0072366013 -0.01101024
0.046774868 0.044455204 0.02142537 0.011349121 0.042910766 0.008903765 -0.059091043 -0.02539059
0.03320984 0.0057890425 0.032562945 -0.0076536834 0.030474404 -0.05258353 0.06324962 0.038916476
-0.0040632216 0.054649502 0.032710887 -0.012869485 0.041838933 0.02435873 -0.057979804 6.7507215e-05
0.025864178 -0.033754516 -0.01976242 -0.02200251 0.052644897 0.034017622 0.07021964 -0.03828363
-0.00246737 0.0074299737 -0.030715205 0.020972934 0.022736933 0.037248146 -0.008571402 -0.030253025
0.018402532 0.025121521 -0.03278122 -0.017616304 0.075775184 -0.0001372457 -0.019226762 0.073361926
-0.018454008 0.00930233 -0.029945629 -0.044624336 0.04711959 0.028684324 0.10897427 0.0060688397
0.041992806 0.04442066 -0.0074447026 -0.00066717237 0.0058180806 0.062241443 0.052042533 0.014829421
0.032190796 0.077905595 0.022333862 0.10315698 -0.05398201 -0.058388606 -0.04438605 -0.01243298
0.0011296148 0.05900848 -0.006454381 -0.000740809 -0.025699005 0.036201153 0.083534114 0.055036634
-0.022865467 -0.0037354506 0.059423298 0.06739875 -0.02432745 -0.005446795 -0.01335688 0.031609528
-0.04339053 -0.03799537 0.02499417 -0.035829272 0.025607582 -0.020282697 0.05141244 0.052447416
0.064420424 -0.005556201 0.038956504 0.07686618 0.0066528115 0.045617107 0.018528238 -0.03216411
-0.0009542033 0.060306434 -0.044371057 0.04169642 0.051645637 -0.030631715 0.081486374 -0.043724142
-0.0044087726 0.022938423 0.071951464 -0.017785143 -0.041537832 -0.01558783 -0.0218825 0.09073247
-0.019299889 0.017876754 0.08330667 0.024304874 0.061591778 0.007745717 -0.029818328 0.059744988
-0.047607712 -0.011712627 0.02854011 0.026010895 -0.047435213 0.070478536 -0.037266802 0.035856277
00000000: f0cb 733c 5a58 39bd 1624 9a3d a9dd 003b
00000010: 9776 6f3c c487 29bd 760f 09bd 3b37 d83c
00000020: 8dc9 633d 2656 343d 04bd 19bb 3f6e 0e3d
00000030: 37f5 41bd ba8c 71bd fca3 3e3d b9c0 7d3d
00000040: 8fff 2dbd 8039 c73b b866 333d 1723 09bd
00000050: 628b 613d e60b 26bc 6324 2c3d 6e0e 9cbd
00000060: 660c 143d 6c33 893c 9917 6ebd 1f58 fd3c
00000070: 6e05 363c 2ef9 2a3d 94f8 f9bc 8d1b 213d
00000080: e2ba 943d 232f 203d 4031 383b 41ea a03b
00000090: da37 31bc df50 7dbd 283e de3c 9a4e 4d3d
000000a0: e522 16b9 0767 7f3d ce2b 4f3c edda 5cbd
000000b0: a60a 71bd 422f febc 5ac6 e3bc 92ea 64bd
000000c0: 394d 653d e44b 2bbc 39d5 673c 3a2f 74bd
000000d0: 077d 663d c30f f83c ff02 c6bc 148e 933c
000000e0: 6039 223d 68f2 c3bb 6b9f 9cbc bf0e 8a3d
000000f0: 7d77 ddbb c24c 423d 5b80 0f3c 97a1 31bd
00000100: 00da 103d 7482 d7ba d08a 0dbd fb13 f73c
00000110: b2e4 98bc 9b72 c6bc 725a ab3d 72d0 4a3c
00000120: cc12 113d 7470 80bc 270f 39bb 67e7 523d
00000130: e84f 70bc 12ac 043a f159 b33d 4d50 d9bc
00000140: 6f98 d53c 8e02 b73d 2a26 c93c 6d1a e1bb
00000150: 994e b43d 8e07 143c d32a 4a3d 1058 8dbd
00000160: 29a1 e93a 9846 493d f84c 873d 3bc2 4e3d
00000170: 7e20 a93c 8632 e7bc 1d71 0f3c d080 873d
00000180: dacc 743d 93a4 353c b449 77bd 9b9e ac3c
00000190: dc9d e6bb cd05 9e3c 426b 52bd bef6 56bc
000001a0: 5abd 8cbc 9906 2b3d 0362 163d a12f ef3c
000001b0: 4ba3 923c e44e ff3c c347 91bc 5b82 c83c
000001c0: bc57 403d b43e f43c 9bee 4ebc aa11 a93c
000001d0: 27ac 153d c789 1abd 0321 ed3b 4b64 34bc
000001e0: 0197 3f3d a916 363d 4284 af3c aaf1 393c
000001f0: 33c3 2f3d 19e1 113c 7309 72bd edff cfbc
00000200: 0b07 083d 02b2 bd3b b960 053d c0cb fabb
00000210: 75a5 f93c d461 57bd 0489 813d e266 1f3d
00000220: c624 85bb 28d8 5f3d dafb 053d 88da 52bc
00000230: 4d5f 2b3d f68b c73c 3b7c 6dbd a992 8d38
00000240: 1de1 d33c 2d42 0abd cce4 a1bc 9c3e b4bc
00000250: 2da2 573d 1056 0b3d 51cf 8f3d 4ccf 1cbd
00000260: 99b3 21bb 2377 f33b 749e fbbc 6ecf ab3c
00000270: ce42 ba3c 8391 183d 116f 0cbc 31d5 f7bc
00000280: e8c0 963c a6cb cd3c 9a45 06bd 1150 90bc
00000290: 0530 9b3d 9de9 0fb9 7181 9dbc c73e 963d
000002a0: dc2c 97bc cd68 183c 8950 f5bc 02c8 36bd
000002b0: 7900 413d 63fb ea3c e72d df3d 1edd c63b
000002c0: a600 2c3d 70f2 353d b1f2 f3bb 2ee5 2eba
000002d0: 99a5 be3b e2f0 7e3d 8d2a 553d 1af7 723c
000002e0: 7fda 033d f88c 9f3d 81f5 b63c f743 d33d
000002f0: 3d1c 5dbd e428 6fbd 26ce 35bd b3b3 4bbc
00000300: 950f 943a e0b2 713d 467f d3bb da32 42ba
00000310: b886 d2bc a947 143d ef13 ab3d 186e 613d
00000320: 5c50 bbbc 76ce 74bb d865 733d 5b08 8a3d
00000330: 5c4a c7bc 077b b2bb d1d6 5abc fe78 013d
00000340: 45ba 31bd 08a1 1bbd 93c0 cc3c b7c1 12bd
00000350: fec6 d13c e627 a6bc da95 523d 1ad3 563d
00000360: dbee 833d cb10 b6bb db90 1f3d 046c 9d3d
00000370: d4ff d93b 01d9 3a3d 88c8 973c 84be 03bd
00000380: 8023 7aba e103 773d 6dbe 35bd dec9 2a3d
00000390: 608a 533d 5def fabc 54e2 a63d 1618 33bd
000003a0: 7777 90bb 5ce9 bb3c 4a5b 933d 26b2 91bc
000003b0: 9323 2abd 1964 7fbc ee42 b3bc f2d1 b93d
000003c0: cd1a 9ebc 4572 923c b09c aa3d 041b c73c
000003d0: a947 7c3d c9cf fd3b 9145 f4bc 29b7 743d
000003e0: 4e00 43bd 51e6 3fbc f3cc e93c cd14 d53c
000003f0: 6d4b 42bd 0d57 903d 13a5 18bd 08de 123d

bias f4 [64]
-0.046145186 -0.057420343 0.010067685 -0.056380756 -0.01808702 0.06578709 0.022884455 0.037518438
-0.0030707791 0.057988834 0.046553027 -0.001465708 0.05996787 0.029496841 -0.06369974 0.035683792
-0.011340881 -0.008331749 0.026478035 -0.02415133 -0.003917921 0.06731455 0.04125127 0.0012106681
-0.04009933 0.002952297 -0.054031335 -7.4538846e-05 0.029694073 -0.022135269 -0.025560888 -0.0156083135
-0.04658764 0.040262155 0.05227526 0.058726154 0.05538445 0.044657603 -0.0022381009 -0.041812297
0.0303416 0.033505056 -0.04221902 0.023795217 -0.04742524 -0.030581914 -0.0052654366 -0.027703172
0.041297615 -0.022563357 0.06354664 0.029475564 0.036519516 -0.04066983 0.015183098 -0.042169113
0.055837616 -0.0059963395 0.023136443 0.015617892 0.00015134655 0.040510733 -0.026701085 0.021586796
00000000: bc02 3dbd 9831 6bbd eef2 243c 82ef 66bd
00000010: 3b2b 94bc 62bb 863d 2e78 bb3c efac 193d
00000020: 203f 49bb b385 6d3d 63ae 3e3d 001d c0ba
00000030: dfa0 753d 5ca3 f13c 0275 82bd 2b29 123d
00000040: 1acf 39bc e381 08bc 77e8 d83c 03d9 c5bc
00000050: e761 80bb 36dc 893d 17f7 283d 48af 9e3a
00000060: 323f 24bd 537b 413b f64f 5dbd bd51 9cb8
00000070: fc40 f33c 0655 b5bc 1165 d1bc 03ba 7fbc
00000080: aed2 3ebd eee9 243d 951e 563d d68a 703d
00000090: ceda 623d e4ea 363d 1aad 12bb 5f43 2bbd
000000a0: f28e f83c 993c 093d daed 2cbd 30ee c23c
000000b0: f840 42bd ec86 fabc af89 acbb c3f1 e2bc
000000c0: b027 293d cad6 b8bc be24 823d bd76 f13c
000000d0: 7d95 153d 6895 26bd 87c2 783c 85b9 2cbd
000000e0: fcb5 643d f17c c4bb a388 bd3c 30e2 7f3c
000000f0: c8b2 1e39 95ee 253d 3cbc dabc cbd6 b03c

weight f4 [16, 64]
0.13291943 0.035694182 -0.0075300406 0.0074026864 0.054345224 0.13452621 0.028041821 0.05412126
0.004941255 -0.10260226 -0.082723565 0.05762656 0.10252837 -0.0017587468 0.01696311 -0.046340182
-0.0018128864 -0.122677006 -0.08982787 -0.01934967 -0.010553761 -0.021348236 0.05539947 -0.024935778
0.066005215 -0.053100258 0.052049626 -0.066270426 -0.09599263 0.054035947 0.09154924 0.06328349
0.106311485 0.016586803 0.053437322 0.052601494 0.08058891 -0.084669985 0.030993566 0.14691523
0.005434564 -0.014123356 -0.012075559 0.117693946 -0.08179336 0.017985418 0.1610542 0.0771148
-0.05508642 -0.111966334 -0.0677236 0.010569743 -0.03305525 0.011421695 -0.029266803 0.059273325
-0.065726265 -0.01882361 0.0032343655 -0.03352347 0.087334625 0.01599883 -0.04325798 0.060968075
-0.016627766 -0.07007459 -0.0783443 0.062670186 0.0067866817 0.096191555 0.00658866 0.0985238
-0.01983945 -0.0480967 -0.11730424 -0.06921527 0.025147475 0.06408014 -0.08492116 0.06343927
0.090899765 -0.027520774 0.012283902 0.08586431 0.101474755 -0.11971496 -0.019987207 -0.073838584
-0.040950514 -0.041529242 0.076065384 -0.068838194 0.10717818 -0.025635362 -0.058280006 0.021922328
0.110297635 0.07240057 -0.046863355 0.053823527 0.13217156 0.07760284 -0.0022086666 -0.061333776
-0.10700333 0.04234508 0.0075888853 0.115767375 -0.07031799 -0.10907744 -0.003697503 -0.04859297
-0.105718605 0.06953341 0.028339405 0.015517028 -0.02266389 0.026012614 -0.004967323 -0.08117757
-0.08073926 0.03441457 0.08686409 0.06029021 0.115094736 -0.042873617 -0.0859228 0.0895784
0.07815618 0.07534446 -0.041905314 -0.0038547686 0.048689343 0.08804931 0.06283067 0.053444017
-0.015250966 0.06768861 0.030555485 0.055602193 0.029179076 -0.0663432 -0.10971498 0.07563909
0.13226642 -0.019236242 0.13844351 0.08505355 0.058159906 0.026269376 -0.07033286 -0.071572505
-0.02752568 -0.055970397 -0.06866121 0.1484258 0.056626584 0.123704046 -0.109941475 -0.03474408
-0.06207201 -0.0037549746 -0.04209979 0.09064262 0.10263316 0.008785643 -0.11398098 0.0035468945
-0.11815344 0.036789067 -0.08723988 0.028341796 -0.04982691 -0.07736544 0.07195192 0.1366503
-0.085557126 0.11545032 -0.10204972 -0.12606193 0.008252745 -0.012790889 -0.03811615 -0.047317613
0.0825124 -0.045600004 -0.0418319 -0.045779496 -0.059202332 -0.0916017 0.08538738 -0.030989164
-0.020189064 -0.11990486 -0.0024630388 0.09758203 -0.09421152 0.0075841965 -0.008605239 -0.0015915949
-0.019376025 -0.06528398 0.013437291 -0.07890743 0.015778724 -0.08122584 -0.092963725 -0.078751676
-0.08571632 -0.12213123 0.119135015 -0.019426588 0.11573822 0.09192042 0.027518582 -0.08680165
0.103890054 -0.05379492 -0.030968238 0.008277813 0.12419612 0.057194218 0.08571192 -0.10551678
-0.013410687 0.035297558 -0.09487004 0.025763579 -0.011562999 -0.073846996 0.058673713 0.067163475
-0.0637513 -0.13211586 0.00517123 0.11540913 0.06775148 -0.033990204 -0.017026747 0.010682879
0.12881482 -0.08706591 0.1243779 -0.05865034 0.13787405 0.06407583 0.11084618 -0.039441526
-0.02054552 -0.007217468 0.04098561 0.12417241 0.052858997 0.1293938 0.042898174 0.09266066
00000000: 081c 083e 1034 123d 8fbe f6bb 3c92 f23b
00000010: 1999 5e3d 3dc1 093e f6b7 e53c 41ae 5d3d
00000020: 40ea a13b 2221 d2bd f96a a9bd d409 6c3d
00000030: 65fa d13d c085 e6ba 38f6 8a3c 34cf 3dbd
00000040: 609e edba 153e fbbd adf7 b7bd 3383 9ebc
00000050: afe9 2cbc 7fe2 aebc 8eea 623d 1e46 ccbc
00000060: be2d 873d a87f 59bd fd31 553d cab8 87bd
00000070: c997 c4bd cc54 5d3d 2b7e bb3d c69a 813d
00000080: d6b9 d93d 0ce1 873c 18e1 5a3d aa74 573d
00000090: cc0b a53d 7567 adbd 38e6 fd3c f270 163e
000000a0: 6d14 b23b a665 67bc 91d8 45bc 8609 f13d
000000b0: 4783 a7bd 2856 933c 64eb 243e 5dee 9d3d
000000c0: 4ca2 61bd 9b4e e5bd acb2 8abd b72c 2d3c
000000d0: f164 07bd 1022 3b3c efc0 efbc 96c8 723d
000000e0: 7e9b 86bd f933 9abc a6f7 533b e84f 09bd
000000f0: 7fdc b23d fa0f 833c 482f 31bd a9b9 793d
00000100: f436 88bc 4483 8fbd fa72 a0bd 3a59 803d
00000110: d062 de3b 1400 c53d b0e5 d73b d9c6 c93d
00000120: 5886 a2bc 0c01 45bd 353d f0bd bcc0 8dbd
00000130: 1402 ce3c 733c 833d 25eb adbd 73ec 813d
00000140: a829 ba3d 3f73 e1bc 6b42 493c a1d9 af3d
00000150: ffd1 cf3d 1e2d f5bd 36bc a3bc af38 97bd
00000160: babb 27bd 911a 2abd 2bc8 9b3d 0afb 8cbd
00000170: 3c80 db3d 4001 d2bc 04b7 6ebd 7496 b33c
00000180: bae3 e13d c046 943d caf3 3fbd 0f76 5c3d
00000190: fb57 073e 3dee 9e3d 47bf 10bb 2039 7bbd
000001a0: 9024 dbbd 0972 2d3d 2fac f83b 7217 ed3d
000001b0: e102 90bd fe63 dfbd ce51 72bb 6c09 47bd
000001c0: ff82 d8bd 8867 8e3d 0a28 e83c 223b 7e3c
000001d0: 9fa9 b9bc 6818 d53c edc4 a2bb 6d40 a6bd
000001e0: a05a a5bd 4bf6 0c3d cde5 b13d def2 763d
000001f0: cab6 eb3d 3f9c 2fbd 4bf8 afbd e174 b73d
00000200: 5910 a03d 324e 9a3d e8a4 2bbd 49a0 7cbb
00000210: 7a6e 473d 3253 b43d 5ead 803d 1de8 5a3d
00000220: 30df 79bc 53a0 8a3d 7f4f fa3c 20bf 633d
00000230: f508 ef3c f2de 87bd 3fb2 e0bd abe8 9a3d
00000240: d970 073e 5395 9dbc 23c4 0d3e 8e30 ae3d
00000250: 1539 6e3d e032 d73c ad0a 90bd 9b94 92bd
00000260: 897d e1bc 3741 65bd 409e 8cbd effc 173e
00000270: 47f1 673d 8c58 fd3d ff28 e1bd cf4f 0ebd
00000280: 383f 7ebd 0516 76bb d470 2cbd d7a2 b93d
00000290: 5631 d23d a8f1 0f3c dc6e e9bd 0473 683b
000002a0: 6efa f1bd 22b0 163d d2aa b2bd 0e2d e83c
000002b0: 4d17 4cbd c671 9ebd 875b 933d 0eee 0b3e
000002c0: 9338 afbd 3871 ec3d 72ff d0bd 6116 01be
000002d0: 8536 073c e090 51bc ae1f 1cbd 1dd0 41bd
000002e0: 43fc a83d 12c7 3abd ed57 2bbd 4883 3bbd
000002f0: 257e 72bd ac99 bbbd 94df ae3d fddc fdbc
00000300: 8963 a5bc ae90 f5bd ef6a 21bb 16d9 c73d
00000310: f8f1 c0bd da84 f83b fdfc 0cbc 109d d0ba
00000320: 78ba 9ebc 9bb3 85bd 1528 5c3c 389a a1bd
00000330: 6242 813c bc59 a6bd c463 bebd 8f48 a1bd
00000340: 0a8c afbd f01f fabd 0ffd f33d 8224 9fbc
00000350: 2908 ed3d c640 bc3d a66e e13c 10c5 b1bd
00000360: 4fc4 d43d 1058 5cbd 1ab1 fdbc aa9f 073c
00000370: 895a fe3d 7c44 6a3d bb89 af3d 2e19 d8bd
00000380: 80b8 5bbc 2c94 103d 394b c2bd 240e d33c
00000390: bc72 3dbc 183d 97bd d953 703d 018d 893d
000003a0: 0b90 82bd 6149 07be 6c73 a93b 9f5b ec3d
000003b0: 4ac1 8a3d 5039 0bbd ad7b 8bbc 3e07 2f3c
000003c0: 08e8 033e 9d4f b2bd d7b9 fe3d 573b 70bd
000003d0: db2e 0d3e 303a 833d 5203 e33d 708d 21bd
000003e0: 144f a8bc 8380 ecbb 87e0 273d 1b4e fe3d
000003f0: ad82 583d cf7f 043e ffb5 2f3d dfc4 bd3d

bias f4 [16]
0.07390016 -0.069035165 0.005944553 -0.007266786 -0.017289618 0.024844963 -0.0043592886 -0.09163231
-0.06901728 0.031933468 0.1085454 0.07113295 0.057941403 0.10445786 -0.013464163 0.11880533
00000000: f858 973d 4f62 8dbd 86ca c23b 381e eebb
00000010: f5a2 8dbc aa87 cb3c 5dd8 8ebb b8a9 bbbd
00000020: ef58 8dbd abcc 023d 0d4d de3d 27ae 913d
00000030: f753 6d3d 01ee d53d cb98 5cbc 3550 f33d

weight f4 [2, 16]
-0.02528901 -0.10152594 0.20805499 0.13611639 0.14958341 0.25133622 0.1124783 0.07751821
-0.08155707 -0.08162426 0.19383174 -0.0071698916 -0.12592576 0.27155298 -0.26344725 -0.0063572703
-0.14043897 -0.1849501 -0.036884233 -0.13824724 -0.16857235 0.14291614 -0.074538514 0.22306122
0.19312122 -0.18022394 -0.095830314 0.28393644 -0.16619535 -0.1076378 -0.07001446 -0.09721598
00000000: e62a cfbc d5ec cfbd 5e0c 553e 1862 0b3e
00000010: 652c 193e 24af 803e 065b e63d dec1 9e3d
00000020: 6507 a7bd 9f2a a7bd d47b 463e 69f1 eabb
00000030: aff2 00be fe08 8b3e 8fe2 86be a650 d0bb
00000040: 3ccf 0fbe 8f63 3dbe ec13 17bd af90 0dbe
00000050: 3b9e 2cbe 9c58 123e a6a7 98bd 296a 643e
00000060: 92c1 453e a08c 38be af42 c4bd 1e60 913e
00000070: 1d2f 2abe 3571 dcbd be63 8fbd 2c19 c7bd

bias f4 [2]
-0.11901778 0.19369797
00000000: 98bf f3bd c358 463e
