Saved Models/model4.pt (torch_old, 763093 bytes, 14 tensors)

weight f4 [6, 3, 5, 5]
00000000: 3a19 15bc 58b7 bb3b a41b 82bb d178 febc
00000010: 2a16 30bd 6bfc ec3c 2d57 853d 5892 83bd
00000020: b942 19bd 3de9 ca3a cd76 0dbb f1bc f2bd
00000030: 9887 40bd f3fd e53c ad70 63bd 5d77 263b
00000040: cf69 8abd 3b7d 2ebd a7e6 103d 8308 8fbd
00000050: 5660 8f3d ffe4 80bd cca3 d43d 8808 bdbc
00000060: c883 09bd d0d3 293d fc5e 4bbd bc8f 753d
00000070: 933b 673d bd38 e53d 997a 91bd 00f3 ba3d
00000080: ed82 50bc 10d0 7a3d 210b a5bd a5aa 9e3d
00000090: a45b 83bd f77a 413d fc0c f33d 6ec5 063d
000000a0: 01eb b1bd ad2f b63d 0ed6 debd 93b3 883b
000000b0: 6825 61bc 3b9b c53d 5c28 a4bd c32e 12bd
000000c0: bfba 64bd 1538 553c 2a53 903d 20cb 4d3d
000000d0: a219 a6bd 5d39 eabc a5e4 36bd 2f23 88bd
000000e0: 1d40 48bd 078e bfbc 8a14 fb3c 60f0 bb3d
000000f0: 578a c3bd 28b8 f63b bd1c 443d 3943 6e3d
00000100: 7984 cd3d f003 603d 63d8 983a 4a35 a4bd
00000110: cb57 f8bc 5597 463d 041c 8b3d 8d5d d53d
00000120: 0402 bfbd 64e6 b33d b0ca e6bd 7137 a4bb
00000130: 8fba 0a3a 1818 c93d 4b5e 813d cbeb 0c3e
00000140: dfc8 063e 215e d63d 58a8 783d a855 1cbd
00000150: 8b9d 543d 977a 07bd a2dc 023e 6aa6 933d
00000160: 5e12 01bd fc8c e5bb 44e5 013e e48d f3bb
00000170: 94d2 a2bd 010f e33c 46e1 db3c 6e0d c03d
00000180: e48c 833d 5f31 833d aaea afbd a15b 8f3d
00000190: 5016 dfbc 4b16 05bd cddc b1bd ad86 e53d
000001a0: 536a b3bd 5501 153c 0922 333d 9099 b23b
000001b0: 812c 0b3e 53c9 83bd 8285 8cbd 475a 66bd
000001c0: bf49 a0bc f0db 26bd f5dd 863b 379b 373d
000001d0: 4b43 47bd 7bf0 c43d 6792 093d bf29 3c3d
000001e0: 7251 82bd a513 9e3d 78c0 8a3d 83ee 5d3d
000001f0: 6778 a9bd 7023 ba3d 5df4 fabb 4322 e43d
00000200: 2a6b a7bd c982 413d 0f88 e43c 6124 a03d
00000210: f1e8 083e db8e 73bd a223 f73d cba0 14bd
00000220: 4133 003e cd29 9abd 13bb 103d 93fc 073e
00000230: 046e af3d d453 b8bc b385 f23d 5c78 2c3c
00000240: 6022 003e 14a4 ad3b 23c1 a33d d70a bebd
00000250: 7212 f9bc c1f4 263d bc62 1ebd 4f87 b1bd
00000260: 41fb c13c cdda 76bc e277 073c 4bff d9bc
00000270: cb4d 0d3e 375e b83c 99b9 86bd efff 0dbd
00000280: cfda f23d 0a9b 9dbd 6fa1 82bc bd25 a33d
00000290: eebd 96bd e4b7 693d 0173 fc3c fd27 113e
000002a0: a4d2 85bd cf6a c9bc c187 ce3d 8745 643c
000002b0: 4076 1c3d 294a 08bc b323 a03d 520f e43d
000002c0: 9a7e 7fbb 18dc a03d 370f d53d e5e9 bdbc
000002d0: 08f3 acbc 81f6 c2bc b472 02bc ef4e d93d
000002e0: 4d1f e23d 6099 c63c 7b7a 5cbd 56a3 6c3d
000002f0: e9e2 083e 53a6 99bd 91f1 c13d 9555 833d
00000300: f9a5 89bd 3a29 0f3e 6305 90bd 27b3 d33d
00000310: c145 0e3e 18fc 2ebd 1cba 70bd 51fd 273c
00000320: 9dc3 72bd d819 b73d a154 f93d 47ef 023e
00000330: 0876 963c 317c d9bc ec63 d13d 0365 0b3d
00000340: 944a 3d3d b491 71bd 356f 923d 8a51 df3d
00000350: 9007 0b3e 3caf bb3d b7d9 91bd bdec e3bc
00000360: 0dd3 91bd b041 693d 85c1 0e3e 3895 d23d
00000370: ec69 84bd 4afe 46bd 8ba1 083e 8737 063e
00000380: a965 d23d f7ef 7a3d 4ccf 9f3d 0939 d63c
00000390: 82a3 e7bd 1936 77bd 9612 ae3d 4a52 833d
000003a0: 2ae9 d1bd aa70 953d 2468 d2bd 7a09 bd3d
000003b0: ca03 adbd 4f0a b9bc 5e4e 7f3d a75a c03c
000003c0: a0ff 293c d97c 86bd f1ea 57bd ef1a 18bd
000003d0: a1e0 d13d 3584 d7bb f130 bd3d db62 d6bd
000003e0: fde5 903d 45f7 e83c 9f0a b5bc e241 39bc
000003f0: 5c65 76bd 5c3b aebd 6694 923d aadf a0bd
-0.009100253 0.0057286434 -0.00397058 -0.03106347 -0.042989887 0.028928956 0.06510768 -0.06424397
-0.037417147 0.0015480887 -0.0021585703 -0.11852444 -0.047004312 0.028075194 -0.055527378 0.0025400736
-0.06758463 -0.042599898 0.035376217 -0.06984045 0.070007965 -0.062936775 0.10382804 -0.023075357
-0.033572942 0.041461766 -0.04965113 0.05995153 0.0564533 0.111924626 -0.07103462 0.0912838
-0.012726528 0.06123358 -0.08058763 0.077473916 -0.064139634 0.04723641 0.11867711 0.032903127
-0.086874016 0.08895812 -0.108806714 0.0041717975 -0.0137418285 0.096487485 -0.080155104 -0.035689127
-0.055842157 0.013013859 0.07047112 0.050242543 -0.08110358 -0.028591806 -0.044651646 -0.06647336
-0.04888927 -0.023383154 0.030649442 0.09176707 -0.095478706 0.0075292774 0.04787897 0.058169577
0.10035033 0.054691255 0.0011661168 -0.080179766 -0.0303153 0.048484165 0.06792453 0.10418234
-0.09326556 0.08784178 -0.11269128 -0.005011492 0.00052920816 0.09819049 0.06316813 0.13761823
0.13162564 0.104671724 0.06070742 -0.038167626 0.051908057 -0.033075895 0.12779477 0.07209475
-0.031511657 -0.007005332 0.12685114 -0.007432686 -0.07950321 0.027717115 0.026840817 0.093775615
0.06423357 0.06405901 -0.085896805 0.06999899 -0.02723232 -0.032491963 -0.086846925 0.11207328
-0.08760514 0.009094556 0.04373363 0.005450435 0.13591196 -0.06434884 -0.06861402 -0.05623844
-0.019566415 -0.040737092 0.004115815 0.04482576 -0.04864816 0.096161805 0.033586886 0.04593825
-0.06363191 0.07718591 0.06774992 0.05418254 -0.08274918 0.090887904 -0.007658525 0.111393474
-0.08174737 0.047243867 0.027896909 0.07819439 0.1337011 -0.05946241 0.12067343 -0.036286157
0.12519552 -0.07527504 0.035334658 0.13279943 0.08565906 -0.02250091 0.11841907 0.010526743
0.12513113 0.0052991007 0.07995822 -0.09279411 -0.030404303 0.04076076 -0.03866838 -0.08668386
0.023679378 -0.015066815 0.008268328 -0.026610991 0.13799207 0.022505863 -0.06578369 -0.034667905
0.11858141 -0.07695587 -0.015946118 0.079661824 -0.07360445 0.057060137 0.030816557 0.1417541
-0.06534317 -0.024587063 0.10084487 0.013932592 0.03819871 -0.008318462 0.07819309 0.111357346
-0.0038985373 0.078544796 0.104032926 -0.023182819 -0.02111198 -0.023799183 -0.007961918 0.106107585
0.110411264 0.024243057 -0.053827744 0.057772957 0.1336781 -0.07502427 0.09469903 0.06412808
-0.0672111 0.1398057 -0.070322774 0.10336905 0.13893797 -0.042720884 -0.058771238 0.010253266
-0.059268583 0.08940476 0.12174345 0.1278659 0.018366829 -0.026548477 0.10224137 0.03403188
0.0462137 -0.058976844 0.07150117 0.10904224 0.13577104 0.09164283 -0.07121604 -0.027822847
-0.07120333 0.05694741 0.1394101 0.102823675 -0.064655155 -0.048582353 0.13342874 0.1310712
0.102732964 0.061264005 0.078032106 0.026150243 -0.113104835 -0.060354326 0.08499639 0.0641218
-0.10249551 0.072968796 -0.102737695 0.09230323 -0.08447988 -0.022587923 0.062330596 0.023480726
0.010375887 -0.065667816 -0.052714292 -0.03713506 0.10247923 -0.0065770396 0.092378505 -0.10468074
0.07075117 0.02843822 -0.022099791 -0.011307212 -0.060155258 -0.08507416 0.07157211 -0.078551605

bias f4 [6]
00000000: 4127 5d3d c91c a6bc 95e4 94bc c175 283d
00000010: d38d 79bd ff8a c63c
0.053992514 -0.020277398 -0.018175403 0.041127924 -0.06092627 0.0242362

weight f4 [16, 6, 5, 5]
00000000: c2f6 8f3d dc97 303d 4a42 b03d d495 1e3d
00000010: ea6e 82bd 5b18 aa3d 0c75 573d da13 b13d
00000020: 18e0 64bd 5f6b 4c3c 4ba4 813d 25c9 9439
00000030: adee 2d3d ff82 623c 3c10 95bd d2a8 2dbd
00000040: 85aa 943d 81b3 423c 1b32 0dbc 96b9 07bb
00000050: 48a6 4f3c 771f 923d 6e16 abbb 461f 3f3d
00000060: 8fad 89bc 4508 a9bd 973a 46bd c045 84bd
00000070: 01ab 4ebc 5655 fd3c 36cc 8e3b 6a37 a63d
00000080: 77b1 0f3d 6bce a83d b987 b13d 7366 a43d
00000090: 6298 613a 38cd 473d f278 f03c e7f3 13bc
000000a0: e469 c7bb 48e6 16bd 23ef 5bbd 1182 9e3d
000000b0: d5e3 02bc db7e 373c d773 73bd 4b3f cebc
000000c0: 2099 2fbd 9837 fdbc f87a 943d d0bd 89bc
000000d0: d0be 31bc 9719 b2bc 40e7 00bc fcff 87bc
000000e0: 081c 473d a2ec b83d 8f7c f13c 7b9c 2b3d
000000f0: 7aeb 003c 3719 6b3c 0850 253d 48e5 783d
00000100: 7ee9 d0bb 69a4 cfbc 931a 53bd f4fa af3d
00000110: db8a 77bd 42db 903d ade7 013d 3cd2 66bd
00000120: 06a7 3bbc c356 843d 9fe2 3c3b 2a45 ccbc
00000130: 193d 1dbd fe2c 3dbd 7b4f 463d 4648 9c3d
00000140: 6051 d4bc 0c7b 3bbd d7d1 9d3c 1c8b 62bd
00000150: dfca 8c3d 997c b13c 3efb 5ebd 7810 163c
00000160: 3170 443d e250 923d 971e 463d 8347 913d
00000170: 4a2b 09bd b9e5 0abc 8060 a1bc 7e54 693d
00000180: f414 5fbc e643 463d 513b b8bc 7d48 e23c
00000190: 5d68 47bb 6d66 0abc 594e 803d aba3 353c
000001a0: 2de9 d8ba 701b 26bd b621 4abd 1a20 443d
000001b0: 481d fd3c 7af0 d33c abe4 a43d baeb d53c
000001c0: 8c53 343d 13dd 3b3d 6279 203d eee1 663d
000001d0: 8953 123b 86dd c0ba 9a0f cf3c 1ddd eabc
000001e0: 5060 123d 3195 a6bd e019 59bd be96 683c
000001f0: 646e a8bd 3a21 43bd 577f 653a 3183 bfbb
00000200: 6741 71bd 6f15 b83d c347 9c3d d8fa 2abc
00000210: ebdc b23d 5a3b 293d e444 87bd a663 50bd
00000220: cf00 183d 116e 053d 7ff0 603d 5d09 21bd
00000230: 6601 88bd 6d00 aa3d ed02 e0bb 798f fbba
00000240: 5a27 68bd 261b 5c3d 8dec 66bd 9008 843d
00000250: 2f90 dabc ae63 823d 8cb1 bc3d 679d 863d
00000260: bef9 80bc 5050 83bd d4fa c3bb 3d89 463c
00000270: 7672 853c 2910 ca3d 6272 02bc 518f a83d
00000280: cfc3 82bc cd1e 4fbc 4c34 24bd 5194 2b3d
00000290: fd53 0abd 7764 873d e238 6f3c 1b9f 8fbc
000002a0: 02e8 353d 8623 9dbc 6bb6 ac3d dc3e 31bd
000002b0: c110 05bb 96fb b43d 085f 353d 305b e53b
000002c0: 7085 c03c c258 8f3c c703 90bd 1d95 89bd
000002d0: 551a a43d 4cbd bd3c 7e0f 803d 0f09 0a3b
000002e0: a2c8 dc3c b835 a9bd 766a b6bc 86c4 a6bd
000002f0: e65a 5a3d ef0e aabc 02e4 f4bc be89 613d
00000300: e725 67bd eda1 aebc 4df5 c43b ac49 a03d
00000310: 19a0 87bd 7726 833d 4def a1bc 0947 37bc
00000320: bf8c e7bb 72e8 87bc f363 6cbc 0067 783a
00000330: f2f6 003c ed56 c6bb ff00 98bd 48bb 85bb
00000340: ffde 4fbd 20c9 933d 0c6a 693c d636 11bc
00000350: 0af0 12bd b6ac 743d 3f8a e23c 145b 4e3d
00000360: 6458 9ebd 7886 0f3d 6dfa 8dbd dd67 57bd
00000370: 6a92 b1bc 98d3 283d b421 393d 2fc6 70bc
00000380: 5203 a73c 73e0 c1bc 31d8 f7bc 1a59 91bc
00000390: 6868 08bd 9e9c 03bd 9eab 393d 6e6e a63d
000003a0: 007e 373c e4d1 873d 3a00 eebc 1f75 7cbc
000003b0: 9c76 a73c e7ea 8ebd e79a 3abd 7093 4cbc
000003c0: 2029 533c 395d 06bd 0571 333d e432 4dbd
000003d0: 02d8 b83d 7034 9d3c a422 b43c 834a 86bd
000003e0: 62db 863c ebcf 223a 306d a23d 6799 aabc
000003f0: da1c 0c3d 3e38 88bd 2981 643d d867 81bd
0.07029487 0.043113574 0.08606394 0.038717106 -0.063688114 0.08305427 0.05260186 0.086463645
-0.055877775 0.012476771 0.063301645 0.00028378624 0.042463947 0.013825177 -0.07278487 -0.042397328
0.072590865 0.011883617 -0.008617903 -0.0020709983 0.012673922 0.07134908 -0.0052211797 0.046660684
-0.016806392 -0.082535304 -0.04839572 -0.06458616 -0.012614013 0.03092448 0.00435784 0.08116038
0.035081353 0.08242496 0.08668465 0.08027353 0.00086057757 0.048779696 0.029354546 -0.009030319
-0.006085621 -0.036840707 -0.053694855 0.07739652 -0.00798889 0.011199678 -0.059436645 -0.025176665
-0.04287064 -0.030910298 0.07250017 -0.016814142 -0.010848716 -0.021740718 -0.007867634 -0.016601555
0.048610717 0.09029509 0.02947834 0.04189728 0.007868642 0.014349273 0.040359527 0.060765535
-0.0063754907 -0.025346952 -0.051539015 0.085927874 -0.060435157 0.0707307 0.031715084 -0.05635284
-0.011453396 0.06461861 0.00288216 -0.024935324 -0.038388345 -0.046185486 0.048415642 0.076309726
-0.025917709 -0.045771644 0.019265098 -0.055308446 0.06874632 0.021665858 -0.054438822 0.0091592
0.047958557 0.071443334 0.048369016 0.07093718 -0.03348855 -0.008477622 -0.019699335 0.056965344
-0.013615835 0.048404597 -0.022489222 0.027622456 -0.0030427196 -0.008447272 0.06264944 0.011086385
-0.0016548984 -0.04055351 -0.049348556 0.047882177 0.030897751 0.025871504 0.080514275 0.02611338
0.04402499 0.04586513 0.03917826 0.056367807 0.0022327623 -0.0014714457 0.025275994 -0.028669888
0.035736382 -0.08133925 -0.053003192 0.014196096 -0.0822418 -0.04763911 0.0008754632 -0.0058444967
-0.058900263 0.08988463 0.07630875 -0.010435782 0.08733543 0.041316368 -0.06604937 -0.050876282
0.037110146 0.03257567 0.054916855 -0.03931557 -0.06640892 0.083008625 -0.0068362863 -0.0019192538
-0.056678154 0.05373683 -0.056377936 0.06446946 -0.02668008 0.06366669 0.09213552 0.06572991
-0.015744086 -0.06411803 -0.005980829 0.012117681 0.01628993 0.098663636 -0.007961841 0.082304604
-0.01596251 -0.012641621 -0.040088937 0.041889492 -0.033771504 0.06610959 0.014600964 -0.017531922
0.044410713 -0.019181978 0.08433231 -0.043272838 -0.0020304176 0.08837049 0.044280082 0.006999396
0.023501128 0.017498378 -0.070319705 -0.06717894 0.08012835 0.023161553 0.06252955 0.0021062528
0.026951138 -0.08262199 -0.022267561 -0.081429526 0.053309344 -0.020759074 -0.029893879 0.055063
-0.05643263 -0.021317447 0.0060106874 0.07826552 -0.06622333 0.06403821 -0.019767428 -0.01118637
-0.007066339 -0.01659033 -0.014428127 0.00094757974 0.007871376 -0.006052843 -0.07422065 -0.0040811636
-0.050749775 0.07216096 0.014246475 -0.008863172 -0.03587345 0.059735022 0.027653811 0.050379828
-0.07731703 0.03504035 -0.069325306 -0.052589286 -0.021676261 0.041217417 0.045198157 -0.014695688
0.020387325 -0.023666596 -0.030254455 -0.017742682 -0.033302695 -0.032131784 0.045329683 0.081265315
0.011199474 0.0663183 -0.029052842 -0.015408783 0.0204423 -0.06978398 -0.045557883 -0.012486324
0.012888223 -0.032803748 0.043808956 -0.05009736 0.09025575 0.019190043 0.021989174 -0.06557181
0.016462032 0.0006210792 0.07930982 -0.020825101 0.034207202 -0.06651352 0.05578724 -0.06318635

bias f4 [16]
00000000: 2c45 b83b 77cf 8b3d 70c0 4a3d 70d4 4ebd
00000010: dd86 7c3d 776d 6d3d fb6e 9a3d d1d3 13bd
00000020: 2b92 cf3c 0660 dcbc c5ee 163c b789 9fbc
00000030: 554e 91bd 6e98 7b3c cd8d 713c ec20 2d3c
0.0056234803 0.0682668 0.04949993 -0.050495565 0.061652053 0.057965722 0.07540699 -0.036090676
0.025338253 -0.026901256 0.0092122005 -0.019474847 -0.07095019 0.015356166 0.014743281 0.010566931

weight f4 [8, 16, 5, 5]
00000000: 04d9 453d ce9a d5bc 351f 2bbd 2ca4 c63c
00000010: 40be a7bc dd5f 20bc f445 1a3d 7504 243d
00000020: 830a 26bd fae1 ec3b 6de4 1ebd 4f63 933c
00000030: de58 c9bb eb3b 3cbc 4cc1 3d3d f412 f43b
00000040: 8d74 093d e0ce a5bc 0965 b8bc 9623 253d
00000050: 2d01 fd3c 12c2 183d db70 c5bb a751 f1bc
00000060: 41b8 23bd e2a1 013d 59fb 643c 0f02 5abd
00000070: 2d52 21bd a802 293c 392f 1a3d 73c0 dcbc
00000080: a598 21bc 92ad 293d a76d 43bb 4c29 ec3b
00000090: 4087 3d3c c249 803c ea59 d2bc 3da5 1ebd
000000a0: fe50 2a3c 4e87 f43c ae40 01bd 5672 21bd
000000b0: 8b8e cc3c c005 e1bc 5920 d23c 9f32 84bb
000000c0: 42a4 973c f342 ed3c 9fe6 433d beae 883c
000000d0: f9a4 b8bc 1be9 38bc d6a4 2a3d ddd8 b0bc
000000e0: 7731 e43b c042 02bc ec4a e4bc ecf4 3bbd
000000f0: e49f 733b 96f0 013c 7f74 3bbd 401a 4abd
00000100: b4eb 3dbc 0a4f 303d 675f a43c 6e4c f2bc
00000110: d4f4 3b3c 6897 273d fca6 c73c 22c4 073d
00000120: 36b1 74ba 4262 c7bc ab3e 2d3d 964e 483d
00000130: d137 a43c 983d 913b 9bfe 0a3d 05d6 f9ba
00000140: 3995 833c 8827 2a3d afe3 5e3c 1fa8 3b3d
00000150: 2551 eabc 1443 2fbc 53de d03a 02ad d93c
00000160: 32c3 563d a069 c23c c064 9abc a02d 65bc
00000170: 5802 63bd ad40 b83b 1e9a 55bd e5e7 f1bb
00000180: 55ae 25bd 39e1 943c 84a4 7abd 6f50 003c
00000190: 9af0 1dbd 6c75 363b 758e 483d 7ee1 443d
000001a0: 3a46 f6bc a255 0bbd 5413 04bd 9727 1b3c
000001b0: 0feb 493d 86cf 1c3d 631c 36bd 333b 4c3d
000001c0: a809 e83c 1c53 2d3d 2409 dc3c ba37 7c3c
000001d0: 61c9 3b3d 6909 833c fdec d23b 2e1a 13bc
000001e0: 52fe 8b3c 4278 b9bc 5a26 1abd ae29 813c
000001f0: 4b60 41bd dfa3 8b3b 0a3b 3abd a94c 13bd
00000200: 6426 9f3c 23b2 333d 9881 053d 06ed da3c
00000210: 7a8e b7bc 9c64 c6bb 349e f23c 527c 9a3c
00000220: 6c3d 873c 5a39 4b3d d863 533d 7653 663d
00000230: 2405 e1bc b8e9 303d 496a cdbc 2ca8 a03c
00000240: 4bbd 383d aada ffba 63c2 ad3b a723 47bd
00000250: d786 11bd ad15 4aba 9259 4e3d c4d8 70bc
00000260: 83fd d73c 7224 53bb c74b 1e3d abe6 98bc
00000270: 6fa5 fc3c d19f bf3c 592e 063d 5605 13bd
00000280: 90df 403d 4eab 05bc 26bb 833c f3dd 513d
00000290: 268f 60bc e49d 8d3c fe28 a23c 9532 ba3c
000002a0: 76f9 febb 3c9f 2bbd d520 0fbc bfb3 dc3b
000002b0: ad89 b13c 0d3d 493d 7a84 383c 4032 92bc
000002c0: c993 acbc 1307 b63c c101 38bd 8b22 413d
000002d0: 8408 243d 6407 a8bc 5985 6f3c a7b0 ec3b
000002e0: 637c 18bd 044f 5c3d fa41 533d 46d2 97bc
000002f0: 85d8 84bb 6e2e 0bbd 07e9 853c 1c3a 2dbd
00000300: 8716 a5bc 1162 28bd c276 083d 3c2a 453c
00000310: 9987 4cba 6a0a 343d df50 47bd 670b a0bc
00000320: ae1b 063d 7c00 4c3b d254 263d 1c46 16bd
00000330: d81e 15ba d5ab d83c 3d8c c8bb 09f2 fdbc
00000340: 4c8a b5bc 9b3c d9bc 9de1 25bb 1b9a a13b
00000350: b311 943a 5b21 6b3d 77f0 103d 8c61 7abc
00000360: 87f7 903c f867 5e3c 73d4 3b3d a854 d03c
00000370: c3fb 11bc 2bdd 89bc 704c 1e3d 166d 3fbc
00000380: 5150 2c3d 33a3 d4bc 524f 4dbb 3923 3d3d
00000390: 55ee 00bd 91bb 383d 2a24 243c 986c 07bd
000003a0: 8bb5 033d 4a46 963b 78f7 5ebc 40c5 913c
000003b0: 606e f33c d05e 093d 27e0 623d f143 903c
000003c0: 4402 a13c 35e0 203c b009 f9bc 1a1d c5bc
000003d0: ae07 80bc 24a3 02bd b891 ee3c 6b4c 143d
000003e0: 7193 943c f966 193c 8499 b3bc 0b2c 35bb
000003f0: 657f e6bc f32a d6bc 9f08 083d 8a8b 02bc
0.048302665 -0.026074793 -0.04177781 0.024248205 -0.02047646 -0.009788481 0.03766437 0.040043313
-0.04053737 0.007229087 -0.038792063 0.01799169 -0.006144627 -0.011488895 0.04632692 0.0074485485
0.033558417 -0.020240247 -0.022509115 0.04031714 0.03088435 0.037294455 -0.0060254163 -0.02945788
-0.03997064 0.031648524 0.013975942 -0.05322462 -0.03938501 0.010315575 0.03764269 -0.026947236
-0.009863053 0.041425295 -0.0029819997 0.0072070714 0.011567891 0.01566017 -0.02567764 -0.038731802
0.010395287 0.029849675 -0.031555824 -0.03941568 0.024970314 -0.027468562 0.02565019 -0.004034355
0.018510941 0.028962588 0.04782736 0.016684886 -0.022539603 -0.011286045 0.041661106 -0.021587783
0.0069639045 -0.007950485 -0.027867757 -0.045887873 0.003717416 0.007930895 -0.045765396 -0.04934144
-0.011591841 0.043044128 0.020065023 -0.02957746 0.011471946 0.040915877 0.024371617 0.03314603
-0.0009334268 -0.024338845 0.042296093 0.04890307 0.020046147 0.0044323914 0.033934217 -0.0019060975
0.016062366 0.041541606 0.013604089 0.04581463 -0.028603146 -0.010697145 0.0015935398 0.026571754
0.052432247 0.023732007 -0.01884687 -0.013987929 -0.055422157 0.0056229443 -0.05214893 -0.0073823803
-0.04044946 0.0181738 -0.06119205 0.007831677 -0.038559534 0.0027840985 0.048963983 0.04806661
-0.030062784 -0.034017213 -0.032244995 0.009469888 0.049296435 0.038283847 -0.044460665 0.049861144
0.028324917 0.042315587 0.026859827 0.015394146 0.045846347 0.015995698 0.0064369426 -0.00897841
0.017089043 -0.022640351 -0.03763423 0.015766945 -0.047210973 0.0042614783 -0.04546646 -0.03596178
0.019427486 0.043871056 0.032594293 0.02672435 -0.022406805 -0.006054474 0.029616453 0.018858109
0.01650878 0.04961524 0.05160889 0.05623194 -0.027468272 0.04319164 -0.025075095 0.01961144
0.0451024 -0.0019520123 0.0053027137 -0.048617985 -0.035528984 -0.00077089184 0.05037839 -0.014700118
0.026366001 -0.0032217768 0.038646486 -0.018664679 0.030840604 0.023391636 0.032759044 -0.03589376
0.047088206 -0.008158518 0.01608045 0.051237058 -0.013706004 0.017287202 0.019794937 0.022729198
-0.007781203 -0.041899905 -0.008735855 0.0067352946 0.021672094 0.04913049 0.011262054 -0.017846227
-0.021066563 0.02222017 -0.044923548 0.047152083 0.040047184 -0.020511337 0.014619195 0.007223207
-0.037228 0.053786293 0.051576592 -0.018532883 -0.0040541315 -0.033979826 0.016346468 -0.042291746
-0.020152343 -0.04110915 0.03331638 0.012033995 -0.0007802188 0.043955244 -0.04866111 -0.019536687
0.03274124 0.0031128218 0.040608235 -0.036687955 -0.0005688495 0.026449123 -0.0061202333 -0.0309992
-0.022160672 -0.026518157 -0.0025311478 0.004931701 0.0011296779 0.057404857 0.035385575 -0.015282046
0.017696155 0.013574593 0.045856904 0.025430992 -0.008910122 -0.016829094 0.038647115 -0.011683723
0.042068783 -0.025956726 -0.0031327796 0.04617617 -0.03147729 0.045100752 0.010018388 -0.033062547
0.032155555 0.004586016 -0.013608806 0.017794251 0.029715717 0.033537686 0.05538955 0.017610522
0.0196544 0.00981908 -0.030400127 -0.024061728 -0.015628662 -0.031893864 0.029122218 0.03620569
0.018136712 0.0093629295 -0.021923788 -0.002764466 -0.028136918 -0.026143527 0.033211347 -0.007967839

bias f4 [8]
00000000: 1277 4ebc 3597 1239 1b53 113c 7fe4 763b
00000010: cfdb 4c3d 6b80 313c 54a0 503d 7840 2c3d
-0.012601631 0.00013979974 0.008869912 0.0037672815 0.050014313 0.01083384 0.05093415 0.04205367

weight f4 [256, 648]
00000000: b9ee 0fbd a6b0 113d aea4 233d 45a1 02bd
00000010: c9bb 1f3d d0ff 01bd cb35 00bd 1f4b 1e3c
00000020: 8431 573c 0fe9 f9bc b38d 2b3d f78c c73c
00000030: 3161 ad3b 94f5 0c3d 75ff 5bbc 9603 cdbc
00000040: 7bb0 ac3c 4917 febc 12be 0fbd f33e 3cbc
00000050: 15e7 433c a452 bebc 7b41 353c 7a2e 79bc
00000060: 21b2 003d e48c 8bbc 0a11 6f3c 4b1a ba3c
00000070: 9345 f1bc 8107 513c ba11 0bbd 16c7 933c
00000080: 2715 adbc 6941 1ebc 9da7 02bd 6af4 82b8
00000090: cae4 083d bbc6 79bc 83ec 153c ac53 023d
000000a0: d6f6 03bd 6255 8e3c ccf7 85bc 4db1 79bc
000000b0: 7e0a b93a 8eb7 e7bb 0a3f 8c3c 4a9c e4bc
000000c0: a100 9d3b 1da0 3abc 63f2 d1ba 8386 19bd
000000d0: 87a3 423c 4dbe eabb 50d7 0dbd e1af 9e3b
000000e0: d0f5 a73c ea58 a5bc 9e1b d23b 1bff 8a3c
000000f0: 7193 c83c d66f fbbc 95ed adbc c9b9 c53c
00000100: 7c9e 233c 623c ebbc c254 923c f75c 1c3d
00000110: 2137 00bd 23a7 7dbb 1bc2 2b3d e26c 18bd
00000120: c9ac 3d3b 7073 013d 4e24 f93c c930 df3c
00000130: ccda 163d e55d b03c 1dc3 a1bc bc8d 1c3d
00000140: 1b51 ca3c 30b3 0ebd 2042 4bbc 7c43 0ebb
00000150: 168e e33c 4b84 07bc 1774 0d3d 5acb d7bc
00000160: 8e6f 6cbc 83c8 0d3d 590a 1fbc 3e51 ef3c
00000170: b71b d7bb 5eaa 87bb cbfd ba3c 8c5a 0c3d
00000180: 2794 adbc ad07 013d a5ef febc 5a50 01bc
00000190: 013a 243d 75f9 94bc 2151 a73c 7e77 15bd
000001a0: 624d ad3b 6349 0e3d 31fe 0a3d aa61 203c
000001b0: a2f0 5a3c 19d7 1abd fa0d 9cba 77ec 2f3c
000001c0: 265a e3bb 9893 13bd 1d23 d5bc 4999 86bc
000001d0: 852c 8ebc a9b5 e73c 8299 28bc 8f65 f3bb
000001e0: 3dfb 3ebd 2135 a8bc 5a6f 98bc 8ba0 53ba
000001f0: 5853 4e3c 9e3f 4f3c 87ce 173d b65d 1cbd
00000200: 381e 98bb e31e 0b3c fe00 1ebd e95e cc3c
00000210: a8fc 85bc 9599 d2ba f4d1 ccbc 9d88 bd3c
00000220: 4101 013d 5a9e 0c3d aedc e83c 4beb 11bd
00000230: 6800 95bc fe3e 57bb d6d1 fc3c d5bd edbb
00000240: cad7 85bc d812 75bc 0b6a 103d c5be 8c3c
00000250: 64e6 36bc 108e 1e3d 71f4 cd3c b62c 0a3a
00000260: 03f4 d4bc a9e5 c63c 69a7 d0bc 6945 1fbd
00000270: a709 c3bb 6116 16bc 0f2c 563b 0035 8c3c
00000280: 427e 34bc d0c2 30bc ae58 283b 4bd2 f4bc
00000290: eecc 47bc 5809 bb3b 3ef0 37bb c328 143c
000002a0: 66b8 a9bc fd77 c0bc ed94 033d 79e9 193d
000002b0: be51 d13c 9945 423c 135d 0fbd 56fa 3f3c
000002c0: 1a39 9fbc 7279 8a3b 528a 12bd e51e 68bc
000002d0: 7dd7 ac3c 2a46 083d 414f ed3c df7f 0e3c
000002e0: 8f91 debc d5bc 18bd f679 4b3b 016e b6bc
000002f0: b40f 823c 14f7 bdbc 416f b6bc cb68 f0bb
00000300: 6ff2 11bd 35ae b03c aba0 e2bc 0fa6 f53b
00000310: 603a a43c b94d 8b3c ebc2 06bd 37a6 fa3c
00000320: 9b3c 933b 8533 b33a 39d3 823b f410 5ebc
00000330: 8ab3 fbbb 7c53 373c 7edc 51bc d74b 53bc
00000340: 7e7c 2cbc b97e 29bc 7b57 193c bcc4 493c
00000350: 0c0f 023c 0a54 8b3c 9332 d03c 3843 d5bc
00000360: f289 113b 400b 013d ba56 183d 3603 8d3b
00000370: bc64 07bd 406d 0a3d a909 c5bc 8f32 be3c
00000380: c52e 03bd ad4a 833b 18ca aa3c da84 1a3d
00000390: 582d 1cbc 3cb8 91bb b7e9 aebc 37b4 1b3d
000003a0: 0a07 f53c 6505 bc3c 94af a63c 1bf8 1bbc
000003b0: 1637 97bc e7b3 84bc 3eaa c3bc 962f 003d
000003c0: f1aa f53c 4008 a23c ecd5 1e3d 27c1 943b
000003d0: a4c8 c13c 9fe2 a0bc 7317 fe3c 7f19 003d
000003e0: 05f8 56bc 2102 09bd 195a eabc 5f13 ed3a
000003f0: 021e 83bb 0f45 d63b 879a 113d 52c6 ec3b
-0.035139773 0.035568856 0.039951973 -0.03189208 0.038997445 -0.031738102 -0.0313013 0.009661465
0.013134364 -0.030506639 0.04188318 0.02435921 0.005291127 0.03441389 -0.013427605 -0.025026124
0.021080246 -0.031016963 -0.035093375 -0.011489618 0.01195695 -0.023232765 0.011062975 -0.015208835
0.031419877 -0.017034955 0.014591465 0.022717616 -0.02945212 0.012758137 -0.033952452 0.018039268
-0.02112825 -0.00965915 -0.03189813 -6.244409e-05 0.033421315 -0.015245135 0.009150627 0.031818077
-0.032217823 0.017374698 -0.01635351 -0.015240026 0.0014117507 -0.007071442 0.017119903 -0.027906556
0.0047913347 -0.011390713 -0.0016017671 -0.037481796 0.011879808 -0.007163799 -0.034629166 0.0048427437
0.020502955 -0.020184 0.0064119836 0.016967347 0.024484368 -0.030692976 -0.021231452 0.02413644
0.009986516 -0.028715316 0.017862681 0.038174596 -0.031302575 -0.0038704358 0.04193316 -0.037213214
0.00289421 0.03160423 0.03041282 0.027244942 0.036829755 0.021529147 -0.019746358 0.038221106
0.024696877 -0.034838855 -0.012405902 -0.0021707704 0.027777713 -0.008271287 0.03453454 -0.026342083
-0.014430894 0.03461505 -0.009707057 0.029213544 -0.006564583 -0.0041401824 0.022826096 0.03426604
-0.021188809 0.03150146 -0.03112013 -0.007892692 0.04009438 -0.018185357 0.020424427 -0.03649091
0.0052887658 0.034737956 0.033933822 0.00978891 0.013363035 -0.03780279 -0.0011906021 0.01073753
-0.0069382368 -0.03602943 -0.02601772 -0.016430514 -0.017355213 0.028284865 -0.010290505 -0.007427878
-0.04662632 -0.020533146 -0.018607784 -0.0008072934 0.012593113 0.012649445 0.037062194 -0.038175307
-0.004642274 0.008491251 -0.038575165 0.0249476 -0.016355827 -0.00160675 -0.025002457 0.023136431
0.031495336 0.034330703 0.02842554 -0.035624783 -0.01818867 -0.0032843943 0.030861776 -0.0072552958
-0.016338248 -0.014958106 0.03525738 0.01718081 -0.011163328 0.0387097 0.025140973 0.00052709447
-0.02599526 0.024279432 -0.025470452 -0.038884554 -0.0059520784 -0.009160609 0.003268007 0.017115116
-0.01101643 -0.010788634 0.0025687623 -0.029885432 -0.012194855 0.005707901 -0.002806678 0.0090429215
-0.02071781 -0.023494715 0.03212445 0.037576173 0.025551673 0.011857414 -0.035000872 0.0117174
-0.019436408 0.004225903 -0.035776444 -0.014167522 0.021098847 0.03327004 0.028968455 0.008697479
-0.027169017 -0.03728946 0.0031048036 -0.02226925 0.015876628 -0.023189105 -0.022269847 -0.007336711
-0.035631593 0.021567443 -0.027664503 0.0074966024 0.020047367 0.017004834 -0.032900732 0.030596836
0.0044933087 0.001367197 0.003992465 -0.013553847 -0.007681315 0.011189338 -0.012808917 -0.0128965
-0.010527728 -0.010345154 0.009359236 0.012314972 0.007938158 0.017007846 0.02541474 -0.026033029
0.0022207466 0.03150487 0.037192084 0.0043033613 -0.033055052 0.033795595 -0.024052458 0.023217468
-0.032027025 0.004006705 0.020848319 0.037724353 -0.009532295 -0.0044470113 -0.021351678 0.038013663
0.029910583 0.022951791 0.020347394 -0.009519602 -0.018458884 -0.016199065 -0.023884889 0.03129538
0.029988738 0.019779325 0.03877823 0.004539627 0.023655243 -0.019639311 0.03101704 0.031274315
-0.013120656 -0.033449296 -0.028607415 0.0018087438 -0.00400138 0.006538994 0.03554776 0.00722579

bias f4 [256]
00000000: 0d4c e2bc 945b 933c 26da dfbc c773 1dbd
00000010: e4b5 60bc ff89 9c3c 0477 a13c bb22 16bd
00000020: c1d1 183c 33ea 50bc 0a64 10bd cf56 4f3c
00000030: a56f a13b c5a7 44bc 889b 1d3c b9b3 6a3c
00000040: 4707 013d d237 173d 6607 cc3c 3a13 2e3c
00000050: 9640 893c ffed 323c ff11 bf3c 7e91 1abc
00000060: 8db8 653b 87cd 04bd c299 08bc 87a1 c53c
00000070: 9317 74ba d702 c83c 00e4 483c 3d37 043d
00000080: e4d2 8cbc b774 adbc b907 59bc 7f01 8b3b
00000090: 2691 fabc 4a8f 17bd 542d 9f3b 8c49 203d
000000a0: fb17 f6bc 9f0e a43c ffd6 e2bc 2f21 f2bc
000000b0: 0de9 233d 86a2 c23c e918 3639 70df ad3c
000000c0: c14c bb3b 7b50 2fbc 1d24 01bd 15c5 263c
000000d0: 229b f43c 9c52 07bd afe4 b83c 7353 bebc
000000e0: 7112 423c 03c4 ba39 49dc 2a3c 08b2 07bd
000000f0: 68c0 a0bc 8965 80bb a649 0abc b095 833c
00000100: 3859 cc3b 5df1 35bc 7d28 16bd 72fa 083d
00000110: a9b1 523c c662 0fbd 9c77 fd3c 8999 583c
00000120: 38f2 e1bc 6134 1fbd 98dc e2bc 9afa b6bb
00000130: c879 3cbc d62d 873c 550a bbbc 0708 0cbd
00000140: 6512 893c 9f84 19bd b32e 133c fa7f ce3c
00000150: 8257 c03c f97e e93c 2ced 923c 9507 013d
00000160: a66c d83c bd68 02bd 1c9f a7bc 1a0a 3ebc
00000170: e5d1 c73c 1219 b6bc e9fe 903c dbeb 0ebc
00000180: 80be 5cbc 8f2c d53c 411c 083d 3cbd 9c3a
00000190: e759 3c3c e710 373c a2bb c2bc bc8d 693b
000001a0: e0ac 053d 1aca 1ebd b75b 94bb f445 df3c
000001b0: 0135 bcb6 955d 6dbc 18d5 9e3c bbb9 f7bc
000001c0: 3388 063d 0444 083c 3a29 efbc 509c a3bc
000001d0: faa7 d73b 0949 1cbd 313c 8a3c c039 f9bc
000001e0: e852 983c 95ac b7bc 136c cc3b 38fe 483c
000001f0: 7e4c 05bd 36ca c6bc 1296 433c 3f5d e03c
00000200: 5543 013d 6369 0a3d 7e08 883c 6a06 c039
00000210: 841f 8d3c 8f17 1abd 6a6e 9ebc 563e c23b
00000220: 62bc 0ebd e629 f2bc dd75 fd39 0936 38bc
00000230: 313f 70bc 607e c13c 6096 b7bc 601b 163d
00000240: 3560 b2bb f0e4 bdbc 06db 1c3d f538 a4bc
00000250: 9ede 1cbd a546 adbc 7c4b 163d 9658 75bc
00000260: 9ed1 c73c 0534 d03b 1bfc ce3c 4dd8 00bd
00000270: c1c6 f1bc 34ca c83c 34b1 083d 238c 173d
00000280: 53a5 45bc a9a9 bfbc d695 96bc 0183 ffbb
00000290: 968f d6bb 372f 07bd 5aab 08bc fb1f 373a
000002a0: bbed c63c 2150 ba3c af8e e7bb 5972 743c
000002b0: 5da0 06bd 5abc d73c 3591 a5bc 9a7d 7ebc
000002c0: 51e3 863c 80f8 993c 68d6 18bd ac05 4b3c
000002d0: 5159 c03b 400f c63c 1d8d d43a 80f6 5f3c
000002e0: 0862 853b d31e e1bc 329a 09bd 12e7 bebb
000002f0: 39d5 7fbc 8b03 483c 4a3e 13bc 4add 3b3b
00000300: 89f5 103d 6504 fc3c 454d bcbc 5836 63bb
00000310: f810 b0bc 38d9 473c 8b41 7c3b d1ae e9bb
00000320: 2d33 2c3d b7ea f3bc 73a8 12bc 4560 193c
00000330: 2d33 d63c c608 c53c a341 2b3b c6d1 07bd
00000340: b316 75bb c69c cbbc 7ee1 403c c5df 5a3c
00000350: 9623 d3b9 3afa bcba 8d86 8d3b b3d0 25bc
00000360: 8c68 ebbc 9803 933c e2a3 f9bc 6720 883b
00000370: 3081 fb3c bf19 43bc d7da ba3c 98de e6bb
00000380: 035c 1f3c d8ad 753c 4b2e 0ebd 10be afbc
00000390: f2cf 653b 635e 0cbd a739 ce3b 7045 273c
000003a0: ec43 dd3c 8a2f 53bc 221e be3c 7c35 163d
000003b0: 2d7d 03bc b7ea 2d3c f97a f33c 19b7 0fbd
000003c0: 5a42 debc f697 8ebc 67a4 11bd 29ea 043d
000003d0: dcc2 8e3c 3176 82bc 0cfc f5bc afee e03c
000003e0: 760f bdbc e47f 7b3c bef2 87bc 6ea2 063d
000003f0: 0ec4 cf3c 6213 8eba e5a8 aebc 88a1 8f3c
-0.027624154 0.017988004 -0.027325701 -0.038440492 -0.013715241 0.01910877 0.019710071 -0.036654215
0.009327353 -0.01275115 -0.035251655 0.012654974 0.004926639 -0.01200289 0.009619601 0.014325076
0.03150108 0.03691847 0.024905872 0.010624701 0.01675443 0.0109210005 0.02332401 -0.009434102
0.0035052628 -0.03242257 -0.00833744 0.024124874 -0.0009311374 0.024415417 0.012261391 0.03227924
-0.017190404 -0.021173818 -0.01324647 0.0042421217 -0.03058679 -0.037001885 0.0048576985 0.03913264
-0.030040732 0.020026503 -0.027690409 -0.029556839 0.040017176 0.023759138 0.00017366152 0.021224707
0.005715937 -0.01070034 -0.03152858 0.010178824 0.02985913 -0.033037767 0.022569982 -0.023233151
0.011845217 0.00035622725 0.010428497 -0.03312877 -0.019622996 -0.003918354 -0.008440411 0.016062587
0.0062362216 -0.011104909 -0.036659706 0.03344197 0.01285974 -0.035006307 0.030940823 0.013220199
-0.02758132 -0.03886831 -0.027693078 -0.0055840733 -0.011503644 0.016501348 -0.022832075 -0.034187343
0.016732404 -0.037479993 0.008983302 0.025207508 0.023479227 0.028502928 0.017935358 0.03150137
0.026418995 -0.031838167 -0.020461611 -0.011599088 0.024392078 -0.022228751 0.017699676 -0.0087232245
-0.013473153 0.026022224 0.03323007 0.0011958252 0.011496044 0.011173463 -0.02377111 0.0035637459
0.03263557 -0.038766958 -0.004527535 0.027255036 -5.609007e-06 -0.014487644 0.01938872 -0.03023993
0.032844733 0.008316997 -0.029194463 -0.019971997 0.0065813037 -0.03815559 0.016874405 -0.030423045
0.01859422 -0.02242116 0.0062384694 0.012267642 -0.03254365 -0.024266344 0.011937635 0.027388213
0.031558353 0.03379191 0.016605612 0.00036625873 0.017226942 -0.037620123 -0.019339759 0.005927841
-0.034847625 -0.029560994 0.00048343735 -0.011243352 -0.0146635035 0.02361983 -0.022410572 0.0366472
-0.0054435977 -0.023180455 0.038294815 -0.02004669 -0.03829824 -0.02115185 0.03669308 -0.014974734
0.024391945 0.0063538575 0.025266698 -0.03145628 -0.029513719 0.02451048 0.03337212 0.03699888
-0.012063342 -0.02339633 -0.018381994 -0.0077975993 -0.0065478785 -0.033004012 -0.008341635 0.00069856615
0.02428328 0.022743287 -0.0070665698 0.014919841 -0.032867778 0.02633493 -0.020210842 -0.015532875
0.016465815 0.018795252 -0.03731385 0.012391489 0.0058700223 0.024177194 0.0016216371 0.01366961
0.004070524 -0.027480518 -0.033594318 -0.0058258856 -0.015614801 0.012207876 -0.008987019 0.0028665834
0.03539041 0.030763814 -0.022986064 -0.0034669843 -0.021492466 0.012197785 0.0038491215 -0.0071314354
0.042040993 -0.029775007 -0.008951294 0.009361331 0.02614745 0.024052035 0.0026131652 -0.03315904
-0.0037397563 -0.024855029 0.0117725115 0.013359015 -0.0004027157 -0.0014417835 0.004319018 -0.010120559
-0.028736375 0.01794605 -0.030473653 0.0041542533 0.03070125 -0.011907994 0.02280943 -0.007045578
0.009726527 0.014995061 -0.034712117 -0.021452934 0.0035066572 -0.0342697 0.006293494 0.010209426
0.027009927 -0.012889752 0.023207728 0.0366721 -0.00802545 0.010615042 0.029721724 -0.035086725
-0.027131248 -0.017406445 -0.035557177 0.032449875 0.0174269 -0.015925499 -0.030027412 0.027457563
-0.023078661 0.015350316 -0.01659524 0.03286975 0.02536204 -0.0010839517 -0.02132077 0.017533079

weight f4 [64, 256]
00000000: 0b63 413d 5107 0abd faad cbbc cc84 acbc
00000010: 8079 673c 88b8 753d c621 d13c 6912 dabc
00000020: c580 6a3d 9831 9cbc bed8 66bd 2073 273d
00000030: 0be2 373d 5ce8 70bc 19bd 5b3d f12c 80bd
00000040: 45b6 ccbc 0345 11bd 3f7b 333d 4d25 843d
00000050: 192d f43c 70c3 ba3c 2c40 803d 6723 70bd
00000060: 9e7e d03c 9422 4bbd 1053 64bd 367c dbbc
00000070: b340 6abd 2e2b 5cbd 8534 0fbd c425 68bd
00000080: 9335 6abc df4b 0e3d 9d65 98bc 98ad 513d
00000090: b500 babc 2a2b 43bd ebbe 603d 4968 0abc
000000a0: ba6e 603d 93dd 803d e9af 833c ff75 d13c
000000b0: d1ef 51bd fc1c 37bd 1d8c f43c 333c 6f3d
000000c0: 0144 413d 7934 b2b9 3f68 5d3c 888a 053d
000000d0: f2b9 27bd dac4 59bd 1689 773d 84b5 b83c
000000e0: c3c0 9f3c b546 11bd b56b 61bc 8223 623d
000000f0: 61bb 84bc 47a4 17bd 86b6 8a3b 3890 37bd
00000100: c53e 323d 4374 c73b e4df c33b 7240 6d3c
00000110: ca13 033c 0037 d03c c24c a63d 54f0 e73c
00000120: f529 1d3d ce10 493c bb91 6bbd 5c7c 61bd
00000130: 4bf6 3abd 7b6a 2f3d ff62 3cbc e97e c23b
00000140: c2cd 543d c4f6 9dba 75b5 12bd 8682 15bd
00000150: dff5 7c3d e1b7 213d 2c18 b0bc 5549 313d
00000160: 5d0d 44bc b320 6d3d 94a7 80bd 8213 b83c
00000170: f761 65bd a6f4 13bd 8eeb 5b3d 003e fcbc
00000180: ace5 513d 575f 11bd e665 073d 7082 1a3d
00000190: bcb0 6bbd baf3 313c 4471 4abb eb1c 65bd
000001a0: 25cf 34bc c575 ce3c f36b efbc 4be0 523d
000001b0: 0e3d 57bd 8381 873d e1bb 6cbc 9c4e 223d
000001c0: 1411 2b3d cdfc d63b 0005 033d 28a4 f5bc
000001d0: be63 cf3c 27bb 90bb 509b 023d d61a 4d3c
000001e0: ee56 893c ff06 52bc 2c15 a7bb 1c12 0ebb
000001f0: d895 a7bc 6865 773c 25f5 373d 0772 613d
00000200: b65b 1cbd 4f4a 8a3c ce54 d93c 8517 fe3b
00000210: 4970 2abd ac01 9a3d a5a2 6bbd 3e4e 84bc
00000220: abd3 42bd 08ac f63c 975c ed3b ff72 243d
00000230: eb61 d3bc 80f2 243b d6a0 45bd ef47 a5bb
00000240: 7ded 2cbd 6898 0bbc bad6 5c3c f17c 963c
00000250: 0084 3cbd e0ec 443b 9e5b 65bd 2e56 c6bc
00000260: b2fa 003d c8df 98bb 7a9c 1abd 5118 15bd
00000270: 6536 133c 0bd1 383d 2f7a e03b 61ac 1bbc
00000280: 63ac e63b 65bc 263d 9b64 3e3d a6db 11bd
00000290: bea9 883d d0d8 14bd 43b3 d6ba 84cb d8bc
000002a0: c5c5 2bbc 749d 883c 3ebf 453d dce3 323c
000002b0: 9cfc debc a631 4bbd 50f6 2d3c 110c 663d
000002c0: 4b22 853c 9333 3abd 064a 46bc f8aa 0a3d
000002d0: 6881 5dbd 616d 66bc 1ca6 d13c 569d d63c
000002e0: 4237 a1bc 17d0 3c3c 2bbb a63b e954 92bb
000002f0: fc78 83bc 37cc 8c3d 223d 65bc 41c1 563d
00000300: 260b 573d 26ef 4c3c 3c7e 2d3d 9e41 7c3d
00000310: 6cf3 763d c149 9c3a a26d 01bd ce18 8ebc
00000320: beec a9b8 be47 0ebd 5490 713c e5b4 c23c
00000330: 80d7 683d 4d5a 933b 1bf4 383d a4a6 8c3d
00000340: 80d2 573d ba26 603d 8e6e 9f3c f32b aaba
00000350: 21af 24bc 5b0b 0ebc 0c7f f03c f1c9 443c
00000360: bae7 5d3d 6ff9 203d 4507 243d 8170 5fbd
00000370: 9391 5cbd 4cb1 2bbd eff1 5bbd 6739 d8bb
00000380: b01c 0e3d aae2 57bd 89f1 853c be03 0e3d
00000390: a666 7c3d d18e e43c 7f86 743b 3089 963d
000003a0: 10dd f1bc 6ed2 6bbd c236 093d 4d4c 8d3b
000003b0: b712 69bd 9b7f 53bc 7095 263d 553b 753d
000003c0: 7c18 643d f062 553d fa63 203c eb92 2d3c
000003d0: 1d43 95bc b6cc 823c 4a74 4b3d 3a08 3bbd
000003e0: 2050 813d d248 78bd ef98 4bbd 93cd 0dbd
000003f0: abde 63bd 2439 3f3d e9b2 1a3d 0129 0cbd
0.047213595 -0.033698384 -0.024863232 -0.021059416 0.014128089 0.059990436 0.0255288 -0.026620107
0.05725171 -0.019066617 -0.056359045 0.040881276 0.044893306 -0.014703836 0.053647134 -0.06258572
-0.024989257 -0.035466205 0.04381871 0.06452427 0.02980666 0.02279827 0.0626224 -0.058627512
0.025451 -0.049593523 -0.055743277 -0.026792627 -0.05719061 -0.053752117 -0.034962196 -0.05667664
-0.014295 0.034740325 -0.01860314 0.051190943 -0.022705415 -0.047648586 0.054869574 -0.008447715
0.054793097 0.06292262 0.016075091 0.02556896 -0.051254097 -0.044705376 0.029851967 0.05840702
0.047183994 -0.000339899 0.013513624 0.032602817 -0.040948816 -0.053166248 0.06043347 0.02254749
0.019501096 -0.035467822 -0.0137585895 0.055209644 -0.01620263 -0.0370219 0.0042331843 -0.044815272
0.043516893 0.0060868575 0.0059776176 0.014480697 0.008000324 0.025416851 0.08120109 0.02831284
0.03837009 0.012272073 -0.057512026 -0.05505024 -0.04564504 0.042826157 -0.011498212 0.005935539
0.05195404 -0.0012051691 -0.035817582 -0.03650143 0.06175792 0.039482 -0.021495901 0.043282825
-0.011966077 0.057892513 -0.06281963 0.02247024 -0.05600163 -0.036121987 0.05369144 -0.030791283
0.051244423 -0.035491314 0.033056162 0.03772205 -0.057541594 0.010861332 -0.0030890265 -0.05593578
-0.011035715 0.025202641 -0.029226279 0.051483434 -0.05254846 0.06616499 -0.014449091 0.03962575
0.041764334 0.006560898 0.03198719 -0.029985502 0.025316115 -0.0044168415 0.0318864 0.012518605
0.016765084 -0.012819051 -0.0050989594 -0.0021678274 -0.020457193 0.015099861 0.044911522 0.055040386
-0.0381734 0.016881136 0.026529696 0.0077542686 -0.04161099 0.0751985 -0.057528157 -0.01615059
-0.047565144 0.030111328 0.0072437036 0.04014873 -0.025803527 0.0025168955 -0.04824909 -0.0050439755
-0.042218674 -0.008520223 0.013478929 0.018370124 -0.046024323 0.0030048415 -0.055995576 -0.024211016
0.03148908 -0.0046653487 -0.037746884 -0.036400143 0.008985137 0.045121234 0.006850503 -0.009501548
0.007039593 0.04070701 0.046482664 -0.035609864 0.06673001 -0.03633958 -0.0016380328 -0.026464231
-0.010484164 0.016676642 0.048278086 0.010918584 -0.027220063 -0.049607895 0.0106178075 0.05616385
0.016251704 -0.04545934 -0.0121026095 0.033854455 -0.05407849 -0.014064164 0.025591902 0.02619807
-0.01967967 0.011524222 0.00508823 -0.0044656885 -0.0160489 0.068748884 -0.013991626 0.052430395
0.052500866 0.012508189 0.042356715 0.061586015 0.06029074 0.0011923836 -0.031598695 -0.017345812
-8.102645e-05 -0.034736387 0.014743883 0.023767898 0.05684614 0.0044968487 0.045154672 0.06867722
0.052690983 0.054724433 0.019461896 -0.0012983069 -0.01005152 -0.0086697 0.029357456 0.012011037
0.05417607 0.03930038 0.040045995 -0.05455065 -0.053849768 -0.04191713 -0.053697523 -0.00659864
0.034695327 -0.052706398 0.016350525 0.034671538 0.06162133 0.027900131 0.0037311611 0.07350385
-0.029524356 -0.05757373 0.033499487 0.0043120743 -0.056902613 -0.0129088415 0.04066986 0.059871037
0.055687413 0.052096307 0.009789461 0.01059411 -0.018220479 0.015966754 0.04967145 -0.045662142
0.06314111 -0.06061632 -0.049706396 -0.03461988 -0.055632275 0.046685353 0.03776828 -0.034218792

bias f4 [64]
00000000: 0831 603d c681 96b8 62f0 213d f0ba 34bb
00000010: 0fdd dabc ab18 763b 906c 4dbc f1d5 83bb
00000020: 8950 66bc a1c8 56bd eb06 3e3d 4ab3 843c
00000030: 6385 7dbd 01ac ed3b e4db 4a3c 5c24 263d
00000040: 2ad3 223c f834 cb3c 303e 62bc c70f a9bc
00000050: b123 8a3c 214f a03b 60a6 19bc 3dba 0abd
00000060: a9e1 51bd 2947 5abc a12b 4f3c 583a 24bd
00000070: b192 8fbc 2769 703d b071 263d 473a 9f39
00000080: 56df 36bb 839d e43c 394f 873b b290 0f3b
00000090: fed5 033c d96a f2bc 07c1 643d 2295 2f3d
000000a0: 6142 7e3d 2f26 05bb 60ab 31bd cf0a e53c
000000b0: 90ed 2f3d e51c 7fbd b2ed 5fbd cfbd 1f3d
000000c0: 2e91 62bd c889 b2bb f164 023b 3f65 4abd
000000d0: eaea 72b9 b27d 003d 7283 413d 518f 40bd
000000e0: bfd2 aaba 65d6 073c ad0e c23c 77ea 9c3c
000000f0: e245 14bd 8fbe 133d 1354 1abd 952b 183d
0.05473426 -7.1767296e-05 0.039535888 -0.0027577244 -0.026716737 0.0037551324 -0.01253809 -0.0040233065
-0.014057287 -0.05243743 0.046393316 0.016198773 -0.061894786 0.0072531705 0.012381528 0.04056202
0.009938041 0.02480553 -0.013808772 -0.020637406 0.016862722 0.0048922454 -0.009378046 -0.033869017
-0.051240597 -0.01332263 0.012644679 -0.040094703 -0.017526003 0.05869403 0.040635765 0.00030370263
-0.0027904115 0.027907139 0.004129317 0.0021906313 0.008046625 -0.029591965 0.055848148 0.042866834
0.062075023 -0.0020316949 -0.043376327 0.027959256 0.042951167 -0.062283415 -0.054670043 0.038999375
-0.055314235 -0.0054485537 0.0019896592 -0.049412962 -0.00023166431 0.031369872 0.047244497 -0.047011677
-0.0013032778 0.008290862 0.023688639 0.01915477 -0.036199458 0.036070403 -0.037677836 0.037150938

weight f4 [16, 64]
00000000: ae86 e9bd 62b1 b43d 17c8 f63b 26ab afbd
00000010: 5df0 c9bd 0485 63bd 51eb f6bd 2401 943d
00000020: 1ebc 18bd 8814 063d e648 d33d 31d7 1bbc
00000030: bdd7 91bd 2fde 333d a224 b13d d831 c5bd
00000040: cb9b c1bd 3ef1 f03d 48d5 48bb 3ec5 4b3d
00000050: 6181 663d ed6b 873d d3ed 2abc bdbd 95ba
00000060: edd8 f0bd 502c 843d a7e4 98bd bef3 b93d
00000070: fc48 ef3d a5b1 c3bc 87d7 5d3d 5b55 1b3d
00000080: dd6b 9ebb ac5e a13d 2b44 aebc e3e4 e7bd
00000090: 020b d13d 8fad 0e3d 64f9 d1bd 6002 a93d
000000a0: 0fbf 893d 1f16 8a3d b6b6 e6bd ec5d 4cbd
000000b0: 68d5 d9bc 96b1 e6bc d4e3 7e3d 2095 e43d
000000c0: 01f5 8abd af22 b13c 807e b83d 17bb eb3d
000000d0: 8be8 743d d56a 3d3d 3f69 efbc c60f e03b
000000e0: d8ac 97bd dfc4 f2bd 76f2 af3d 1564 b53d
000000f0: d699 a43c e9f0 6dbc afd2 003e b511 81bd
00000100: 5b1c e73d 8555 a83d 35f3 39bd 6e07 a83d
00000110: 4ce0 b5bc 005f 8dbb 3f11 adbc 3634 4b3c
00000120: 9acd 0f3d b1f7 093e d138 89bc 9500 b63d
00000130: 1a21 ce3d 2dff 8ebd c719 de3d f7eb d43d
00000140: 3c59 52bd e7d0 e4bc fe14 0b3c aa09 6cbd
00000150: a0d0 123d 1549 40bd 7ac7 563d 5116 cebd
00000160: 38b5 26bc 5cc7 90bd a04f a9bd b976 4e3d
00000170: 0722 efbd a1db a43c 5531 ecba 1a0d f83d
00000180: 8ef9 9bbd 55f2 c3bd 511e 8fbd 66e8 373d
00000190: db72 ed3d 4719 8bbb 56d2 173d 2941 b1bc
000001a0: 5dbb 39bd 271d 363d 840e d03d 38d9 e0bc
000001b0: 9387 24bc fd6c 1bbd 623a b73d fd00 393d
000001c0: efe4 943d 433d b53d 01cd 4ebc 80c8 cabd
000001d0: 4c5e e13d 87ea e4bd 0f84 e03d 8573 46bd
000001e0: 5978 e43d 03fb a0bd eaf7 413d c8f7 023e
000001f0: eb0d da3c 108c cfbd b2ce cc3c f3f4 ef3d
00000200: 3c5b c43d ff6b fa3d 5e8f b93c f501 493c
00000210: 6992 70bc 54ff c7bd 2cd0 113d 05a7 11bd
00000220: 032e a5bd e4d2 533d f208 bebd 9cb8 08bd
00000230: f6ad 09be 651c f73d 01b9 443d e8aa 803d
00000240: 4dab fc3d ed2f 003e 7b55 f43c 9f0e 8c3c
00000250: 5832 393d f386 fc3d a3c0 2dbd 0603 753d
00000260: 9eb6 eeba 1197 55bc 1f26 2f3d 17e4 94bd
00000270: 436e 20bc 37bf 83bd 169f 263d 3fd6 883c
00000280: 28b7 f2bd f909 523b 908b 05be 9040 0dbd
00000290: 15d0 ba3d 4dd4 3ebc ba05 cdbd 7bf8 edbd
000002a0: aee3 053d c0ed 1bbd 589a 883d 97a2 b3bd
000002b0: eb20 d9ba 3fd6 c9bd 0017 49ba abf7 b6bc
000002c0: 8132 f53d cdff 833d f30c d83d 187d 9e3d
000002d0: 822d cb3d 038f ca3d 53e6 443d 6d6c fd3d
000002e0: 6c79 ca3d 52e6 c0bd f504 5f3c 1aa4 e13c
000002f0: 58d2 c43d 0717 553d 3151 1b3d 31f4 86bd
00000300: e63c dd3d 4cc4 7dbd 4b02 333d 1084 cebc
00000310: 581a d03c a5db 9bbd ce7b 80bd 9809 c23d
00000320: 11cc 89bd 0940 473d 046a 29bd b489 9b3d
00000330: 28fb 0a3e 5973 fc3d 4c5f 2abc cafd b53d
00000340: 70ed 4b3c d26b 93bc ab1f b9bd 470e b93d
00000350: 6ba6 c13d 7464 cabd f288 dbbb 42b9 babd
00000360: 8649 06bb 0e12 97bd ab68 d43d 038a ab3d
00000370: b6dc c13d 1669 b03c c17f dabd 7efc 66bd
00000380: 08e1 b1bd 2661 593d be5f 25bc aa77 a8bd
00000390: 04bb a8bd f0cf f43d b8e6 3a3d f907 d5bd
000003a0: d505 5f3c f983 843d d0c7 12bd db4a d5bd
000003b0: f709 8abd c583 753c e065 1e3c 7466 d53d
000003c0: b969 babc 12d7 6f3d 2ca6 df3d c9f6 31bd
000003d0: d468 00be 3b74 fdbc 7277 103d ce87 7a3d
000003e0: 4f18 db3d 9de2 953d ec2d 0ebe 91e9 e8bd
000003f0: 9b7a 393d 5fc2 d3bd 6375 84bd 1b08 b9bd
-0.11402641 0.088228956 0.007531177 -0.08577566 -0.09860299 -0.055546775 -0.12056602 0.0722678
-0.037288778 0.032734424 0.10316639 -0.009511755 -0.07121227 0.043913063 0.08649565 -0.096286476
-0.09453543 0.11764763 -0.0030644704 0.04974865 0.05627573 0.06612382 -0.010432678 -0.0011424344
-0.11760125 0.064537644 -0.07465487 0.09079693 0.116838425 -0.023888418 0.05416062 0.0379232
-0.0048346356 0.07879385 -0.02127274 -0.113229536 0.10207178 0.034833487 -0.102526456 0.08252406
0.06725895 0.067425005 -0.11265318 -0.04989426 -0.026591018 -0.028160851 0.062228993 0.11161256
-0.06785012 0.021622984 0.09008503 0.11510294 0.059792083 0.04624446 -0.02922499 0.006837818
-0.07406014 -0.118539564 0.08591168 0.0885698 0.020092886 -0.0145227695 0.1258037 -0.063022055
0.11284705 0.082194366 -0.045397956 0.08204542 -0.02220168 -0.0043143034 -0.021126388 0.012402585
0.035108186 0.13473393 -0.016750725 0.0888683 0.10064907 -0.06982265 0.108447604 0.10396569
-0.05135463 -0.027931644 0.008488892 -0.057626404 0.03584349 -0.046944696 0.05243633 -0.1006285
-0.010175042 -0.07069275 -0.082671404 0.05040619 -0.11676412 0.020124258 -0.0018020073 0.12111874
-0.07615958 -0.095677055 -0.06988204 0.044899367 0.115941726 -0.0042449567 0.037065826 -0.021637516
-0.0453447 0.044461396 0.10159019 -0.027447328 -0.010042089 -0.037945736 0.089466825 0.045166958
0.07270228 0.08849575 -0.012622119 -0.099015236 0.11004314 -0.11177545 0.10962688 -0.04845001
0.11155767 -0.07860377 0.04735557 0.12789834 0.026617965 -0.10134137 0.025000904 0.11716642
0.09587714 0.1222763 0.02265137 0.012268533 -0.014683344 -0.09765497 0.03559892 -0.035559673
-0.08065417 0.051714793 -0.0927905 -0.033379182 -0.13445267 0.12065963 0.048027996 0.06282598
0.123373605 0.12518282 0.029825917 0.017096816 0.045214027 0.12330427 -0.04242004 0.059817336
-0.0018212383 -0.013036505 0.042760964 -0.07270067 -0.009791913 -0.06432956 0.04067906 0.016703723
-0.118513405 0.0032049401 -0.1304152 -0.0344854 0.0912172 -0.011647296 -0.10010858 -0.116196595
0.032687835 -0.038068533 0.06670064 -0.08771246 -0.0016565596 -0.09855317 -0.0007670969 -0.022334894
0.119725235 0.064452745 0.10549345 0.077387035 0.09920789 0.098905586 0.048071217 0.12374196
0.09886441 -0.0941893 0.013612022 0.02754407 0.096104324 0.052023914 0.037919227 -0.065895446
0.10802631 -0.06195478 0.04370336 -0.025209457 0.025403187 -0.07610253 -0.06273614 0.09474486
-0.06728376 0.048645053 -0.04136087 0.07594624 0.13572371 0.12326688 -0.010398697 0.08886297
0.012446746 -0.017995749 -0.09039243 0.09035926 0.0945557 -0.09882441 -0.0066996748 -0.091173664
-0.00204906 -0.073764905 0.10371526 0.08375933 0.094659254 0.021534484 -0.106688984 -0.05639314
-0.086854994 0.053071164 -0.0100936275 -0.08225949 -0.082387954 0.119537234 0.045630187 -0.10401911
0.01361223 0.06470484 -0.035835087 -0.10414668 -0.06740182 0.01498503 0.009667844 0.10419932
-0.02275549 0.058554716 0.10920367 -0.043448243 -0.12539989 -0.030939212 0.035270162 0.06116467
0.10697996 0.07318614 -0.13884705 -0.11372674 0.04528294 -0.10339808 -0.06467702 -0.09034749

bias f4 [16]
00000000: 8c77 b5bd 7545 a1bd 6ae5 d5bc 7d39 db3c
00000010: 4f1e 823b c445 dabd ef7b 953c e4bb 4dbd
00000020: b1cc abbd ce03 d83d 6a68 f6bd d3d6 943d
00000030: f94f 7cbc 1c52 9abd 356e 253d 28cb b93c
-0.088606924 -0.07874576 -0.02611037 0.026760811 0.003970898 -0.10657838 0.018247573 -0.050228015
-0.08388651 0.10547601 -0.12031634 0.07267537 -0.015399926 -0.07535192 0.040388305 0.02267988

weight f4 [2, 16]
00000000: 5ead 083e 81b8 ca3d 51d8 333e 008e 37be
00000010: 3b9e 733e 3cf9 54be 900a 0f3e 0f79 bbbd
00000020: 4731 f6bd e934 513e 069c 52be 064b d6bd
00000030: fe90 f33d 3e94 523e 984f d8bd df84 c5bc
00000040: 0d9e d0bd 6e83 0dbe 6a24 a5bd 618b ed3d
00000050: be60 80bd 33bf 583e 0c13 35bd 7fd1 0ebd
00000060: 7a30 2dbc 57a2 5e3e d6b9 12be 3c28 243e
00000070: 8163 523d 400b 373e 54f4 fbbd 6b91 1abe
0.13347384 0.098984726 0.17562987 -0.17925262 0.23790829 -0.207982 0.13968873 -0.091539495
-0.12021118 0.2043034 -0.2056733 -0.10463528 0.118928894 0.20564362 -0.10562056 -0.02411121
-0.10186396 -0.13819668 -0.08063586 0.1159885 -0.06268452 0.21166687 -0.044207618 -0.03486776
-0.01057064 0.21741615 -0.14328703 0.16030973 0.051364426 0.17875385 -0.12302461 -0.15094535

bias f4 [2]
00000000: 4f08 b5bd 4af4 17be
-0.08839475 -0.14839283
