Saved Models/model2.pt (torch_old, 763093 bytes, 14 tensors)

weight f4 [6, 3, 5, 5]
-0.009901695 0.005002049 -0.0045148986 -0.031171346 -0.043497596 0.029739765 0.06486671 -0.06462304
-0.038676262 0.00020609793 4.974889e-05 -0.11588436 -0.046409167 0.026923953 -0.056662202 0.0029256989
-0.06633811 -0.04058469 0.035783626 -0.06984681 0.06881124 -0.062315717 0.1054747 -0.021378698
-0.031627063 0.039108884 -0.051922206 0.057836782 0.054776255 0.10991488 -0.07191036 0.08946319
-0.014730973 0.05849568 -0.083400756 0.0780222 -0.06325789 0.04626016 0.11619025 0.03038562
-0.08798053 0.08864315 -0.10840752 0.0031348262 -0.015239228 0.094131656 -0.080870785 -0.03544767
-0.05554892 0.0134291705 0.06765021 0.047591243 -0.083564214 -0.030600045 -0.046947077 -0.067621954
-0.05099336 -0.025662981 0.027543524 0.08862149 -0.094969355 0.008497397 0.04685214 0.05536958
0.097558685 0.053426493 0.00094799494 -0.0795382 -0.03138379 0.046910543 0.06519133 0.103478074
-0.09275605 0.088312134 -0.11203215 -0.0156115545 -0.010449031 0.0874898 0.052670788 0.1268091
0.12076551 0.094127625 0.049864657 -0.049415793 0.040607788 -0.044737186 0.11669627 0.060453124
-0.04324383 -0.01831702 0.11566695 -0.01938463 -0.09129636 0.015992684 0.01558001 0.082438
0.053242687 0.052596603 -0.09773536 0.058379173 -0.03542937 -0.041180912 -0.09519602 0.10393264
-0.09608622 0.00060882466 0.03569114 -0.0030142819 0.12693223 -0.07326138 -0.07821607 -0.06505801
-0.029052546 -0.05028867 -0.00473124 0.03581937 -0.058612365 0.08644043 0.023952335 0.03706194
-0.07284058 0.06847716 0.058422763 0.044388212 -0.09210324 0.08489114 -0.014246268 0.10504948
-0.08792616 0.040709894 0.021349756 0.072082 0.1271102 -0.0666317 0.11359756 -0.0441683
0.1181413 -0.08306275 0.027439287 0.12569939 0.0781722 -0.030978883 0.11011897 0.002272462
0.11773279 -0.0025813081 0.07259792 -0.10082684 -0.038966484 0.032701727 -0.049966983 -0.09811362
0.012438979 -0.02643856 -0.0031194678 -0.038351983 0.12642156 0.010630581 -0.07781015 -0.046473797
0.10692192 -0.089075655 -0.027894847 0.06775757 -0.086067215 0.045338884 0.018797282 0.12975039
-0.077358685 -0.036859676 0.08922444 0.0021255082 0.02607348 -0.020572884 0.06629892 0.10135016
-0.014025533 0.068710715 0.094042964 -0.03317978 -0.031597875 -0.03404969 -0.01851762 0.09540935
0.10000708 0.013863391 -0.06474515 0.04716966 0.123167574 -0.08621299 0.08425731 0.05330374
-0.07792342 0.1292282 -0.08116193 0.093027204 0.1283691 -0.053598348 -0.069650255 -8.309491e-05
-0.06746893 0.0810266 0.113639 0.11955515 0.010002547 -0.035407145 0.09357726 0.025100544
0.037047688 -0.06789303 0.062556885 0.09949742 0.12657128 0.08256023 -0.08106247 -0.036992796
-0.080833875 0.047483508 0.13013354 0.09318632 -0.07391909 -0.058129612 0.12359097 0.121256106
0.093414016 0.06364446 0.07920032 0.027454033 -0.11157679 -0.0587982 0.08350111 0.062284444
-0.10277342 0.07139374 -0.102854915 0.08720974 -0.08732518 -0.024067327 0.059578925 0.019678025
0.0031485043 -0.070795365 -0.05524694 -0.04089874 0.09579775 -0.01534748 0.08379348 -0.10855732
0.06737189 0.023534631 -0.02678183 -0.017075595 -0.06640451 -0.09109843 0.06607085 -0.08587228
00000000: b83a 22bc 3ae8 a33b b7f1 93bb 0d5b ffbc
00000010: 892a 32bd cfa0 f33c d6d8 843d 1659 84bd
00000020: 006b 1ebd fe1b 5839 77a9 5038 c854 edbd
00000030: 8a17 3ebd 9f8f dc3c a016 68bd 15bd 3f3b
00000040: 46dc 87bd 223c 26bd da91 123d d80b 8fbd
00000050: e8ec 8c3d c43e 7fbd 1f03 d83d 6122 afbc
00000060: 618b 01bd a330 203d 61ac 54bd 43e6 6c3d
00000070: 115d 603d 0d1b e13d bd45 93bd 7a38 b73d
00000080: 2e5a 71bc 2b99 6f3d 04ce aabd 1aca 9f3d
00000090: 5a8d 81bd 4b7b 3d3d 27f5 ed3d 44eb f83c
000000a0: 232f b4bd 8a8a b53d c304 debd a871 4d3b
000000b0: f4ad 79bc 19c8 c03d 959f a5bd 9331 11bd
000000c0: 4487 63bd 0606 5c3c 318c 8a3d 09ef 423d
000000d0: b723 abbd f2ac fabc 944b 40bd 617d 8abd
000000e0: 6ade 50bd 2c3b d2bc f5a2 e13c 2f7f b53d
000000f0: 4b7f c2bd ab38 0b3c 08e8 3f3d 36cb 623d
00000100: d9cc c73d bdd5 5a3d dd82 783a ece4 a2bd
00000110: 4a8c 00bd 4525 403d 0883 853d 50ec d33d
00000120: e2f6 bdbd fedc b43d 1d71 e5bd 9bc7 7fbc
00000130: 6a32 2bbc da2d b33d 53bd 573d 3fda 013e
00000140: e853 f73d fcc5 c03d e23e 4c3d 3768 4abd
00000150: 5a54 263d 573e 37bd 74fe ee3d b29d 773d
00000160: 7120 31bd 930d 96bc cbe2 ec3d 84cc 9ebc
00000170: 96f9 babd 1703 833c 4c43 7f3c 41d5 a83d
00000180: 0115 5a3d 896f 573d 7a29 c8bd 001f 6f3d
00000190: 631e 11bd 51ad 28bd 22f6 c2bd a3da d43d
000001a0: dac8 c4bd 8899 1f3a df30 123d 428b 45bb
000001b0: 86fa 013e 100a 96bd bf2f a0bd 223d 85bd
000001c0: 9bff edbc 7efb 4dbd 8508 9bbb 55b7 123d
000001d0: 8513 70bd ae07 b13d b037 c43c 43ce 173d
000001e0: 712d 95bd c13d 8c3d b54c 6f3d 6ad0 353d
000001f0: a0a0 bcbd 68db ad3d 2e69 69bc 2f24 d73d
00000200: a112 b4bd 6bbf 263d afe5 ae3c ba9f 933d
00000210: 2d29 023e 3376 88bd d6a5 e83d d2e9 34bd
00000220: 11f4 f13d ce1c aabd 5bc8 e03c 57b7 003e
00000230: bf18 a03d 6dc7 fdbc 0e86 e13d 96ed 143b
00000240: e41d f13d 2a2b 29bb 38ae 943d 4d7e cebd
00000250: 529b 1fbd 3ff2 053d 2eaa 4cbd cbef c8bd
00000260: dccc 4b3c ae95 d8bc fc6f 4cbb f816 1dbd
00000270: a774 013e e32b 2e3c ee5a 9fbd 4f5b 3ebd
00000280: e1f9 da3d 4c6d b6bd bc83 e4bc 7bc4 8a3d
00000290: 0244 b0bd 44b5 393d c2fc 993c 49dd 043e
000002a0: 3b6e 9ebd 2cfa 16bd 4ebb b63d 1c4c 0b3b
000002b0: 0d98 d53c 7788 a8bc bac7 873d ac90 cf3d
000002c0: 59cb 65bc 34b8 8c3d 9999 c03d 85e7 07bd
000002d0: c66c 01bd b077 0bbd 44b2 97bc fa65 c33d
000002e0: 83d0 cc3d 4723 633c 1b99 84bd f934 413d
000002f0: 483f fc3d 7090 b0bd 198f ac3d 0655 5a3d
00000300: 5096 9fbd 6654 043e 3a38 a6bd 0c85 be3d
00000310: 3073 033e f189 5bbd cba4 8ebd 3d43 aeb8
00000320: 262d 8abd 46f1 a53d 90bb e83d 55d9 f43d
00000330: b9e1 233c 1507 11bd 6fa5 bf3d a89f cd3c
00000340: 51bf 173d 800b 8bbd d31d 803d 4ec5 cb3d
00000350: e79b 013e 5615 a93d 1504 a6bd c285 17bd
00000360: 3b8c a5bd 117e 423d ba41 053e 78d8 be3d
00000370: e462 97bd 5119 6ebd 431d fd3d 1f55 f83d
00000380: d94f bf3d 0758 823d c733 a23d 48e7 e03c
00000390: 5f82 e4bd 62d6 70bd a102 ab3d f91d 7f3d
000003a0: df7a d2bd e236 923d 99a5 d2bd 059b b23d
000003b0: 8bd7 b2bd d828 c5bc 0809 743d cf33 a13c
000003c0: 2357 4e3b 29fd 90bd 9e4a 62bd 7085 27bd
000003d0: 9c31 c43d ff73 7bbc eb9b ab3d 4d53 debd
000003e0: 46fa 893d b3cb c03c 9165 dbbc 1ee2 8bbc
000003f0: 16ff 87bd d091 babd 2750 873d cedd afbd

bias f4 [6]
0.049539052 -0.01974207 -0.018672511 0.034438897 -0.0596603 0.024159605
00000000: 76e9 4a3d 1fba a1bc 18f7 98bc cd0f 0d3d
00000010: 5c5e 74bd 5dea c53c

weight f4 [16, 6, 5, 5]
0.065800615 0.04097641 0.08490113 0.037315477 -0.06582458 0.07749468 0.048690423 0.08472386
-0.05768974 0.010056278 0.056889944 -0.005904834 0.038605265 0.011110821 -0.07521325 -0.04888687
0.065780826 0.00628884 -0.012488445 -0.005207651 0.006633387 0.0652351 -0.01106468 0.04198245
-0.019644383 -0.08406946 -0.052382782 -0.07045642 -0.019579675 0.023591636 0.0026873164 0.07686549
0.028865078 0.07515176 0.079069056 0.07847888 -0.003546375 0.042416885 0.021962535 -0.016805667
-0.0073048803 -0.040675458 -0.05954671 0.07041497 -0.015474177 0.010897086 -0.06217676 -0.030015023
-0.049078897 -0.037895374 0.070502184 -0.021237582 -0.017140012 -0.029062757 -0.015558588 -0.018819315
0.04376612 0.083534025 0.021743808 0.03380639 0.0057247155 0.009452215 0.033551205 0.052969575
-0.014564705 -0.027044551 -0.05593541 0.07962417 -0.06785453 0.06282934 0.030451795 -0.059971765
-0.017069893 0.05773051 -0.004738376 -0.026075412 -0.036484208 -0.041146852 0.050361093 0.0756512
-0.026938433 -0.044729717 0.024249433 -0.05380596 0.06754427 0.023385458 -0.052686345 0.013951118
0.05005699 0.07075415 0.052446987 0.07384669 -0.029681249 -0.0058461595 -0.018293303 0.06172971
-0.009503273 0.05267147 -0.018036466 0.032428913 -0.0017393231 -0.007747817 0.0652386 0.014895099
0.000989682 -0.04153513 -0.050706655 0.050833046 0.034661174 0.026610453 0.07788381 0.029144825
0.048245747 0.048973966 0.040150214 0.055700272 0.005589495 0.0024980253 0.026071116 -0.024090951
0.037886955 -0.07966737 -0.050946396 0.02012247 -0.07842759 -0.04915595 -0.0027611607 -0.011349791
-0.0654779 0.08291835 0.074706994 -0.014321577 0.08158912 0.03446503 -0.07336952 -0.052404817
0.033079844 0.026690844 0.04797635 -0.0467239 -0.06744594 0.07947427 -0.012330965 -0.008564757
-0.063823335 0.053297583 -0.058920067 0.05985067 -0.032664686 0.05696915 0.08405818 0.05741836
-0.023799235 -0.07165716 -0.013697229 0.0042002243 0.007944876 0.08988824 -0.016592786 0.07395495
-0.02373784 -0.020702915 -0.048127353 0.034006014 -0.041957155 0.05814766 0.0070224 -0.025139093
0.037175268 -0.026619004 0.07584671 -0.050940868 -0.009566118 0.08075095 0.03659479 0.005369531
0.02128191 0.0146680465 -0.07343084 -0.07027433 0.080348305 0.023142383 0.061897654 0.00096340704
0.02557517 -0.08089466 -0.020327726 -0.079364575 0.054491796 -0.020161236 -0.02849101 0.05692566
-0.05393029 -0.01885373 0.00791334 0.079159446 -0.06476331 0.065865114 -0.017775064 -0.009718082
-0.009060434 -0.019238759 -0.018006146 -0.0029995642 0.004170291 -0.006550052 -0.07473503 -0.005374195
-0.052696384 0.06997837 0.014338415 -0.008097639 -0.03525606 0.05947932 0.027100343 0.0499284
-0.07681804 0.035884388 -0.068657115 -0.05243766 -0.022265917 0.04096121 0.04531824 -0.014590637
0.020189134 -0.027903805 -0.033422004 -0.02051367 -0.037976384 -0.0388427 0.039394002 0.07566417
0.0070837443 0.062184364 -0.03542306 -0.02223966 0.013318677 -0.07427029 -0.050127685 -0.018259384
0.005680355 -0.03974483 0.03703763 -0.05550286 0.08446121 0.0105137 0.014972981 -0.0726165
0.009578641 -0.006728615 0.07946228 -0.023075206 0.033296514 -0.06673436 0.058087017 -0.06525354
00000000: 79c2 863d e1d6 273d a5e0 ad3d 1dd8 183d
00000010: 0acf 86bd 88b5 9e3d 9c6f 473d b483 ad3d
00000020: 144c 6cbd 16c3 243c 6e05 693d 567d c1bb
00000030: 8e20 1e3d 290a 363c 6809 9abd 993d 48bd
00000040: 19b8 863d 9d12 ce3b 569c 4cbc f1a4 aabb
00000050: e25c d93b fb99 853d a248 35bc caf5 2b3d
00000060: 42ed a0bc 9c2c acbd 548f 56bd 754b 90bd
00000070: 8e65 a0bc 3f43 c13c b01d 303b a76b 9d3d
00000080: 7576 ec3c 2ae9 993d f5ee a13d 89b9 a03d
00000090: 4d6a 68bb 54bd 2d3d c6ea b33c 0aac 89bc
000000a0: c75d efbb 4f9b 26bd 40e7 73bd b935 903d
000000b0: 6787 7dbc b189 323c 0fad 7ebd 11e2 f5bc
000000c0: f406 49bd 2e38 1bbd 7363 903d 70fa adbc
000000d0: 3669 8cbc 0515 eebc 73e9 7ebc f72a 9abc
000000e0: 1a44 333d e313 ab3d 1220 b23c 9278 0a3d
000000f0: 6596 bb3b 77dd 1a3c fd6c 093d a0f6 583d
00000100: cda0 6ebc 898c ddbc 871c 65bd ff11 a33d
00000110: 51f7 8abd abac 803d 0b76 f93c f4a4 75bd
00000120: 29d6 8bbc d476 6c3d 6144 9bbb 1a9c d5bc
00000130: 7770 15bd 9a89 28bd 6f47 4e3d 04ef 9a3d
00000140: fdad dcbc 8236 37bd bfa6 c63c a363 5cbd
00000150: a654 8a3d dc92 bf3c a3cd 57bd 3b93 643c
00000160: 8f08 4d3d 8de7 903d a7d2 563d ef3c 973d
00000170: 1726 f3bc 2491 bfbb d6db 95bc 4bd8 7c3d
00000180: 9eb3 1bbc 0abe 573d 36c1 93bc 2ed4 043d
00000190: 00fa e3ba 66e1 fdbb d19b 853d 930a 743c
000001a0: 38b8 813a be20 2abd c8b1 4fbd 5036 503d
000001b0: e0f8 0d3d 2afe d93c 8c81 9f3d 21c1 ee3c
000001c0: 559d 453d ed98 483d 8d74 243d f825 643d
000001d0: 1528 b73b e9b5 233b 1893 d53c 635a c5bc
000001e0: 5a2f 1b3d a528 a3bd 2bad 50bd e1d7 a43c
000001f0: a59e a0bd c057 49bd 97f4 34bb 79f4 39bc
00000200: 4719 86bd 19d1 a93d fbff 983d 0ca5 6abc
00000210: 3218 a73d 342b 0d3d c242 96bd 6fa6 56bd
00000220: bb7e 073d c2a6 da3c d982 443d 8f61 3fbd
00000230: 1921 8abd 68c3 a23d d107 4abc 3253 0cbc
00000240: cfb5 82bd 914e 5a3d 2b56 71bd fa25 753d
00000250: 68cb 05bd 7c58 693d b226 ac3d 842f 6b3d
00000260: 9df6 c2bc fdc0 92bd 586a 60bc 09a2 893b
00000270: 3a2b 023c 5317 b83d 98ed 87bc b175 973d
00000280: dc75 c2bc 2999 a9bc 3021 45bd e449 0b3d
00000290: 44db 2bbd 3e2c 6e3d 291c e63b 80f0 cdbc
000002a0: 1845 183d 1910 dabc 8555 9b3d 5fa7 50bd
000002b0: 35bb 1cbc c160 a53d 6be4 153d e4f2 af3b
000002c0: 6657 ae3c 3f52 703c e962 96bd fdeb 8fbd
000002d0: a78d a43d 1895 bd3c 6588 7d3d 278d 7c3a
000002e0: 0583 d13c 19ac a5bd 5586 a6bc e589 a2bd
000002f0: ca32 5f3d 2d29 a5bc fb65 e9bc e22a 693d
00000300: 02e6 5cbd 2373 9abc f4a6 013c 591e a23d
00000310: a0a2 84bd 4ae4 863d 039d 91bc 9738 1fbc
00000320: 3772 14bc 9a9a 9dbc a081 93bc 5694 44bb
00000330: f0a6 883b d2a1 d6bb ae0e 99bd 041a b0bb
00000340: 2ad8 57bd d250 8f3d aceb 6a3c f6ab 04bc
00000350: a968 10bd 96a0 733d 8a01 de3c b981 4c3d
00000360: c752 9dbd 82fb 123d 1a9c 8cbd dfc8 56bd
00000370: 0367 b6bc f1c6 273d 9e9f 393d 910d 6fbc
00000380: af63 a53c 8596 e4bc 83e5 08bd 490c a8bc
00000390: 208d 1bbd 8619 1fbd 9b5b 213d d1f5 9a3d
000003a0: c11e e83b 08b5 7e3d c517 11bd f32f b6bc
000003b0: 9536 5a3c 061b 98bd b052 4dbd b494 95bc
000003c0: 4522 ba3b 7acb 22bd c5b4 173d f856 63bd
000003d0: 00fa ac3d a741 2c3c 3c51 753c f6b7 94bd
000003e0: bbef 1c3c b77b dcbb 1fbd a23d 3708 bdbc
000003f0: ed61 083d 06ac 88bd a7ec 6d3d a6a3 85bd

bias f4 [16]
0.0032283836 0.06615692 0.047118332 -0.055809777 0.062168457 0.056883197 0.07460073 -0.036385674
0.022204429 -0.03255251 0.005857944 -0.019582918 -0.07149772 0.015603038 0.0016105121 0.009141452
00000000: 4a93 533b 477d 873d 27ff 403d cb98 64bd
00000010: 5aa4 7e3d 5bfe 683d 44c8 983d 2509 15bd
00000020: 10e6 b53c c855 05bd fff3 bf3b 5b6c a0bc
00000030: 666d 92bd e2a3 7f3c d217 d33a 07c6 153c

weight f4 [8, 16, 5, 5]
0.048979662 -0.02614937 -0.04259004 0.02348265 -0.020426597 -0.0101167895 0.03619374 0.03773747
-0.042823087 0.005796587 -0.040699292 0.01499761 -0.009783306 -0.014934384 0.043815818 0.0051752147
0.030746873 -0.02310251 -0.024830684 0.039230537 0.03038194 0.037183866 -0.004969034 -0.027275292
-0.036709722 0.03224652 0.017300278 -0.04977845 -0.03763931 0.009368801 0.0399562 -0.023202885
-0.007876678 0.042356834 -0.0032585629 0.010375972 0.013087783 0.014840332 -0.026899358 -0.03979193
0.011570869 0.027924752 -0.03452198 -0.042107306 0.022843959 -0.028629335 0.023515781 -0.006800054
0.016388671 0.026067883 0.048197225 0.01336109 -0.025464138 -0.011925563 0.043300938 -0.021525031
0.0047355685 -0.008369827 -0.025108492 -0.04134974 0.002893927 0.006144092 -0.045283943 -0.046812292
-0.007846831 0.040388398 0.018727155 -0.029495811 0.010995266 0.040670846 0.020749772 0.030907223
-0.002817945 -0.026698036 0.041370597 0.047320947 0.014939089 -0.0014554493 0.03018205 -0.0011332481
0.012392032 0.03483656 0.0064850347 0.040578213 -0.029308174 -0.01518142 -0.0041397423 0.021462413
0.048797086 0.023403352 -0.021062583 -0.014697864 -0.05263676 0.009996281 -0.046786144 -0.006830882
-0.036722306 0.025926786 -0.052104287 0.017608974 -0.03865875 0.0020563544 0.047667284 0.046822205
-0.03064319 -0.035014134 -0.033906367 0.0072916616 0.04724701 0.037007667 -0.04607716 0.04770025
0.02581905 0.040042996 0.025464606 0.014120908 0.044401236 0.014654483 0.005574725 -0.008939309
0.017124016 -0.022415048 -0.036730222 0.017493648 -0.04465312 0.004145617 -0.046122443 -0.03723512
0.018064575 0.04311531 0.03147665 0.024947274 -0.02480576 -0.008453445 0.027955784 0.017125318
0.014176022 0.046857934 0.049056374 0.05455793 -0.028679851 0.04174722 -0.026445901 0.018810289
0.045225397 -0.0016631321 0.0057859626 -0.047438644 -0.03344598 0.0021058987 0.04973072 -0.015905188
0.024323465 -0.0058693197 0.03623766 -0.020346893 0.028960466 0.02086568 0.029699523 -0.038711485
0.046106182 -0.009227535 0.014620711 0.04940136 -0.015426873 0.017770711 0.020454677 0.023346454
-0.007031729 -0.041239202 -0.0077450653 0.0075529385 0.022649435 0.050554752 0.013237461 -0.017867917
-0.021643683 0.021067685 -0.046077866 0.046597034 0.03911434 -0.022077592 0.0125311725 0.005171273
-0.03857563 0.052101612 0.049340464 -0.021133535 -0.0065129423 -0.03558432 0.0148473615 -0.044000935
-0.021823142 -0.042357504 0.033017956 0.011908744 -0.00070575037 0.04459153 -0.04722662 -0.017200757
0.03574603 0.0058792853 0.0427428 -0.034185827 0.002673829 0.029783942 -0.0039172857 -0.030511238
-0.022103233 -0.02564834 -0.0032506813 0.0024616043 -0.0028767185 0.05288271 0.031886894 -0.019830966
0.0122607425 0.007497851 0.039914466 0.020385709 -0.012868729 -0.020699546 0.03508322 -0.014669173
0.04010969 -0.027010528 -0.0036670147 0.043628115 -0.036136776 0.03913908 0.006034737 -0.036640912
0.02735368 -0.0006615442 -0.01949328 0.017233755 0.028513692 0.031098288 0.053538743 0.015819425
0.02707247 0.016817924 -0.023721388 -0.01710022 -0.008183127 -0.023906311 0.035177335 0.041457918
0.024224635 0.016527683 -0.023709314 -0.004190799 -0.029810045 -0.02969546 0.028141668 -0.012698278
00000000: e69e 483d 3437 d6bc e572 2ebd b05e c03c
00000010: ae55 a7bc e4c0 25bc e33f 143d 9b92 1a3d
00000020: 4367 2fbd 4cf1 bd3b 4db4 26bd 89b8 753c
00000030: 294a 20bc 59af 74bc 3778 333d d994 a93b
00000040: dee0 fb3c 7a41 bdbc b869 cbbc 33b0 203d
00000050: 8ce3 f83c 1c4e 183d 47d3 a2bb 6f70 dfbc
00000060: ef5c 16bd ed14 043d 50b9 8d3c 7de4 4bbd
00000070: ad2b 1abd 997f 193c 1da9 233d fa13 bebc
00000080: 2f0d 01bc 5c7e 2d3d 9d8d 55bb fbff 293c
00000090: 246e 563c dd24 733c 0b5c dcbc ddfc 22bd
000000a0: be93 3d3c 73c2 e43c eb66 0dbd b678 2cbd
000000b0: 4123 bb3c 1188 eabc 2ba4 c03c fdd2 debb
000000c0: 8941 863c 508c d53c 746a 453d 79e8 5a3c
000000d0: 2b9a d0bc 7063 43bc 535c 313d 4355 b0bc
000000e0: d42c 9b3b 9921 09bc 53b0 cdbc 585e 29bd
000000f0: 0aa8 3d3b 6154 c93b a87b 39bd 3fbe 3fbd
00000100: ff8f 00bc 4e6e 253d b169 993c 33a1 f1bc
00000110: 7d25 343c 7996 263d 6dfb a93c 2531 fd3c
00000120: 46ad 38bb d7b5 dabc 3774 293d 9cd3 413d
00000130: 15c3 743c c6c4 beba 5940 f73c 7f89 94ba
00000140: f307 4b3c c8b0 0e3d 6a80 d43b 5735 263d
00000150: b217 f0bc 7ebb 78bc ada6 87bb f1d1 af3c
00000160: 74df 473d 63b8 bf3c 708b acbc 4fcf 70bc
00000170: a599 57bd 71c7 233c d4a2 3fbd 97d5 dfbb
00000180: 216a 16bd 6964 d43c 4e6b 55bd b240 903c
00000190: a358 1ebd e7c3 063b c53e 433d a4c8 3f3d
000001a0: 6d07 fbbc fb6a 0fbd 67e1 0abd e4ee ee3b
000001b0: 1586 413d 5a95 173d 67bb 3cbd 5661 433d
000001c0: 7982 d33c 2004 243d 269b d03c 625b 673c
000001d0: 12de 353d 5b19 703c 2fac b63b 2e76 12bc
000001e0: aa47 8c3c c39f b7bc 6e72 16bd d74e 8f3c
000001f0: 31e6 36bd f5d7 873b e3ea 3cbd da83 18bd
00000200: 29fc 933c ae99 303d a9ed 003d 3a5e cc3c
00000210: 7335 cbbc 5180 0abc 8703 e53c 654a 8c3c
00000220: 8c42 683c 1bee 3f3d 56ef 483d 2378 5f3d
00000230: 02f2 eabc 22ff 2a3d 13a5 d8bc 0918 9a3c
00000240: 443e 393d 74fd d9ba 2c98 bd3b 064f 42bd
00000250: a7fe 08bd 1e03 0a3b 71b2 4b3d 994b 82bc
00000260: 0142 c73c 6c53 c0bb f16d 143d 87ae a6bc
00000270: 803e ed3c 81ee aa3c 6a4c f33c ef8f 1ebd
00000280: d6d9 3c3d 162f 17bc b58b 6f3c 1559 4a3d
00000290: ffc0 7cbc e293 913c 9190 a73c 1041 bf3c
000002a0: 6b6a e6bb 70ea 28bd 51ca fdbb a47e f73b
000002b0: 4f8b b93c 8012 4f3d f0e1 583c bd5f 92bc
000002c0: 184e b1bc 2396 ac3c 25bc 3cbd 88dc 3e3d
000002d0: 5c36 203d 11dc b4bc 8c4f 4d3c c873 a93b
000002e0: 7b01 1ebd 8068 553d 3a19 4a3d 3c20 adbc
000002f0: 856a d5bb ddc0 11bd 5942 733c 533a 34bd
00000300: 72c6 b2bc 107f 2dbd d63d 073d e51c 433c
00000310: 1b02 39ba 9ca5 363d b370 41bd 9ae8 8cbc
00000320: 6e6a 123d 05a7 c03b 1313 2f3d 7006 0cbd
00000330: 683b 2f3b 74fd f33c 935c 80bb b4f2 f9bc
00000340: d711 b5bc 781c d2bc 6209 55bb de52 213b
00000350: 5487 3cbb 8a9b 583d d59b 023d 8d74 a2bc
00000360: 48e1 483c 88b0 f53b 5a7d 233d eeff a63c
00000370: 5dd7 52bc 1892 a9bc 6cb3 0f3d f956 70bc
00000380: 0f4a 243d 2f45 ddbc 4c52 70bb 65b3 323d
00000390: 2804 14bd 4d50 203d 0bbf c53b c814 16bd
000003a0: d314 e03c 7b6b 2dba 5fb0 9fbc ce2d 8d3c
000003b0: 8c95 e93c d6c1 fe3c 714b 5b3d bd97 813c
000003c0: 16c7 dd3c bec5 893c 5b53 c2bc c315 8cbc
000003d0: 8612 06bc 2bd7 c3bc 1c16 103d c7cf 293d
000003e0: be72 c63c 1065 873c 093a c2bc f852 89bb
000003f0: 3234 f4bc e543 f3bc 5b89 e63c 700c 50bc

bias f4 [8]
-0.012876129 0.00029586293 0.00899009 0.003885618 0.04643178 0.010854607 0.050778244 0.040268864
00000000: 66f6 52bc 0d1e 9b39 2c4b 133c daa5 7e3b
00000010: 402f 3e3d 86d7 313c d9fc 4f3d f7f0 243d

weight f4 [256, 648]
-0.03436047 0.035296664 0.039488047 -0.030422246 0.04117047 -0.030354148 -0.030680101 0.009881544
0.013310549 -0.033102702 0.039272707 0.023674231 0.0063014766 0.03559948 -0.013580799 -0.026248895
0.018763233 -0.03306219 -0.03588841 -0.011193631 0.013578442 -0.021245668 0.012855166 -0.013705059
0.033607487 -0.01518553 0.014712006 0.022932637 -0.028623011 0.015377166 -0.03143442 0.019437948
-0.019265927 -0.006677609 -0.029898882 0.001663643 0.03213636 -0.015736198 0.010455206 0.033385463
-0.031243201 0.018529555 -0.015181316 -0.015664041 0.001203606 -0.008278029 0.019528419 -0.02272688
0.008280142 -0.0090693105 0.0009427489 -0.03645029 0.011308324 -0.008248262 -0.03637741 0.006190725
0.021763846 -0.020554442 0.006110684 0.016773213 0.022958532 -0.03253974 -0.022751275 0.022827253
0.010914325 -0.029449554 0.016311442 0.037663467 -0.032561023 -0.006100826 0.04037919 -0.038052734
0.0020793378 0.031523276 0.029308526 0.025662255 0.035285436 0.019414518 -0.021720957 0.03793626
0.024609892 -0.03532887 -0.013138529 -0.0026805915 0.028335407 -0.006695124 0.035860263 -0.02597423
-0.0151284095 0.03368954 -0.010760459 0.027833799 -0.007099439 -0.003494661 0.023989178 0.035314076
-0.020271104 0.031855844 -0.03156777 -0.008435055 0.039893 -0.016631346 0.022499103 -0.03502312
0.0065506487 0.036579262 0.035219844 0.010276017 0.013540445 -0.03691064 0.0009614346 0.013046038
-0.0053513288 -0.03451332 -0.023845041 -0.014984621 -0.017246965 0.027442196 -0.00943753 -0.0043318253
-0.043319665 -0.018321617 -0.01664512 0.0011068035 0.012835608 0.011710533 0.03510359 -0.03788706
-0.002143694 0.010493214 -0.036945224 0.026200444 -0.016005928 -0.0020729764 -0.026454289 0.021203777
0.032119222 0.03596164 0.028090764 -0.035696995 -0.017793214 -0.0039684204 0.030458804 -0.007937611
-0.017672809 -0.014464344 0.035886455 0.016179975 -0.012053152 0.037890714 0.023943687 0.0002746935
-0.0258317 0.023883121 -0.024025418 -0.037287507 -0.0053093885 -0.008569061 0.0035075205 0.017342726
-0.0096694315 -0.008561941 0.0019317851 -0.030675346 -0.011925515 0.0075611332 -0.0013491559 0.0093617225
-0.02127092 -0.024551718 0.03229345 0.035645824 0.024700377 0.012608746 -0.03357953 0.012627185
-0.019169388 0.004187697 -0.03679242 -0.01386327 0.020570476 0.034967568 0.031355657 0.010655225
-0.025604121 -0.035354473 0.0050007137 -0.02221654 0.01715549 -0.02288641 -0.020235896 -0.0046682097
-0.034218237 0.022965979 -0.025307307 0.009283747 0.019671883 0.018314825 -0.03329869 0.032859348
0.0074022217 0.0030437189 0.0054312637 -0.011931943 -0.0074706916 0.009440144 -0.013230504 -0.012969208
-0.0073971134 -0.008229156 0.010508535 0.013355407 0.008223695 0.016196977 0.023685545 -0.027765948
0.0023989337 0.033125784 0.035975516 0.0035969135 -0.03330711 0.032295052 -0.025227627 0.02190175
-0.03388687 0.004222105 0.021456422 0.03557076 -0.010892687 -0.005391186 -0.023551553 0.036555648
0.029835423 0.021379821 0.021059537 -0.008410907 -0.019016596 -0.016480312 -0.024084907 0.030550433
0.030283038 0.021988766 0.038556706 0.0044739908 0.02320983 -0.01957041 0.032522347 0.033200134
-0.011990291 -0.033342946 -0.029195022 0.0019153641 -0.006279508 0.0046115015 0.034991827 0.007900037
00000000: 90bd 0cbd 3c93 103d 38be 213d 1338 f9bc
00000010: 5ea2 283d 43a9 f8bc d654 fbbc 33e6 213c
00000020: 7d14 5a3c b396 07bd 6bdc 203d 76f0 c13c
00000030: 9e7c ce3b c3d0 113d 0082 5ebc ec07 d7bc
00000040: 5ab5 993c 386c 07bd baff 12bd 7e65 37bc
00000050: 1d78 5e3c 650b aebc 799e 523c 2f8b 60bc
00000060: 01a8 093d bbcc 78bc a00a 713c 3add bb3c
00000070: ce7a eabc 82f0 7b3c 61c1 00bd 553c 9f3c
00000080: 94d3 9dbc d8cf dabb 80ee f4bc 990e da3a
00000090: 6aa1 033d 33e9 80bc 504c 2b3c 32bf 083d
000000a0: bef1 ffbc 4bcb 973c 0ebb 78bc e051 80bc
000000b0: 51c2 9d3a 92a0 07bc 10fa 9f3c b92d babc
000000c0: 6fa9 073c 7297 14bc cf22 773a e64c 15bd
000000d0: 8c46 393c b823 07bc 7b00 15bd 91db ca3b
000000e0: 184a b23c ca61 a8bc 223c c83b fa67 893c
000000f0: 8813 bc3c 6448 05bd e260 babc 3800 bb3c
00000100: ffd1 323c 3140 f1bc 939f 853c 0245 1a3d
00000110: b55e 05bd 70e9 c7bb a664 253d 2fdd 1bbd
00000120: 8045 083b 8d1e 013d 6f18 f03c a639 d23c
00000130: 7687 103d 320b 9f3c 26f0 b1bc 0d63 1b3d
00000140: af9a c93c 01b5 10bd fc42 57bc ddac 2fbb
00000150: a81f e83c c562 dbbb 36e2 123d e9c7 d4bc
00000160: 26dd 77bc 0bfe 093d a34c 30bc b503 e43c
00000170: 69a2 e8bb af06 65bb f484 c43c 7ea5 103d
00000180: 960f a6bc 467b 023d 354d 01bd 2f33 0abc
00000190: d866 233d 763e 88bc 0a50 b83c 6774 0fbd
000001a0: d3a6 d63b 23d4 153d af42 103d bd5c 283c
000001b0: bed8 5d3c 9c2f 17bd c908 7c3a 0dbf 553c
000001c0: 335a afbb d75d 0dbd ad56 c3bc 0e82 75bc
000001d0: 8249 8dbc 75ce e03c df9f 1abc fcf1 8dbb
000001e0: f66f 31bd 3717 96bc 595b 88bc 2a12 913a
000001f0: 714c 523c 89dd 3f3c c8c8 0f3d 762f 1bbd
00000200: 387d 0cbb bbeb 2b3c e053 17bd 50a2 d63c
00000210: dd1e 83bc c6da 07bb aab6 d8bc 8bb3 ad3c
00000220: 728f 033d 834c 133d 9a1e e63c 0337 12bd
00000230: 13c3 91bc 8609 82bb be84 f93c c10c 02bc
00000240: 91c6 90bc dbfb 6cbc adfd 123d de8b 843c
00000250: 957a 45bc 4b33 1b3d 8d25 c43c bd04 9039
00000260: 009d d3bc 89a6 c33c f4d0 c4bc c9ba 18bd
00000270: 61fa adbb 3f65 0cbc 6ede 653b 5512 8e3c
00000280: 896c 1ebc 6247 0cbc f433 fd3a dd4a fbbc
00000290: 3c63 43bc 62c3 f73b 29d6 b0ba e961 193c
000002a0: 5a40 aebc af20 c9bc 2346 043d 5b01 123d
000002b0: 7258 ca3c ea94 4e3c b08a 09bd 41e2 4e3c
000002c0: 1f09 9dbc f338 893b a6b3 16bd c522 63bc
000002d0: 6a83 a83c 273a 0f3d ca6e 003d 4193 2e3c
000002e0: bcbf d1bc dacf 10bd 07dd a33b 76ff b5bc
000002f0: ac89 8c3c 487c bbbc c0c5 a5bc c8f7 98bb
00000300: 6c28 0cbd 2623 bc3c 4551 cfbc db1a 183c
00000310: ee26 a13c f908 963c 3564 08bd 8697 063d
00000320: 568e f23b 2179 473b bef8 b13b 327e 43bc
00000330: b4cc f4bb d5aa 1a3c c1c4 58bc cd7c 54bc
00000340: 7c63 f2bb 95d3 06bc fe2b 2c3c a3d0 5a3c
00000350: adbc 063c 86af 843c 3008 c23c 6a75 e3bc
00000360: 6e37 1d3b e7ae 073d 105b 133d 32ba 6b3b
00000370: 096d 08bd d147 043d 2baa cebc 4c6b b33c
00000380: f5cc 0abd 9559 8a3b 61c5 af3c a5b2 113d
00000390: 3e77 32bc 8ca8 b0bb 30ef c0bc 60bb 153d
000003a0: 6b69 f43c bc24 af3c 0d85 ac3c e7cd 09bc
000003b0: b1c8 9bbc b801 87bc b64d c5bc e744 fa3c
000003c0: 2214 f83c c921 b43c a3ed 1d3d 8e9a 923b
000003d0: 8b22 be3c 2052 a0bc 2736 053d ddfc 073d
000003e0: ed72 44bc 9d92 08bd 662a efbc f40c fb3a
000003f0: 55c4 cdbb 141c 973b 9753 0f3d 286f 013c

bias f4 [256]
-0.027881112 0.01756447 -0.02742183 -0.038440492 -0.013715241 0.0177796 0.019063713 -0.037319105
0.009452934 -0.011739158 -0.03447366 0.012416246 0.0046811765 -0.013332742 0.008860093 0.014432922
0.03271598 0.037000734 0.025343942 0.011552094 0.017025243 0.009984657 0.022941045 -0.009817568
0.0035190436 -0.03242257 -0.009574501 0.025607908 -0.00085148227 0.024408666 0.012170891 0.03227924
-0.017165788 -0.022763122 -0.012890701 0.0049456568 -0.031037169 -0.037001885 0.0048305765 0.038982272
-0.030799372 0.020893805 -0.027623056 -0.029506749 0.039549243 0.023445576 0.00014235938 0.02109103
0.005551555 -0.01070034 -0.032561887 0.010088296 0.030563232 -0.033037767 0.022608293 -0.023203671
0.011746517 2.0711272e-05 0.010514243 -0.033104364 -0.018860709 -0.004179612 -0.008728973 0.016062587
0.0064446647 -0.011808926 -0.036596157 0.033392426 0.013062022 -0.034716867 0.031411234 0.012977361
-0.027345546 -0.038995042 -0.028508702 -0.0056695626 -0.011714924 0.016354376 -0.023454906 -0.03439917
0.016860515 -0.037820835 0.0088893 0.02427635 0.02224025 0.028558644 0.017906575 0.031098768
0.027312005 -0.0322843 -0.021280847 -0.011709922 0.024046507 -0.022181 0.017518558 -0.0083900215
-0.013473153 0.025451299 0.033628862 0.0011958252 0.009291737 0.011251596 -0.023762625 0.002955732
0.03235193 -0.038727045 -0.004545889 0.027016727 0.0004565512 -0.014089035 0.01938872 -0.03073536
0.032870106 0.008432187 -0.028704768 -0.020551976 0.0065813037 -0.03824858 0.016317707 -0.030423515
0.01820617 -0.022343984 0.0058759963 0.011343059 -0.03229264 -0.024266344 0.011556091 0.027175017
0.03165007 0.03404505 0.016605612 -0.00036441835 0.016642062 -0.03957022 -0.019103581 0.0054948647
-0.035206083 -0.029560994 0.00048343735 -0.011596822 -0.014649868 0.023830885 -0.022587556 0.03689825
-0.005710245 -0.023117503 0.03809458 -0.020242678 -0.038310416 -0.02115185 0.03658639 -0.0146036055
0.024426527 0.0063238447 0.025303833 -0.031243673 -0.028705742 0.023114743 0.03339748 0.03757081
-0.01177264 -0.02361511 -0.018445753 -0.0071327835 -0.006455138 -0.033004012 -0.008471017 -5.4109045e-05
0.024179809 0.02298353 -0.0066954177 0.014961883 -0.032519016 0.026566058 -0.021130368 -0.015691677
0.016941419 0.01868497 -0.037439585 0.012391489 0.005845826 0.024931533 0.0011336023 0.013553642
0.004539254 -0.02709115 -0.033394687 -0.005685187 -0.015904093 0.011777075 -0.0098589305 0.0034049202
0.035185784 0.030599777 -0.022986064 -0.0030715917 -0.021945084 0.011644474 0.0039141546 -0.0077806516
0.04160992 -0.029732775 -0.008827087 0.009705228 0.025555672 0.02465756 0.0026768094 -0.033875577
-0.004439199 -0.024855029 0.011786006 0.01337789 -0.0007582445 -0.0014148824 0.0031966302 -0.009967736
-0.02811188 0.01798731 -0.030266823 0.003615368 0.030491764 -0.012480568 0.02280943 -0.0071597197
0.0100443745 0.014995061 -0.03377673 -0.021452934 0.0026212044 -0.034265466 0.0070117833 0.009898477
0.026161067 -0.012851457 0.023396118 0.03576732 -0.007894334 0.011557896 0.03020085 -0.034830865
-0.02813482 -0.017083483 -0.03651755 0.031064931 0.017679216 -0.015901282 -0.030027412 0.027455106
-0.023402128 0.015808089 -0.018024445 0.03344819 0.02480789 -0.0009676537 -0.021163728 0.0180173
00000000: ee66 e4bc 5de3 8f3c bfa3 e0bc c773 1dbd
00000010: e4b5 60bc 86a6 913c 812b 9c3c ebdb 18bd
00000020: 7be0 1a3c 9955 40bc 4134 0dbd 836d 4b3c
00000030: 8e64 993b 9371 5abc ec29 113c 1078 6c3c
00000040: 3101 063d 158e 173d 199e cf3c fe44 3d3c
00000050: 8678 8b3c b096 233c dcee bb3c ddd9 20bc
00000060: c19f 663b 87cd 04bd 5ede 1cbc adc7 d13c
00000070: 0236 5fba aff4 c73c 6b68 473c 3d37 043d
00000080: 449f 8cbc ba79 babc 8533 53bc 2d0f a23b
00000090: a941 febc 4a8f 17bd d049 9e3b e0ab 1f3d
000000a0: f74e fcbc 7c29 ab3c bf49 e2bc 23b8 f1bc
000000b0: 63fe 213d f010 c03c 4e46 1539 19c7 ac3c
000000c0: d2e9 b53b 7b50 2fbc 9d5f 05bd 6149 253c
000000d0: be5f fa3c 9c52 07bd 0735 b93c a015 bebc
000000e0: 7774 403c 1ebd ad37 ee43 2c3c 7198 07bd
000000f0: c681 9abc 20f5 88bb f703 0fbc b095 833c
00000100: c42d d33b 3a7a 41bc dae5 15bd 7fc6 083d
00000110: 1702 563c 4633 0ebd 11a9 003d ff9e 543c
00000120: c403 e0bc 44b9 1fbd 158b e9bc bdc7 b9bb
00000130: f4ef 3fbc 9df9 853c 8124 c0bc 25e6 0cbd
00000140: 101f 8a3c 05ea 1abd 6da4 113c 32df c63c
00000150: 2f31 b63c d1f3 e93c cfb0 923c d8c2 fe3c
00000160: 6dbd df3c 8b3c 04bd 2c55 aebc f9da 3fbc
00000170: 2efd c43c eeb4 b5bc 1483 8f3c 4d76 09bc
00000180: 80be 5cbc 3e7f d03c 6bbe 093d 3cbd 9c3a
00000190: 5f3c 183c 9d58 383c d6a9 c2bc f4b4 413b
000001a0: 7583 043d 40a0 1ebd aef5 94bb 2f52 dd3c
000001b0: 445d ef39 b2d5 66bc 18d5 9e3c b9c8 fbbc
000001c0: cea2 063d 2827 0a3c 4326 ebbc 9e5c a8bc
000001d0: faa7 d73b 8baa 1cbd b6ac 853c bc3a f9bc
000001e0: 1b25 953c bb0a b7bc 6e8b c03b 3dd8 393c
000001f0: 4a45 04bd 36ca c6bc c255 3d3c 249e de3c
00000200: 81a3 013d d372 0b3d 7e08 883c 670f bfb9
00000210: ef54 883c 6214 22bd 1d7f 9cbc 440e b43b
00000220: 4134 10bd e629 f2bc dd75 fd39 9900 3ebc
00000230: 0006 70bc fd38 c33c 8a09 b9bc 9f22 173d
00000240: 021d bbbb eb60 bdbc 1009 1c3d f9d3 a5bc
00000250: 62eb 1cbd a546 adbc 9cdb 153d f643 6fbc
00000260: 241a c83c 4138 cf3b fc49 cf3c bbf2 ffbc
00000270: 4e28 ebbc 215b bd3c cccb 083d dae3 193d
00000280: 08e2 40bc 7a74 c1bc 8c1b 97bc 20ba e9bb
00000290: 9f85 d3bb 372f 07bd 05ca 0abc 25f3 62b8
000002a0: bc14 c63c f547 bc3c 3c65 dbbb b022 753c
000002b0: a932 05bd 10a1 d93c 9819 adbc d58b 80bc
000002c0: bbc8 8a3c 3911 993c 405a 19bd ac05 4b3c
000002d0: 588e bf3b 373d cc3c 6295 943a 1810 5e3c
000002e0: 06be 943b 42ee ddbc dec8 08bd ce4a babb
000002f0: 4d49 82bc a2f4 403c 5a87 21bc 1525 5f3b
00000300: f81e 103d 62ac fa3c 454d bcbc c24c 49bb
00000310: 2dc6 b3bc 77c8 3e3c 4f42 803b d6f4 febb
00000320: 2a6f 2a3d 2692 f3bc 7c9f 10bc ad02 1f3c
00000330: 215a d13c a7fe c93c 696d 2f3b 1ec1 0abd
00000340: b376 91bb c69c cbbc 181a 413c f02e 5b3c
00000350: edc4 46ba 9373 b9ba 8e7e 513b b74f 23bc
00000360: e34a e6bc 205a 933c 21f2 f7bc cfef 6c3b
00000370: ddc9 f93c 4c7b 4cbc d7da ba3c 159c eabb
00000380: 2991 243c d8ad 753c 7859 0abd 10be afbc
00000390: 83c8 2b3b f259 0cbd 1ac3 e53b 392d 223c
000003a0: bc4f d63c eb8e 52bc 37a9 bf3c c180 123d
000003b0: 3d57 01bc 545d 3d3c c667 f73c cfaa 0ebd
000003c0: fe7a e6bc a9f2 8bbc 6d93 15bd e27b fe3c
000003d0: 01d4 903c 6843 82bc 0cfc f5bc 88e9 e03c
000003e0: d2b5 bfbc f77f 813c 00a8 93bc f800 093d
000003f0: eb39 cb3c 24aa 7dba 8e5f adbc 0499 933c

weight f4 [64, 256]
0.04342415 -0.035405166 -0.041562516 -0.021059416 0.014128089 0.04768728 0.019847516 -0.032652885
0.060261138 -0.022345094 -0.050189268 0.043487377 0.043522403 -0.020931652 0.04295372 -0.05896107
-0.024233434 -0.046363246 0.04156226 0.06345819 0.03710378 0.026272705 0.058502685 -0.060451623
0.025336385 -0.049593523 -0.047729965 -0.037081905 -0.051214077 -0.054068312 -0.030393617 -0.05667664
-0.014729565 0.04322498 -0.017799648 0.05424918 -0.02913247 -0.047648586 0.04816665 -0.007531651
0.05567627 0.059564017 0.01950289 0.030455625 -0.05566444 -0.054509453 0.033727556 0.06029193
0.049644057 -0.000339899 0.01986964 0.035577193 -0.037647437 -0.053166248 0.0633926 0.026533043
0.024954092 -0.041590143 -0.017263131 0.05521987 -0.017615583 -0.039350387 0.0062675443 -0.044815272
0.043280743 0.009622661 0.0125742275 0.010543511 0.007598843 0.021914395 0.06894453 0.028016537
0.0417143 0.01627427 -0.058156688 -0.05529599 -0.042489287 0.04413026 -0.021855587 0.0073213247
0.050525766 -0.0046797916 -0.029867101 -0.043223877 0.05687257 0.038893323 -0.01782636 0.03387562
-0.016729865 0.055802714 -0.058372162 0.031365972 -0.05205003 -0.036295544 0.048504986 -0.03265464
0.051244423 -0.035749055 0.03022055 0.03772205 -0.05625908 0.010858131 -0.0034486803 -0.05630313
-0.015156648 0.024677588 -0.036521528 0.048055246 -0.04884335 0.05487331 -0.014449091 0.030429915
0.043017544 0.0112221725 0.030492982 -0.023315148 0.025316115 -0.009301441 0.026713021 0.015217195
0.023013238 -0.013552422 0.0025018963 -0.012907292 -0.019756244 0.015099861 0.043411978 0.060460728
-0.03437681 0.022037081 0.026529696 0.013603734 -0.041298464 0.060337245 -0.05753379 -0.0230532
-0.051600836 0.030111328 0.0072437036 0.04055319 -0.025862934 0.007840254 -0.054736476 -6.839451e-06
-0.042616732 -0.0090601565 0.007121764 0.022055656 -0.043208208 0.0030048415 -0.059197474 -0.028111508
0.03644438 -0.009831077 -0.03800196 -0.0364454 -0.0025463044 0.04003578 0.006848051 -0.008728009
0.0067750737 0.043036837 0.042941455 -0.033685524 0.059395712 -0.03633958 0.0029268847 -0.024396632
-0.0077486555 0.017650852 0.040561646 0.014736542 -0.032876644 -0.045707773 0.00517804 0.047831077
0.02048071 -0.041912854 -0.010835332 0.033854455 -0.049559735 -0.021359626 0.03404881 0.021498643
-0.015579262 0.010531933 0.005031715 -0.0020278238 -0.021694915 0.05603268 -0.019185392 0.055786405
0.051268302 0.01083892 0.042356715 0.0611308 0.058017273 0.008484447 -0.030901356 -0.026240202
0.00092088693 -0.035091773 0.014531476 0.012815854 0.05807945 -0.0012533626 0.045125514 0.05590216
0.047424678 0.054724433 0.019456107 0.0033406706 -0.009559115 -0.008739924 0.0198206 0.0054094703
0.051133964 0.035521433 0.04468708 -0.049395 -0.059367634 -0.051115178 -0.053697523 -0.0036042302
0.03899968 -0.052706398 0.018952133 0.034671538 0.058376875 0.027764536 0.006288942 0.06340488
-0.026026689 -0.057598766 0.036943782 0.0058212806 -0.061044734 -0.014843175 0.04398145 0.06335659
0.05668616 0.049203295 0.002416268 0.00017661505 -0.01338724 0.01538607 0.04967145 -0.042859137
0.06358335 -0.05947087 -0.05483422 -0.038174234 -0.06103376 0.048288792 0.037324637 -0.03347956
00000000: 86dd 313d 0205 11bd 753d 2abd cc84 acbc
00000010: 8079 673c bd53 433d 4297 a23c 08bf 05bd
00000020: 62d4 763d 0f0d b7bc 4393 4dbd d21f 323d
00000030: 8c44 323d db78 abbc 3df0 2f3d 2a81 71bd
00000040: 3285 c6bc 63e7 3dbd 303d 2a3d 5ef6 813d
00000050: 22fa 173d db39 d73c 83a0 6f3d 1f9c 77bd
00000060: 408e cf3c 9422 4bbd 7f80 43bd 32e3 17bd
00000070: dac5 51bd bc76 5dbd 09fc f8bc c425 68bd
00000080: 4654 71bc ad0c 313d 91d0 91bc 6334 5e3d
00000090: 38a7 eebc 2a2b 43bd 654a 453d 11cc f6bb
000000a0: cd0c 643d 66f9 733d 86c4 9f3c 137e f93c
000000b0: 6500 64bd 4e45 5fbd e825 0a3d acf4 763d
000000c0: 9157 4b3d 7934 b2b9 a8c5 a23c 64b9 113d
000000d0: 3334 1abd dac4 59bd fbd3 813d d35b d93c
000000e0: 866c cc3c 6d5a 2abd 696b 8dbc 3b2e 623d
000000f0: 8e4e 90bc df2d 21bd f95f cd3b 3890 37bd
00000100: 2647 313d 5ea8 1d3c 2204 4e3c b1be 2c3c
00000110: b7ff f83b d185 b33c ca32 8d3d f082 e53c
00000120: 9ddc 2a3d 9e51 853c b535 6ebd 0c7e 62bd
00000130: 3f09 2ebd eec1 343d 7d0a b3bc b9e7 ef3b
00000140: 1bf4 4e3d f058 99bb daab f4bc 850b 31bd
00000150: 36f3 683d 9b4e 1f3d 9608 92bc 2ac1 0a3d
00000160: 120d 89bc 6391 643d a617 6fbd 9b79 003d
00000170: 6a32 55bd a3aa 14bd 2aad 463d dfc0 05bd
00000180: ace5 513d 9a6d 12bd 1691 f73c 7082 1a3d
00000190: ec6f 66bd 4de6 313c 4103 62bb 1c9e 66bd
000001a0: 9753 78bc a728 ca3c 9997 15bd 94d5 443d
000001b0: f70f 48bd d6c2 603d e1bb 6cbc 2848 f93c
000001c0: 2a33 303d 34dd 373c 6bcc f93c 69ff bebc
000001d0: be63 cf3c 1265 18bc 44d5 da3c 8b51 793c
000001e0: 4286 bc3c fa0a 5ebc dbf6 233b 1b79 53bc
000001f0: d9d7 a1bc 6865 773c c2d0 313d aba5 773d
00000200: b3ce 0cbd 1c87 b43c ce54 d93c 32e2 5e3c
00000210: 9428 29bd 3024 773d 8da8 6bbd 11da bcbc
00000220: 665b 53bd 08ac f63c 975c ed3b 1a1b 263d
00000230: 81de d3bc 6974 003c 5b33 60bd 707e e5b6
00000240: e28e 2ebd 0d71 14bc b05d e93b 10ae b43c
00000250: 17fb 30bd e0ec 443b 0d79 72bd 1b4a e6bc
00000260: b446 153d 8712 21bc f1a7 1bbd c647 15bd
00000270: e6df 26bb 8ffc 233d 9e65 e03b ecff 0ebc
00000280: 7001 de3b 6547 303d 61e3 2f3d d5f9 09bd
00000290: eb48 733d d0d8 14bd fad0 3f3b 72db c7bc
000002a0: 6fe8 fdbb 8598 903c f823 263d 8971 713c
000002b0: a9a9 06bd 1338 3bbd 8cac a93b 85ea 433d
000002c0: 29c7 a73c d0ac 2bbd ad86 31bc f8aa 0a3d
000002d0: 26ff 4abd 62fa aebc c476 0b3d ec1d b03c
000002e0: 2940 7fbc 218e 2c3c 16e1 a43b 3de5 04bb
000002f0: 89b9 b1bc 8682 653d af2a 9dbc 4980 643d
00000300: b6fe 513d ba95 313c 3c7e 2d3d 4a64 7a3d
00000310: 85a3 6d3d 5a02 0b3c d724 fdbc b1f5 d6bc
00000320: ad67 713a 64bc 0fbd 6e15 6e3c 96f9 513c
00000330: b8e4 6d3d df47 a4ba 88d5 383d aaf9 643d
00000340: 6140 423d ba26 603d 6a62 9f3c 27ef 5a3b
00000350: d69d 1cbc e631 0fbc d05e a23c ed41 b13b
00000360: d971 513d ec7e 113d cd09 373d 6952 4abd
00000370: 7a2b 73bd 265e 51bd eff1 5bbd f334 6cbb
00000380: 21be 1f3d aae2 57bd 8141 9b3c be03 0e3d
00000390: 971c 6f3d 7472 e33c 7813 ce3b 6bda 813d
000003a0: ec35 d5bc afec 6bbd 5d52 173d 71c0 be3b
000003b0: 0b0a 7abd ca30 73bc e525 343d 1ac1 813d
000003c0: bf2f 683d 6589 493d 405a 1e3b be31 3939
000003d0: 2756 5bbc db15 7c3c 4a74 4b3d 108d 2fbd
000003e0: fd37 823d ba97 73bd d999 60bd 965c 1cbd
000003f0: 89fe 79bd 78ca 453d b8e1 183d dd21 09bd

bias f4 [64]
0.055188652 3.511206e-06 0.039809294 -0.0032913934 -0.027226165 0.0037551324 -0.0126032485 -0.0038329433
-0.013873561 -0.05366133 0.044370748 0.016270021 -0.06268023 0.007371741 0.010327588 0.04016956
0.009852239 0.025276443 -0.014383556 -0.020637406 0.016179001 0.005012923 -0.009706266 -0.0340571
-0.052369684 -0.013176683 0.012664906 -0.04152817 -0.0201485 0.05878249 0.04020845 0.00089225726
-0.0031731923 0.028270125 0.003951252 0.002263111 0.007768804 -0.030004617 0.055609148 0.042230953
0.06264342 -0.0009807344 -0.043376327 0.027959256 0.043081142 -0.06164034 -0.054670043 0.03829661
-0.057697605 -0.005448737 0.0012040536 -0.0489176 0.00024131296 0.030663943 0.045943685 -0.047011677
-0.0030122725 0.0066847247 0.023577716 0.019138034 -0.035939015 0.036340255 -0.03630317 0.03628271
00000000: 7f0d 623d 0fa2 6b36 120f 233d 6bb4 57bb
00000010: 6809 dfbc ab18 763b db7d 4ebc 1e32 7bbb
00000020: ef4d 63bc fccb 5bbd 1abe 353d b548 853c
00000030: 7e5e 80bd a58e f13b 0b35 293c d688 243d
00000040: 496b 213c 8b10 cf3c 02a9 6bbc c70f a9bc
00000050: d389 843c 7243 a43b 0807 1fbc 757f 0bbd
00000060: 9881 56bd 04e3 57bc 7780 4f3c 7119 2abd
00000070: 780e a5bc e9c5 703d 9eb1 243d 5fe6 693a
00000080: 55f5 4fbb c096 e73c 8179 813b b450 143b
00000090: 7491 fe3b 3ecc f5bc 6bc6 633d 5dfa 2c3d
000000a0: 324b 803d fc8b 80ba 60ab 31bd cf0a e53c
000000b0: da75 303d 957a 7cbd b2ed 5fbd e8dc 1c3d
000000c0: 5354 6cbd 528b b2bb 56d1 9d3a d25d 48bd
000000d0: f408 7d39 f332 fb3c 722f 3c3d 518f 40bd
000000e0: 8c69 45bb 890b db3b 0e26 c13c 5ec7 9c3c
000000f0: ca34 13bd 85d9 143d a2b2 14bd 2e9d 143d

weight f4 [16, 64]
-0.115449235 0.08188414 0.0052321726 -0.081267215 -0.09392921 -0.055546775 -0.117741674 0.06674374
-0.030978661 0.021526407 0.10657876 -0.017889462 -0.06252737 0.04387603 0.07331936 -0.09267495
-0.08992092 0.114234164 -0.016919678 0.04974865 0.06253242 0.06599315 -0.010774156 -0.00063752796
-0.11014128 0.06433247 -0.075290665 0.089962184 0.12016173 -0.017914135 0.055489287 0.034599885
0.0025438594 0.075753056 -0.014761921 -0.114226624 0.096136585 0.03684273 -0.096097335 0.086231224
0.067443356 0.06813271 -0.11265318 -0.04989426 -0.027564066 -0.029572649 0.062228993 0.116303645
-0.0674415 0.020557253 0.08978734 0.106321305 0.057166774 0.054627616 -0.03695191 0.006837818
-0.07416272 -0.11013026 0.083410315 0.08728014 0.018622331 -0.01464934 0.12339276 -0.062383242
0.11192439 0.07474888 -0.04988287 0.084643215 -0.015888017 -0.0043143034 -0.019247055 0.006569872
0.042499013 0.124136254 -0.013229557 0.08147343 0.110570624 -0.06977829 0.09492834 0.108896315
-0.04579088 -0.03286294 -0.005029511 -0.057626404 0.04338334 -0.050024264 0.048897874 -0.104122646
-0.006568983 -0.070892796 -0.08331461 0.05041864 -0.11893727 0.02734031 -0.0038611914 0.11626053
-0.07266774 -0.10043114 -0.06207608 0.043960188 0.1084593 -0.0012037924 0.0446591 -0.017379135
-0.044466536 0.045712493 0.10159019 -0.027447328 -0.010998689 -0.039347623 0.089466825 0.05112871
0.07482512 0.08745927 -0.0117587615 -0.10786923 0.10528557 -0.1023728 0.101983204 -0.04845001
0.11284784 -0.073524594 0.042912915 0.123708434 0.022747789 -0.10439205 0.02079277 0.11453257
0.094901145 0.11595278 0.020353448 0.017123137 -0.009081449 -0.09765497 0.03886686 -0.04100324
-0.0735999 0.040778972 -0.08865214 -0.040108535 -0.12486289 0.1211483 0.034888 0.06724089
0.12879398 0.12179893 0.016163837 0.017096816 0.052205715 0.12313839 -0.042788435 0.06022483
0.0055673867 -0.013236236 0.042181138 -0.072896525 -0.006617959 -0.057564534 0.04199694 0.013418682
-0.11120039 0.00023326755 -0.12304883 -0.034689583 0.0852839 -0.00889306 -0.09290551 -0.111798964
0.03350136 -0.03673695 0.06670064 -0.08771246 -0.0025528087 -0.09970232 -0.0007670969 -0.016860804
0.12119853 0.06404566 0.1058769 0.068598635 0.096590586 0.108042486 0.04190602 0.12374196
0.0995649 -0.0856755 0.011087838 0.026245862 0.094628595 0.051881116 0.035532556 -0.065275565
0.10699836 -0.05450214 0.051020417 -0.028148318 0.017945811 -0.07610253 -0.06455565 0.10105339
-0.07493219 0.0548948 -0.045920704 0.08141477 0.12560758 0.12185071 -0.0002222971 0.08275151
0.005836734 -0.010955137 -0.07874779 0.09035926 0.0865112 -0.091864884 0.0006994652 -0.081325844
-0.0039795637 -0.073629126 0.10371526 0.08117335 0.09730606 0.013794696 -0.10018754 -0.051003564
-0.07872898 0.059153024 -0.018271703 -0.08223625 -0.07302277 0.11493491 0.037713464 -0.109351516
0.011257063 0.061914723 -0.035835087 -0.10414668 -0.06726108 0.016180215 0.009667844 0.09725321
-0.02842881 0.058571428 0.105766475 -0.035727534 -0.118693285 -0.04050048 0.04013548 0.06116467
0.102673456 0.07346742 -0.13221408 -0.1062581 0.052419696 -0.09704089 -0.05940951 -0.08376394
00000000: a670 ecbd dfb2 a73d a572 ab3b 6d6f a6bd
00000010: f55d c0bd 0485 63bd 8c22 f1bd f1b0 883d
00000020: f6c6 fdbc 2658 b03c f745 da3d ec8c 92bc
00000030: 5a0e 80bd 5ab7 333d 7628 963d 5dcc bdbd
00000040: 7628 b8bd 9af3 e93d 239b 8abc 3ec5 4b3d
00000050: ff10 803d 6b27 873d 1686 30bc c71f 27ba
00000060: c091 e1bd bec0 833d fe31 9abd 183e b83d
00000070: 5a17 f63d aac0 92bc bc48 633d 9cb8 0d3d
00000080: e1b6 263b 6b24 9b3d fcdb 71bc a6ef e9bd
00000090: 42e3 c43d 67e8 163d aece c4bd ff99 b03d
000000a0: be1f 8a3d 2a89 8b3d b6b6 e6bd ec5d 4cbd
000000b0: 09ce e1bc 5742 f2bc d4e3 7e3d 9b30 ee3d
000000c0: c51e 8abd af67 a83c 6de2 b73d fcbe d93d
000000d0: b527 6a3d 35c1 5f3d e35a 17bd c60f e03b
000000e0: a0e2 97bd f98b e1bd 07d3 aa3d eebf b23d
000000f0: dc8d 983c c903 70bc 58b5 fc3d 9285 7fbd
00000100: 9d38 e53d f115 993d fb51 4cbd 6c59 ad3d
00000110: 9627 82bc 005f 8dbb 00ac 9dbc 1548 d73b
00000120: 7213 2e3d 263b fe3d c9c0 58bc 8bdb a63d
00000130: da72 e23d ece7 8ebd ca69 c23d 0805 df3d
00000140: 388f 3bbd 4a9b 06bd 99ce a4bb aa09 6cbd
00000150: bbb2 313d 3ee6 4cbd 2349 483d 413e d5bd
00000160: a040 d7bb 3e30 91bd daa0 aabd c783 4e3d
00000170: 6295 f3bd c9f8 df3c 0b0c 7dbb 001a ee3d
00000180: d3d2 94bd d7ae cdbd 7d43 7ebd 990f 343d
00000190: e91f de3d 92c8 9dba 76ec 363d b05e 8ebc
000001a0: 8b22 36bd 063d 3b3d 840e d03d 38d9 e0bc
000001b0: d833 34bc f92a 21bd 623a b73d 576c 513d
000001c0: ea3d 993d d91d b33d d2a7 40bc 8bea dcbd
000001d0: f69f d73d d5a8 d1bd 92dc d03d 8573 46bd
000001e0: c51c e73d 1094 96bd 74c5 2f3d d95a fd3d
000001f0: 9259 ba3c 80cb d5bd 9955 aa3c 0d90 ea3d
00000200: 885b c23d a778 ed3d 46bc a63c d245 8c3c
00000210: 5cca 14bc 54ff c7bd db32 1f3d 03f3 27bd
00000220: 8bbb 96bd da07 273d 418f b5bd d948 24bd
00000230: 1db8 ffbd 9a1c f83d b8e6 0e3d 97b5 893d
00000240: 92e2 033e b871 f93d 066a 843c 9f0e 8c3c
00000250: a9d5 553d fb2f fc3d ed42 2fbd 50ae 763d
00000260: a06e b63b ccdc 58bc 21c6 2c3d c64a 95bd
00000270: 77db d8bb cac8 6bbd fc04 2c3d 08da 5b3c
00000280: 08bd e3bd 4899 7439 0601 fcbd aa16 0ebd
00000290: 53a9 ae3d 32b4 11bc 3e45 bebd dbf6 e4bd
000002a0: b938 093d 7c79 16bd 589a 883d 97a2 b3bd
000002b0: 064d 27bb bb30 ccbd 0017 49ba ab1f 8abc
000002c0: ef36 f83d 5f2a 833d fdd5 d83d 717d 8c3d
000002d0: 49d1 c53d 6145 dd3d a6a5 2b3d 6d6c fd3d
000002e0: afe8 cb3d a376 afbd c3a9 353c 9001 d73c
000002f0: a3cc c13d 4b81 543d 968a 113d 32af 85bd
00000300: f521 db3d a33d 5fbd c9fa 503d 4d97 e6bc
00000310: 1803 933c a5db 9bbd c135 84bd 14f5 ce3d
00000320: 0c76 99bd 5fd9 603d 5917 3cbd c9bc a63d
00000330: 469f 003e dd8c f93d 6c18 69b9 a079 a93d
00000340: 1342 bf3b 2d7d 33bc 8546 a1bd 470e b93d
00000350: c92c b13d a823 bcbd 515c 373a 2a8e a6bd
00000360: 0067 82bb deca 96bd ab68 d43d 373e a63d
00000370: 6648 c73d 2603 623c 202f cdbd 1de9 50bd
00000380: a93c a1bd 714a 723d 8aae 95bc 7b6b a8bd
00000390: f68c 95bd fe62 eb3d 6f79 1a3d b0f3 dfbd
000003a0: 8b6f 383c 4b9a 7d3d d0c7 12bd db4a d5bd
000003b0: 2dc0 89bd 5f8c 843c e065 1e3c b12c c73d
000003c0: 89e3 e8bc 98e8 6f3d 189c d83d 0957 12bd
000003d0: 7715 f3bd d5e3 25bd 1a65 243d ce87 7a3d
000003e0: 7646 d23d 1676 963d 2163 07be d99d d9bd
000003f0: 09b6 563d 60bd c6bd 6357 73bd 6e8c abbd

bias f4 [16]
-0.087273404 -0.078146525 -0.024709906 0.025710156 0.005165036 -0.10693964 0.018245144 -0.05870223
-0.08280264 0.10547601 -0.12031634 0.0715736 -0.014932096 -0.07204659 0.039964974 0.022316065
00000000: 66bc b2bd 490b a0bd 6e6c cabc 1b9e d23c
00000010: 763f a93b 2c03 dbbd d776 953c c071 70bd
00000020: 6e94 a9bd ce03 d83d 6a68 f6bd 2e95 923d
00000030: c0a5 74bc 2a8d 93bd 50b2 233d 2ed0 b63c

weight f4 [2, 16]
0.12660326 0.095203765 0.16965955 -0.16901147 0.23273118 -0.19892974 0.13596219 -0.07952738
-0.121824265 0.2043034 -0.2056733 -0.09562737 0.11840859 0.2089631 -0.11428806 -0.032597996
-0.09499307 -0.13441543 -0.074665524 0.10574743 -0.05750737 0.20261459 -0.040481374 -0.046879947
-0.008957469 0.21741615 -0.14328703 0.15130182 0.05188454 0.17543438 -0.114357114 -0.14245826
00000000: 49a4 013e 31fa c23d 3cbb 2d3e 5811 2dbe
00000010: 1551 6e3e 3db4 4bbe ac39 0b3e 40df a2bd
00000020: 007f f9bd e934 513e 069c 52be 48d8 c3bd
00000030: 3480 f23d 6cfa 553e dc0f eabd 7a85 05bd
00000040: ba8b c2bd 33a4 09be 3dea 98bd 1c92 d83d
00000050: d98c 6bbd 337a 4f3e cccf 25bd 3005 40bd
00000060: 59c2 12bc 57a2 5e3e d6b9 12be ddee 1a3e
00000070: e284 543d 12a5 333e 1034 eabd 94e0 11be

bias f4 [2]
-0.08671991 -0.15006778
00000000: 359a b1bd 5eab 19be
