Saved Models/model3.pt (torch_old, 763093 bytes, 14 tensors)

weight f4 [6, 3, 5, 5]
-0.009443563 0.005365752 -0.0042996267 -0.03118794 -0.043260567 0.029119542 0.06493025 -0.06455229
-0.037950967 0.0009608338 -0.0014236557 -0.11769221 -0.046891745 0.027662218 -0.056021687 0.0026640748
-0.067180544 -0.041988388 0.035507753 -0.06994569 0.06961543 -0.06277229 0.10434638 -0.022500075
-0.032997467 0.0402713 -0.05087016 0.05874678 0.05545494 0.11081304 -0.07178227 0.090223275
-0.013927428 0.059891008 -0.08198442 0.07728714 -0.06427232 0.046483096 0.117522106 0.03163993
-0.087576054 0.08849096 -0.10910431 0.0034799664 -0.014691824 0.09544018 -0.08074721 -0.035971407
-0.056066062 0.012723557 0.06873215 0.048494603 -0.08284127 -0.0301006 -0.04624441 -0.06775339
-0.050466202 -0.025105858 0.028800188 0.0898841 -0.09611143 0.006983938 0.04668176 0.056550477
0.09862878 0.05353025 0.0003076254 -0.08083568 -0.03141474 0.047101177 0.066407755 0.10320652
-0.09385578 0.087299496 -0.11330525 -0.008844367 -0.003451791 0.09426878 0.059337217 0.13369776
0.12765534 0.10075943 0.056705266 -0.042252474 0.0477976 -0.037245978 0.12375903 0.06792215
-0.03568482 -0.011085491 0.12284247 -0.011670194 -0.08368703 0.023552064 0.02281793 0.08978181
0.06035 0.060061444 -0.090004146 0.06596944 -0.029786289 -0.035254493 -0.08952311 0.1095015
-0.09026081 0.0063586747 0.041099023 0.0026774043 0.13301659 -0.067214884 -0.07170177 -0.05910411
-0.022617476 -0.043781828 0.0012872336 0.041921757 -0.05186598 0.09303609 0.03048617 0.04311234
-0.06655821 0.07443183 0.064832024 0.051117457 -0.08563914 0.08961179 -0.009198888 0.109897956
-0.0831594 0.04573723 0.026324973 0.076708674 0.13204035 -0.06127824 0.11890156 -0.0383167
0.123403355 -0.077291936 0.0333015 0.13103294 0.08371304 -0.024801452 0.11618934 0.008297891
0.123238906 0.0032405052 0.07808248 -0.09486792 -0.032665454 0.03871854 -0.04265233 -0.0907613
0.019607427 -0.019193554 0.0041908617 -0.030764198 0.13383146 0.01824024 -0.07009447 -0.038865775
0.11440338 -0.08127132 -0.020242827 0.07535661 -0.077979155 0.052906185 0.026566435 0.13746871
-0.06962405 -0.028897269 0.09678958 0.009801964 0.0339687 -0.01257903 0.07403533 0.10809513
-0.0072624804 0.075226836 0.10064514 -0.026498307 -0.024585148 -0.027260799 -0.0115292715 0.102492176
0.10694689 0.02073516 -0.05751728 0.054159787 0.13007507 -0.07874267 0.09120544 0.06049376
-0.070848905 0.13623361 -0.07392733 0.09996007 0.13542587 -0.046335127 -0.062371537 0.0068325307
-0.061549623 0.086982965 0.11936077 0.12538224 0.01593641 -0.029130884 0.09964273 0.031332117
0.043426916 -0.061630793 0.06879484 0.10610182 0.13293037 0.088815235 -0.07420995 -0.030591052
-0.07416624 0.053999756 0.1365541 0.09988533 -0.0674219 -0.051496737 0.13040844 0.12807798
0.0999092 0.063975826 0.08054217 0.028762849 -0.110665575 -0.05794765 0.08641852 0.065599725
-0.10045724 0.07441923 -0.10096997 0.092243314 -0.08353138 -0.021043777 0.06321932 0.023858618
0.009469311 -0.06576911 -0.05177535 -0.036615193 0.10181296 -0.008149436 0.09088407 -0.10442749
0.071184725 0.028324988 -0.021759644 -0.011179973 -0.06001267 -0.085036725 0.07170543 -0.07914174
00000000: 2db9 1abc 31d3 af3b e2e3 8cbb da7d ffbc
00000010: fe31 31bd 1b8c ee3c 27fa 843d fe33 84bd
00000020: 7972 1bbd 77e0 7b3a f599 baba 9d08 f1bd
00000030: 8f11 40bd e09b e23c ff76 65bd c297 2e3b
00000040: f495 89bd 04fc 2bbd 9470 113d b03f 8fbd
00000050: 8992 8e3d c28e 80bd 8eb3 d53d 1452 b8bc
00000060: 5a28 07bd 85f3 243d 3b5d 50bd 77a0 703d
00000070: b824 633d f2f1 e23d 9502 93bd fbc6 b83d
00000080: de2f 64bc 4650 753d 73e7 a7bd b848 9e3d
00000090: 35a1 83bd 0f65 3e3d 6eaf f03d df98 013d
000000a0: 135b b3bd c03a b53d 1572 dfbd 2610 643b
000000b0: fab5 70bc 2476 c33d cb5e a5bd c156 13bd
000000c0: 87a5 65bd 7776 503c 71c3 8c3d 47a2 463d
000000d0: afa8 a9bd 8995 f6bc c76a 3dbd 4ac2 8abd
000000e0: a6b5 4ebd cdaa cdbc 5fee eb3c 2815 b83d
000000f0: 12d6 c4bd 85d9 e43b 6035 3f3d 79a1 673d
00000100: e3fd c93d 8942 5b3d c848 a139 2d8d a5bd
00000110: beac 00bd 2aed 403d ca00 883d f15d d33d
00000120: 7637 c0bd 14ca b23d 950c e8bd f7e7 10bc
00000130: 7137 62bb fd0f c13d 950b 733d 11e8 083e
00000140: 15b8 023e f65a ce3d c843 683d ee10 2dbd
00000150: 6bc7 433d 3d8f 18bd 6075 fd3d c51a 8b3d
00000160: 3f2a 12bd eb9f 35bc d594 fb3d 5734 3fbc
00000170: 1b64 abbd 42f0 c03c abec ba3c 87df b73d
00000180: 9031 773d fd02 763d 1854 b8bd fc1a 873d
00000190: 6002 f4bc 0467 10bd e457 b7bd 5342 e03d
000001a0: a9da b8bd 6e5c d03b 7357 283d 6477 2f3b
000001b0: 8035 083e f5a7 89bd 61d8 92bd 2717 72bd
000001c0: 4948 b9bc 9354 33bd 64b8 a83a 26b6 2b3d
000001d0: 6c71 54bd b589 be3d 22be f93c 9196 303d
000001e0: ac4f 88bd b76f 983d a7c6 843d 8a60 513d
000001f0: 9363 afbd 6386 b73d efb6 16bc 2e12 e13d
00000200: 7a4f aabd f656 3b3d 78a7 d73c 7019 9d3d
00000210: 9635 073e e4fe 7abd a982 f33d f9f1 1cbd
00000220: e6ba fc3d 3c4b 9ebd 2767 083d 802d 063e
00000230: be71 ab3d 6a2c cbbc adf4 ed3d e1f3 073c
00000240: ae64 fc3d a85e 543b b5e9 9f3d 1d4a c2bd
00000250: 36cc 05bd 5597 1e3d 36b4 2ebd 0fe1 b9bd
00000260: c19f a03c cd3b 9dbc 7f53 893b 3305 fcbc
00000270: 1d0b 093e 8e6c 953c b18d 8fbd b831 1fbd
00000280: 524c ea3d 9471 a6bd 49d4 a5bc 9154 9a3d
00000290: 89b3 9fbd 28b4 583d daa1 d93c 99c4 0c3e
000002a0: 0e97 8ebd f7b9 ecbc 9e39 c63d 6b98 203c
000002b0: c322 0b3d 4718 4ebc d69f 973d fb60 dd3d
000002c0: 1afa edbb 8710 9a3d 0a1f ce3d fa12 d9bc
000002d0: cb66 c9bc 0a52 dfbc 45e5 3cbc 6be7 d13d
000002e0: f906 db3d c8dc a93c 3d97 6bbd a7d6 5d3d
000002f0: 6632 053e d643 a1bd ebc9 ba3d 4ec8 773d
00000300: 3b19 91bd d380 0b3e 3667 97bd ddb7 cc3d
00000310: 14ad 0a3e e7c9 3dbd 4c79 7fbd 6ce3 df3b
00000320: 751b 7cbd 2024 b23d 6b73 f43d 3464 003e
00000330: 138d 823c e4a3 eebc 7d11 cc3d 1b56 003d
00000340: 6ce0 313d 9270 7cbd 4fe4 8c3d e94b d93d
00000350: e61e 083e c3e4 b53d 63fb 97bd 169a fabc
00000360: 78e4 97bd d92e 5d3d d7d4 0b3e ae90 cc3d
00000370: 7e14 8abd 3eee 52bd ca89 053e e026 033e
00000380: 329d cc3d c205 833d 4bf3 a43d 11a0 eb3c
00000390: a2a4 e2bd 845a 6dbd 31fc b03d 2659 863d
000003a0: 87bc cdbd 1c69 983d 58c9 cebd 10ea bc3d
000003b0: 8012 abbd 0064 acbc 2179 813d 2673 c33c
000003c0: 2b25 1b3c f5b1 86bd 6412 54bd d0f9 15bd
000003d0: 5083 d03d 3685 05bc 6d21 ba3d 14de d5bd
000003e0: 4cc9 913d ce09 e83c 4841 b2bc 352c 37bc
000003f0: d8cf 75bd bc27 aebd 4cda 923d 1115 a2bd

bias f4 [6]
0.052592523 -0.020110236 -0.018206926 0.041088026 -0.060705367 0.024282584
00000000: 426b 573d 39be a4bc b126 95bc eb4b 283d
00000010: 31a6 78bd 45ec c63c

weight f4 [16, 6, 5, 5]
0.06849934 0.041956834 0.085011065 0.03741971 -0.06529723 0.080737814 0.050729454 0.08514509
-0.05726016 0.010890327 0.060567677 -0.00248954 0.040359914 0.011985968 -0.07446987 -0.04518787
0.069625266 0.009241862 -0.010881742 -0.004107138 0.01010866 0.06864412 -0.00797203 0.04422214
-0.018759117 -0.083366334 -0.050039776 -0.06689914 -0.015320361 0.028101996 0.0033534067 0.079279415
0.032520346 0.07950785 0.08369622 0.07922292 -0.0010829266 0.046161357 0.026392266 -0.012088689
-0.0068688304 -0.038494743 -0.05602448 0.07467402 -0.010886129 0.010847612 -0.060577706 -0.027034312
-0.045209806 -0.033527132 0.07141816 -0.01870333 -0.013381181 -0.024639372 -0.010868193 -0.017845662
0.04648267 0.08749965 0.026353052 0.038691573 0.006638266 0.012199721 0.037550114 0.057632364
-0.009618879 -0.026356895 -0.053433333 0.08339103 -0.063344374 0.0676325 0.03097272 -0.057840295
-0.013614035 0.061988942 -1.8644969e-05 -0.025994925 -0.038894165 -0.04581138 0.048245087 0.07507255
-0.026960893 -0.045923695 0.020269703 -0.055278424 0.06784709 0.021193467 -0.054449514 0.0101330485
0.04805676 0.071023375 0.04871915 0.07112854 -0.032573085 -0.0080039045 -0.019463101 0.057622805
-0.013142865 0.04918037 -0.021282602 0.02841074 -0.002806918 -0.008487023 0.0633099 0.012066017
-0.0013934368 -0.040475983 -0.04978361 0.04866121 0.03170941 0.025279617 0.080013834 0.027051732
0.045282796 0.0466301 0.039755177 0.05644702 0.0030987326 0.00021791233 0.026014589 -0.027149688
0.036529973 -0.08031715 -0.05189151 0.016079573 -0.08065784 -0.048432656 -0.0006206238 -0.007990262
-0.06142216 0.08722392 0.07536634 -0.012137569 0.08498851 0.038605608 -0.068883486 -0.051793836
0.035341453 0.030171111 0.05214673 -0.042217787 -0.06709144 0.081509836 -0.008993619 -0.0044867373
-0.059425723 0.05335518 -0.05743578 0.062713794 -0.028907891 0.06117709 0.08935694 0.062881455
-0.018509062 -0.06670341 -0.008609274 0.009426021 0.01345059 0.09565361 -0.010911513 0.07949532
-0.018566336 -0.015323255 -0.042796437 0.039192572 -0.03654583 0.063464686 0.012089559 -0.020047842
0.04200742 -0.021642365 0.081524946 -0.045823865 -0.0045640175 0.08582915 0.04172986 0.006589576
0.022905594 0.016684672 -0.071233965 -0.06808405 0.08034935 0.023302518 0.0624501 0.0018316535
0.026587866 -0.08189918 -0.021438852 -0.08057056 0.053851362 -0.02044198 -0.029291254 0.055862762
-0.055402778 -0.020323627 0.0067579965 0.07865822 -0.065627284 0.06476044 -0.019018855 -0.0106475605
-0.0077524404 -0.01750163 -0.015654987 -0.00041790234 0.0065827635 -0.006225043 -0.07441831 -0.0045602173
-0.051476963 0.07134717 0.014300554 -0.00858853 -0.035665557 0.059639767 0.027413754 0.05024685
-0.07713546 0.035331037 -0.0691191 -0.052600466 -0.021891363 0.041110966 0.045206066 -0.0147269545
0.020228857 -0.024565939 -0.030707281 -0.017954411 -0.03389497 -0.033212427 0.04406102 0.08004506
0.010546579 0.065907456 -0.029871946 -0.016878655 0.018799938 -0.070566945 -0.04618587 -0.013250048
0.01126966 -0.034406476 0.042391665 -0.050909113 0.089452185 0.017159192 0.020463735 -0.067111336
0.015121867 -0.00061739003 0.07996602 -0.021380678 0.034486737 -0.066265136 0.056678336 -0.06358699
00000000: 6249 8c3d eeda 2b3d 481a ae3d 6945 193d
00000010: 8eba 85bd de59 a53d b0c9 4f3d 8d60 ae3d
00000020: a189 6abd 586d 323c d015 783d 8d27 23bb
00000030: 7050 253d cb60 443c a983 98bd ea16 39bd
00000040: b197 8e3d 2e6b 173c 5649 32bc 2c95 86bb
00000050: cb9e 253c 4a95 8c3d 1e9d 02bc 4622 353d
00000060: b8ac 99bc f8bb aabd 82f6 4cbd 6b02 89bd
00000070: 4002 7bbc 2836 e63c d4c4 5b3b 3f5d a23d
00000080: 0e34 053d 03d5 a23d ec68 ab3d a03f a23d
00000090: fdf0 8dba b113 3d3d 9834 d83c a30f 46bc
000000a0: ed13 e1bb aaac 1dbd ed79 65bd b1ee 983d
000000b0: bc5b 32bc 2fba 313c 5420 78bd 1077 ddbc
000000c0: eb2d 39bd bf53 09bd af43 923d ba37 99bc
000000d0: be3c 5bbc 82d8 c9bc 8110 32bc 1131 92bc
000000e0: 9d64 3e3d 0433 b33d 5be2 d73c 0e7b 1e3d
000000f0: d085 d93b 57e1 473c 26ce 193d ea0f 6c3d
00000100: 8198 1dbc 6aea d7bc e9dc 5abd ebc8 aa3d
00000110: b2ba 81bd e882 8a3d 80ba fd3c f2e9 6cbd
00000120: 670d 5fbc 1ee8 7d3d c467 9cb7 4ff3 d4bc
00000130: 7d4f 1fbd b7a4 3bbd a49c 453d a3bf 993d
00000140: 17dd dcbc 7c1a 3cbd a60c a63c a16b 62bd
00000150: 6af3 8a3d ec9d ad3c 7406 5fbd 1605 263c
00000160: 2ad7 443d b474 913d bb8d 473d d7ab 913d
00000170: 5b6b 05bd cf22 03bc 1571 9fbc e405 6c3d
00000180: 2c55 57bc 5b71 493d da58 aebc a4bd e83c
00000190: 45f4 37bb 280d 0bbc 9fa8 813d 8bb0 453c
000001a0: fba3 b6ba 25ca 25bd e6e9 4bbd fa50 473d
000001b0: bae1 013d 3317 cf3c 4bde a33d 989b dd3c
000001c0: 747a 393d 34ff 3e3d 53d6 223d fe34 673d
000001d0: 1b14 4b3b 657f 6439 8c1c d53c 0669 debc
000001e0: 74a0 153d 517d a4bd 318c 54bd 4fb9 833c
000001f0: f02f a5bd 5261 46bd 5cb1 22ba 96e9 02bc
00000200: ce95 7bbd 74a2 b23d ab59 9a3d a7dc 46bc
00000210: 750e ae3d ea20 1e3d c912 8dbd c625 54bd
00000220: 33c2 103d 6829 f73c cf97 553d 8fec 2cbd
00000230: 3d67 89bd a1ee a63d f959 13bc 7b05 93bb
00000240: 6368 73bd f68a 5a3d c841 6bbd 1770 803d
00000250: 3ed0 ecbc d494 7a3d c500 b73d fec7 803d
00000260: 51a0 97bc cc9b 88bd ea0d 0dbc 996f 1a3c
00000270: dd5f 5c3c 0ae6 c33d 34c6 32bc 71ce a23d
00000280: 6e18 98bc 640e 7bbc 514b 2fbd 6488 203d
00000290: 15b1 15bd c6f9 813d 4913 463c 5f3b a4bc
000002a0: f90f 2c3d 544b b1bc 8df6 a63d ceb1 3bbd
000002b0: c18d 95bb 32c7 af3d eeec 2a3d 5fed d73b
000002c0: 83a4 bb3c 4bae 883c 1de3 91bd a76f 8bbd
000002d0: 338e a43d ece4 be3c adcb 7f3d 1814 f03a
000002e0: ccce d93c c2ba a7bd 88a0 afbc 2e02 a5bd
000002f0: 3f93 5c3d f075 a7bc 36f4 efbc 5ad0 643d
00000300: 06ee 62bd bc7d a6bc 2f72 dd3b 9017 a13d
00000310: 9967 86bd 1fa1 843d 6ecd 9bbc 1b73 2ebc
00000320: 2f08 febb 945f 8fbc e33e 80bc e719 dbb9
00000330: 39b4 d73b 72fb cbbb a068 98bd e06d 95bb
00000340: 82d9 52bd 771e 923d df4c 6a3c e8b6 0cbc
00000350: 0c16 12bd d448 743d cf92 e03c a4cf 4d3d
00000360: 32f9 9dbd 47b7 103d 518e 8dbd 9673 57bd
00000370: 8455 b3bc f963 283d ff29 393d 5349 71bc
00000380: fdb6 a53c 823e c9bc d68d fbbc 2115 93bc
00000390: 74d5 0abd c109 08bd 5479 343d aaee a33d
000003a0: 8fcb 2c3c 7dfa 863d 03b6 f4bc 1b45 8abc
000003b0: 5402 9a3c 6785 90bd 652d 3dbd bb16 59bc
000003c0: 61a4 383c ceed 0cbd e2a2 2d3d 1386 50bd
000003d0: b532 b73d 6f91 8c3c 90a3 a73c ab71 89bd
000003e0: b5c1 773c 58d8 21ba 3ac5 a33d 8826 afbc
000003f0: f741 0d3d 04b6 87bd 8b27 683d e539 82bd

bias f4 [16]
0.0049753734 0.06777832 0.04899023 -0.05057457 0.06183004 0.05786962 0.07516271 -0.036068205
0.02455274 -0.028162183 0.0088667115 -0.019428419 -0.070911236 0.015497021 0.01225857 0.010117639
00000000: 7508 a33b 5ccf 8a3d fba9 483d 4827 4fbd
00000010: 7f41 7d3d b208 6d3d e8ee 993d 41bc 13bd
00000020: d422 c93c 61b4 e6bc af45 113c 5928 9fbc
00000030: e939 91bd 38e7 7d3c 2bd8 483c 74c4 253c

weight f4 [8, 16, 5, 5]
0.048467614 -0.026159987 -0.042067345 0.023952914 -0.020517599 -0.010006386 0.037093014 0.039222073
-0.041293517 0.0067775645 -0.039458312 0.01697564 -0.0073593836 -0.01256474 0.045616217 0.006738672
0.032691397 -0.0211282 -0.023156067 0.040111538 0.03073109 0.037279893 -0.0057257554 -0.02885192
-0.038997915 0.031755324 0.014787735 -0.052686643 -0.039432686 0.009566144 0.038206067 -0.025981668
-0.009596712 0.041022886 -0.0037441251 0.0076373904 0.011583965 0.014994779 -0.026582036 -0.039740533
0.010133492 0.028700154 -0.032935187 -0.040643517 0.023915803 -0.028217923 0.024598889 -0.0052314852
0.017558333 0.027741157 0.04770289 0.015420956 -0.023850873 -0.011860263 0.04155221 -0.022004176
0.0058964007 -0.008689775 -0.027749225 -0.045443453 0.0027960844 0.0067705954 -0.046400633 -0.049271777
-0.0113414135 0.041694414 0.018991832 -0.03027808 0.010806664 0.04039579 0.02308064 0.032106504
-0.0018580601 -0.025267504 0.041951805 0.048589494 0.019190589 0.003383159 0.03315796 -0.0021270681
0.015148039 0.040050864 0.012026205 0.044604838 -0.029164052 -0.011827554 0.00018862609 0.025271095
0.051636275 0.02359074 -0.019269086 -0.014219433 -0.055243526 0.0063692178 -0.05098094 -0.0070577296
-0.039696984 0.019394621 -0.059470568 0.00994497 -0.038538173 0.002596567 0.048599884 0.047720034
-0.030203817 -0.034312848 -0.032757465 0.008800826 0.04869917 0.03796086 -0.044946544 0.049193624
0.027548248 0.041659985 0.026529096 0.015034094 0.04542916 0.015612255 0.006240933 -0.00884327
0.017123727 -0.022531357 -0.037323367 0.016333077 -0.046334114 0.004277842 -0.045627784 -0.036313187
0.019042239 0.043689813 0.032261312 0.026172433 -0.02315133 -0.0067691295 0.02918189 0.018331503
0.015782095 0.048753474 0.050853666 0.0558181 -0.027812388 0.04277313 -0.025478555 0.01942129
0.045256462 -0.0018520961 0.005477205 -0.048238542 -0.034871534 0.00017733754 0.050170563 -0.015128697
0.025691397 -0.0040478073 0.03793995 -0.01923204 0.030142438 0.022469983 0.03173143 -0.03673932
0.046679642 -0.008635698 0.015426132 0.050520293 -0.014281032 0.017305564 0.019875726 0.022740385
-0.0077650817 -0.041803103 -0.008579 0.006863139 0.021867275 0.049408007 0.011807048 -0.017792873
-0.021198792 0.02190057 -0.04524447 0.047016483 0.039771046 -0.020990143 0.013979675 0.006616644
-0.03758761 0.053267144 0.050875127 -0.01934475 -0.004783949 -0.03439205 0.015902746 -0.042804826
-0.020652529 -0.041438702 0.033332583 0.012016628 -0.0007282235 0.0441724 -0.048181437 -0.018737046
0.03376791 0.0040061837 0.041240856 -0.03604763 0.00033269858 0.027309854 -0.005598004 -0.030918896
-0.022200553 -0.026331313 -0.0029075218 0.0039841887 -0.00024437203 0.055977363 0.03437883 -0.016651362
0.015986908 0.011646872 0.044051863 0.024042461 -0.009961469 -0.017877946 0.03762773 -0.01240664
0.041707724 -0.026542863 -0.0036384626 0.0450592 -0.03302079 0.04343395 0.008831337 -0.03425458
0.030439667 0.0026149442 -0.015506744 0.017224304 0.029164435 0.032618348 0.05438592 0.016751096
0.021054894 0.011393323 -0.028893972 -0.022589482 -0.014006727 -0.030135205 0.03034254 0.037242807
0.019281577 0.010888761 -0.022297759 -0.0031487367 -0.028759362 -0.0270025 0.03218312 -0.009034882
00000000: fa85 463d 784d d6bc cf4e 2cbd e738 c43c
00000010: 8614 a8bc d3f1 23bc d8ee 173d 53a7 203d
00000020: 6423 29bd 5516 de3b 0a9f 21bd 7f10 8b3c
00000030: fc26 f1bb 57dc 4dbc 12d8 3a3d 14d0 dc3b
00000040: 6ae7 053d 0c15 adbc cbb1 bdbc ff4b 243d
00000050: c4bf fb3c cdb2 183d 1e9f bbbb dd5a ecbc
00000060: 47bc 1fbd df11 023d 4248 723c f3cd 57bd
00000070: 2b84 21bd 51bb 1c3c f77d 1c3d 82d7 d4bc
00000080: 873b 1dbc 9d07 283d ff5f 75bb 1343 fa3b
00000090: acca 3d3c a9ac 753c 92c2 d9bc f8c6 22bd
000000a0: f206 263c 961c eb3c 0ce7 06bd d179 26bd
000000b0: 13eb c33c 4629 e7bc 9c83 c93c e16c abbb
000000c0: 7ed6 8f3c 6c41 e33c 1b64 433d 2da8 7c3c
000000d0: e862 c3bc 8c51 42bc a632 2a3d 1a42 b4bc
000000e0: 9836 c13b 8f5f 0ebc 5852 e3bc ea22 3abd
000000f0: 833e 373b dfdb dd3b 970e 3ebd 34d1 49bd
00000100: 56d1 39bc c3c7 2a3d c294 9b3c bc09 f8bc
00000110: 6f0e 313c 0e76 253d 9c13 bd3c 1c82 033d
00000120: 278a f3ba ccfd cebc a8d5 2b3d c705 473d
00000130: 9535 9d3c fdb7 5d3b a4d0 073d 4866 0bbb
00000140: 7b2f 783c 600c 243d 8f09 453c 90b3 363d
00000150: 73e9 eebc 5bc8 41bc eec9 4539 5405 cf3c
00000160: 8f80 533d 5e41 c13c 34da 9dbc a0f8 68bc
00000170: 0947 62bd dfb4 d03b 64d1 50bd 8744 e7bb
00000180: 4e99 22bd 78e1 9e3c 6997 73bd 3af0 223c
00000190: 34da 1dbd 2a2b 2a3b ac10 473d 1576 433d
000001a0: ff6d f7bc a18b 0cbd b12c 06bd 5731 103c
000001b0: c878 473d d97c 1b3d de19 38bd 417f 493d
000001c0: ddac e13c a9a3 2a3d 8c53 d93c 9051 763c
000001d0: ed13 3a3d 8bca 7f3c be80 cc3b 5de3 10bc
000001e0: 0f47 8c3c ae93 b8bc 63e0 18bd f2cc 853c
000001f0: d7c8 3dbd 242d 8c3b 33e4 3abd 23bd 14bd
00000200: 78fe 9b3c 17f4 323d 7024 043d 9267 d63c
00000210: dca7 bdbc 93cf ddbb dc0e ef3c f32b 963c
00000220: 7449 813c b9b1 473d ef4b 503d 85a1 643d
00000230: ced6 e3bc e132 2f3d 67b8 d0bc 6619 9f3c
00000240: d75e 393d 08c2 f2ba 207a b33b c795 45bd
00000250: 74d5 0ebd aff3 3939 a67f 4d3d 5bde 77bc
00000260: c476 d23c 78a3 84bb ec66 1b3d 838c 9dbc
00000270: 46ed f63c f812 b83c d1f8 013d f87b 16bd
00000280: 2733 3f3d be7c 0dbc e3bd 7c3c 5eee 4e3d
00000290: fdfa 69bc 66c4 8d3c 6bd2 a23c 0b4a ba3c
000002a0: 3a72 febb bb39 2bbd ef8e 0cbc 2fe4 e03b
000002b0: 0023 b33c 0d60 4a3d 5972 413c 5cc2 91bc
000002c0: 17a9 adbc d368 b33c 4452 39bd 5b94 403d
000002d0: f7e6 223d 85f3 abbc 020b 653c 6fd0 d83b
000002e0: 77f5 19bd a62e 5a3d 7062 503d e278 9ebc
000002f0: acc2 9cbb aede 0cbd 7a46 823c 1d54 2fbd
00000300: 7e2f a9bc a1bb 29bd bf87 083d 64e1 443c
00000310: 40e6 3eba 1eee 343d e659 45bd 6f7e 99bc
00000320: 3850 0a3d 4e46 833b 2cec 283d aea6 13bd
00000330: 0c6e ae39 eab8 df3c 766f b7bb a049 fdbc
00000340: efdd b5bc c4b4 d7bc 1f8c 3ebb cc8d 823b
00000350: 0f1f 80b9 8548 653d d1d0 0c3d 7068 88bc
00000360: faf6 823c 86d2 3e3c ba6f 343d b2f4 c43c
00000370: 6e35 23bc c574 92bc 891f 1a3d 3845 4bbc
00000380: b8d5 2a3d 6b70 d9bc 4673 6ebb ff8f 383d
00000390: cf40 07bd cce7 313d 50b1 103c 884e 0cbd
000003a0: 9c5c f93c 7c5f 2b3b 0010 7ebc fc19 8d3c
000003b0: 41ea ee3c d19a 053d c5c3 5e3d 9839 893c
000003c0: 507b ac3c 0fab 3a3c 0db3 ecbc 940d b9bc
000003d0: 797c 65bc 1bde f6bc eb90 f83c ea8b 183d
000003e0: 66f4 9d3c c666 323c caa9 b6bc 095b 4ebb
000003f0: c198 ebbc 5934 ddbc 72d2 033d 0b07 14bc

bias f4 [8]
-0.012710401 0.0002632395 0.008839187 0.003784198 0.049280643 0.010936735 0.051082354 0.041626975
00000000: 493f 50bc 6803 8a39 3dd2 103c 4f00 783b
00000010: 80da 493d fe2f 333c bb3b 513d 0c81 2a3d

weight f4 [256, 648]
-0.03484113 0.03555184 0.039852954 -0.03140857 0.03980083 -0.031023297 -0.03099591 0.009638617
0.013021346 -0.031148074 0.04128406 0.024365705 0.0057412307 0.03500377 -0.013091917 -0.025032705
0.020571252 -0.031660903 -0.035126366 -0.011242331 0.012501973 -0.022618985 0.011611961 -0.014592417
0.03242914 -0.016053466 0.014883758 0.02283229 -0.029280005 0.0133004505 -0.033423334 0.018288145
-0.020596657 -0.008610322 -0.031107722 0.00042267094 0.032885954 -0.015762243 0.009065003 0.031925384
-0.03216997 0.017387986 -0.016393827 -0.015685305 0.000990884 -0.0075421426 0.017634356 -0.026568148
0.005625482 -0.010987776 -0.0013500892 -0.037695896 0.011194921 -0.007879317 -0.03522599 0.005093345
0.020718556 -0.020423912 0.006309422 0.016830623 0.02355269 -0.031796396 -0.022127444 0.023717673
0.010225843 -0.02887865 0.017409522 0.038022567 -0.031709354 -0.0048233243 0.041020505 -0.037804354
0.0025932097 0.031516407 0.03011731 0.02679082 0.036281936 0.020682603 -0.020656355 0.03771782
0.024330353 -0.034899052 -0.01252096 -0.0022208523 0.028036816 -0.0077052335 0.035187367 -0.025892906
-0.014490329 0.034283172 -0.009920079 0.028923554 -0.0065916167 -0.0038243276 0.023267107 0.03475617
-0.02056759 0.031947497 -0.031114314 -0.007952597 0.040116824 -0.017696878 0.021026181 -0.036089465
0.005669584 0.03548772 0.034637336 0.010059244 0.01338956 -0.03773579 -0.0008716135 0.011132089
-0.0066989097 -0.03580198 -0.025583727 -0.016108714 -0.017470488 0.027972607 -0.010248265 -0.006897518
-0.046010774 -0.02017339 -0.018375535 -0.00074407144 0.012203286 0.0119871255 0.03640042 -0.03821758
-0.004131261 0.008817779 -0.03828022 0.025069647 -0.016801542 -0.0024069375 -0.025914425 0.0224933
0.031634532 0.034757867 0.02821707 -0.035737883 -0.018151999 -0.0037812733 0.030231686 -0.00789984
-0.016804338 -0.014897499 0.035440106 0.016912548 -0.011422185 0.038385775 0.024543311 6.461944e-05
-0.026306814 0.0240797 -0.025147544 -0.03842882 -0.005732116 -0.0090053305 0.0031950125 0.016951367
-0.010906211 -0.010353005 0.0024850084 -0.030026816 -0.012007947 0.0063503557 -0.0020918828 0.009509756
-0.020791706 -0.023897098 0.032079667 0.037101544 0.025437586 0.012248838 -0.034471087 0.01218775
-0.018983558 0.004531462 -0.036022715 -0.014088309 0.021071708 0.033870094 0.029693749 0.009250378
-0.02670578 -0.036470663 0.0040876754 -0.022044687 0.016312456 -0.023205006 -0.021957109 -0.006827434
-0.0354465 0.021799013 -0.027130691 0.007998282 0.019796008 0.017232807 -0.03322824 0.030860797
0.0050007715 0.0015872406 0.004109979 -0.0136064105 -0.008134043 0.010248738 -0.013279953 -0.012985408
-0.00977566 -0.009908567 0.009603489 0.012444961 0.007509475 0.016133217 0.024418099 -0.026881667
0.0022504753 0.031886224 0.036665533 0.0040044654 -0.033169568 0.03305236 -0.02497717 0.022356262
-0.032902848 0.004013221 0.021030737 0.03706974 -0.009955854 -0.0047779917 -0.022228576 0.03715158
0.029488074 0.022197243 0.020479366 -0.009210471 -0.018637227 -0.016348053 -0.024154533 0.030812481
0.029733395 0.02018293 0.03844423 0.0046053813 0.023613151 -0.019540535 0.03153432 0.032054782
-0.012450497 -0.03323767 -0.02881336 0.001750004 -0.0045631886 0.0061449725 0.03558099 0.0075948294
00000000: 93b5 0ebd ce9e 113d da3c 233d 46a6 00bd
00000010: 3206 233d 9224 febc 22eb fdbc 4aeb 1d3c
00000020: 7c57 553c 3f2a ffbc 7919 293d 969a c73c
00000030: ef20 bc3b 1d60 0f3d 7b7f 56bc 6311 cdbc
00000040: 0b85 a83c ddae 01bd aae0 0fbd c131 38bc
00000050: 13d5 4c3c 734b b9bc 1840 3e3c 0815 6fbc
00000060: 6bd4 043d 8f82 83bc 01db 733c c80a bb3c
00000070: 9fdc efbc 22ea 593c e8e6 08bd 05d1 953c
00000080: 52ba a8bc 4f12 0dbc 9fd5 febc ef99 dd39
00000090: 6cb3 063d d21f 81bc 6185 143c 31c4 023d
000000a0: a9c4 03bd 4071 8e3c 594c 86bc 787e 80bc
000000b0: 8de0 813a 1424 f7bb ed75 903c 72a5 d9bc
000000c0: f755 b83b 1306 34bc 7af5 b0ba 0367 1abd
000000d0: e76a 373c 4018 01bc 2149 10bd 13e6 a63b
000000e0: f6b9 a93c 0c50 a7bc 45bf ce3b 60e0 893c
000000f0: 92f1 c03c f03c 02bd 9d44 b5bc 914b c23c
00000100: 4b8a 273c eb92 ecbc 6a9e 8e3c 8dbd 1b3d
00000110: abe1 01bd fa0c 9ebb 1e05 283d bdd8 1abd
00000120: d7f2 293b 5917 013d 94b8 f63c 6c78 db3c
00000130: 5e9c 143d 906e a93c 8437 a9bc 007e 1a3d
00000140: 7350 c73c 4ff2 0ebd b624 4dbc b88b 11bb
00000150: 77ad e53c 2f7c fcbb a120 103d 5c1d d4bc
00000160: d868 6dbc 836c 0c3d d487 22bc 17f1 ec3c
00000170: 7dfe d7bb 92a1 7abb a99a be3c 7c5c 0e3d
00000180: 5d7d a8bc 61db 023d 72e3 febc 9c4b 02bc
00000190: 8a51 243d 0bf9 90bc 193f ac3c 8cd2 13bd
000001a0: ebc7 b93b 925b 113d e1df 0d3d 87cf 243c
000001b0: e35f 5b3c d890 1abd fe7c 64ba 5e63 363c
000001c0: 8782 dbbb 19a5 12bd f794 d1bc 6cf6 83bc
000001d0: 451e 8fbc cf26 e53c 57e8 27bc 9304 e2bb
000001e0: cb75 3cbd aa42 a5bc 4a88 96bc ca0d 43ba
000001f0: 4bf0 473c a665 443c 9b18 153d 0a8a 1cbd
00000200: 875f 87bb 7278 103c b8cb 1cbd dc5e cd3c
00000210: 63a3 89bc b6bd 1dbb 7d4a d4bc de43 b83c
00000220: 3693 013d 445e 0e3d 7c27 e73c e361 12bd
00000230: 80b3 94bc 3dcf 77bb 71a8 f73c 556e 01bc
00000240: 40a9 89bc a414 74bc a529 113d 2f8c 8a3c
00000250: 1e24 3bbc 673a 1d3d 0e0f c93c 4c84 8738
00000260: 6381 d7bc ca42 c53c 3902 cebc 8a67 1dbd
00000270: 79d4 bbbb 188b 13bc 6a63 513b 98dd 8a3c
00000280: f7af 32bc a69f 29bc 86db 223b ccfa f5bc
00000290: fbbc 44bc a516 d03b f817 09bb cfce 1b3c
000002a0: 5e53 aabc d9c3 c3bc f865 033d caf7 173d
000002b0: 7c62 d03c 5aaf 483c 8e31 0dbd 21af 473c
000002c0: 6883 9bbc a97c 943b 8e8c 13bd a7d2 66bc
000002d0: 939e ac3c 5ebb 0a3d 4e40 f33c e68e 173c
000002e0: 14c6 dabc 4362 15bd e8f1 853b 0f97 b4bc
000002f0: b3a1 853c 6d18 bebc 65df b3bc abb8 dfbb
00000300: 5930 11bd d893 b23c 2f41 debc 3a0b 033c
00000310: 3d2b a23c d12b 8d3c 561a 08bd c8cf fc3c
00000320: 83dd a33b f50a d03a 01ad 863b 6ced 5ebc
00000330: a644 05bc 53ea 273c 2994 59bc c0c0 54bc
00000340: 172a 20bc 8b57 22bc f457 1d3c f3e5 4b3c
00000350: 0b12 f63b cf29 843c 7708 c83c f136 dcbc
00000360: b67c 133b 219b 023d 992e 163d e437 833b
00000370: d0dc 07bd e961 073d ec9c ccbc 7b24 b73c
00000380: 23c5 06bd 5681 833b a748 ac3c 71d6 173d
00000390: e11d 23bc b390 9cbb b418 b6bc 412c 183d
000003a0: f990 f13c fed6 b53c 58c4 a73c 84e7 16bc
000003b0: 19ad 98bc 5aec 85bc badf c5bc 756a fc3c
000003c0: 7393 f33c ac56 a53c b277 1d3d bde8 963b
000003d0: 5e70 c13c 7913 a0bc 222a 013d e04b 033d
000003e0: 2bfd 4bbc 3924 08bd ff09 ecbc 6460 e53a
000003f0: cd86 95bb c45b c93b 5fbd 113d 0cde f83b

bias f4 [256]
-0.027743641 0.017852454 -0.027459186 -0.038440492 -0.013715241 0.018764976 0.019500783 -0.036901664
0.00951925 -0.012337086 -0.035025097 0.0126146525 0.0048099384 -0.01244354 0.009439203 0.014287731
0.03215411 0.03694868 0.025160981 0.010992832 0.016908797 0.0106887715 0.023165857 -0.009572552
0.0035052628 -0.03242257 -0.008784581 0.024685333 -0.00075255445 0.02441238 0.012315598 0.03227924
-0.017178066 -0.02165714 -0.013058437 0.004500806 -0.030866714 -0.037001885 0.004651662 0.039113473
-0.030281339 0.020332834 -0.027743347 -0.029427309 0.039537244 0.023887474 0.00019734763 0.02125092
0.0055412618 -0.01070034 -0.03127244 0.0101366965 0.03038635 -0.033037767 0.02237732 -0.02316475
0.011950364 0.00012627465 0.010434196 -0.03312877 -0.01933753 -0.0040706866 -0.0086561395 0.016062587
0.0062362216 -0.011254183 -0.036568373 0.033275038 0.012859548 -0.034747638 0.03123185 0.013083966
-0.027477002 -0.03892356 -0.027886912 -0.005438086 -0.011594147 0.016474415 -0.023065984 -0.03408475
0.016743466 -0.037662424 0.009064308 0.024413964 0.023241915 0.028547527 0.018070422 0.031348478
0.02668272 -0.032220338 -0.020669442 -0.011596789 0.024361342 -0.022216354 0.017618712 -0.008730655
-0.013473153 0.025777295 0.03341297 0.0011958252 0.011123716 0.011216573 -0.023770714 0.0033051826
0.032484513 -0.03875923 -0.004707173 0.027164664 0.00038479833 -0.01424567 0.01938872 -0.03057687
0.032800656 0.008405506 -0.029077113 -0.019944599 0.0065813037 -0.038260505 0.016654905 -0.030434158
0.018518085 -0.02242116 0.006255287 0.011910422 -0.032459307 -0.024266344 0.011800563 0.02734274
0.031671822 0.034018733 0.016605612 0.00014973032 0.016778605 -0.038115457 -0.019339759 0.005857464
-0.03506881 -0.029560994 0.00048343735 -0.011413862 -0.01466222 0.02370822 -0.02253937 0.036861524
-0.0055674105 -0.023180455 0.038209144 -0.020044053 -0.038318984 -0.02115185 0.03664946 -0.014781598
0.024447903 0.006236467 0.025266698 -0.03145628 -0.028990177 0.02312123 0.03337212 0.037205823
-0.01177264 -0.023566602 -0.018315429 -0.007644727 -0.006540731 -0.033004012 -0.008247777 0.0008850062
0.024265107 0.022854071 -0.0070655067 0.014888125 -0.03285751 0.026466032 -0.020554014 -0.01567628
0.016754525 0.01879566 -0.037331916 0.012391489 0.0058726096 0.024491232 0.001317035 0.013509696
0.0043101395 -0.027292913 -0.033609584 -0.005908891 -0.015796501 0.012018376 -0.009249756 0.003147859
0.035168745 0.030768886 -0.022986064 -0.0033120287 -0.02168431 0.012233912 0.0038726348 -0.007302548
0.041964386 -0.029702757 -0.008951294 0.009616605 0.02590968 0.024289275 0.0026768094 -0.033176944
-0.0038545383 -0.024855029 0.011776612 0.013394408 -0.00034227627 -0.0014350754 0.0039828382 -0.009949419
-0.028521577 0.017950442 -0.030425437 0.0040507764 0.030529354 -0.012139897 0.02280943 -0.007032585
0.009815273 0.014995061 -0.034462433 -0.021452934 0.0030116022 -0.034268696 0.0065116626 0.010093592
0.026648967 -0.0128855575 0.02324502 0.03640373 -0.0082001295 0.010944103 0.029936785 -0.0349022
-0.027571218 -0.017415741 -0.0358868 0.031982668 0.017551895 -0.015915042 -0.030027412 0.02743478
-0.023354065 0.015625713 -0.01676923 0.032954838 0.025019245 -0.0009870069 -0.021394951 0.017761484
00000000: a246 e3bc 4f3f 923c 16f2 e0bc c773 1dbd
00000010: e4b5 60bc 02b9 993c 1bc0 9f3c 3326 17bd
00000020: a1f6 1b3c 7d21 4abc 7a76 0fbd b0ad 4e3c
00000030: b09c 9d3b fddf 4bbc e3a6 1a3c 1617 6a3c
00000040: 07b4 033d 8057 173d 671e ce3c 471b 343c
00000050: 5184 8a3c f51f 2f3c 53c6 bd3c 31d6 1cbc
00000060: 8db8 653b 87cd 04bd 34ed 0fbc e538 ca3c
00000070: 1347 45ba 79fc c73c 5dc7 493c 3d37 043d
00000080: 04b9 8cbc 516a b1bc 0ef3 55bc 7f7b 933b
00000090: 31dc fcbc 4a8f 17bd f86c 983b 7335 203d
000000a0: 9210 f8bc 0b91 a63c 0446 e3bc 8a11 f1bc
000000b0: cef1 213d aaaf c33c 1aef 4e39 6916 ae3c
000000c0: 7993 b53b 7b50 2fbc 8817 00bd 6314 263c
000000d0: cbec f83c 9c52 07bd a450 b73c 00c4 bdbc
000000e0: 76cb 433c 9868 0439 31f4 2a3c 08b2 07bd
000000f0: bd69 9ebc 6563 85bb 7bd2 0dbc b095 833c
00000100: 3859 cc3b 7763 38bc b8c8 15bd 684b 083d
00000110: dbb0 523c 8a53 0ebd f0d9 ff3c 225e 563c
00000120: 7317 e1bc 506e 1fbd 1873 e4bc f931 b2bb
00000130: 61f5 3dbc 5af5 863c e0f4 bcbc 739c 0bbd
00000140: 9829 893c ea43 1abd 7782 143c cbff c73c
00000150: d465 be3c 81dc e93c 6c08 943c 4367 003d
00000160: b895 da3c 79f9 03bd f652 a9bc 7500 3ebc
00000170: 7091 c73c 12ff b5bc 1e55 903c 050b 0fbc
00000180: 80be 5cbc e82a d33c 0adc 083d 3cbd 9c3a
00000190: 3f40 363c b8c5 373c cdba c2bc c39b 583b
000001a0: 7b0e 053d 00c2 1ebd a13e 9abb 6e88 de3c
000001b0: c2be c939 ac66 69bc 18d5 9e3c 587c fabc
000001c0: fb59 063d 3fb7 093c 2033 eebc db62 a3bc
000001d0: faa7 d73b 0cb7 1cbd de6f 883c 0e51 f9bc
000001e0: 3db3 973c 95ac b7bc 27f9 cc3b ee23 433c
000001f0: 0df4 04bd 36ca c6bc 2657 413c e2fd df3c
00000200: 50ba 013d 3a57 0b3d 7e08 883c ed00 1d39
00000210: 4973 893c f41e 1cbd 6a6e 9ebc f8ef bf3b
00000220: 50a4 0fbd e629 f2bc dd75 fd39 3501 3bbc
00000230: cf39 70bc be37 c23c 7ca4 b8bc 1cfc 163d
00000240: d36e b6bb f0e4 bdbc 3181 1c3d 6d33 a4bc
00000250: 5ef4 1cbd a546 adbc bf1d 163d 842e 72bc
00000260: f846 c83c 475b cc3b 1bfc ce3c 4dd8 00bd
00000270: cf7c edbc bc68 bd3c 34b1 083d 2265 183d
00000280: 08e2 40bc bf0e c1bc 3d0a 96bc 9e80 fabb
00000290: a153 d6bb 372f 07bd af21 07bc c3ff 673a
000002a0: 9ec7 c63c 7638 bb3c c485 e7bb 52ed 733c
000002b0: 9995 06bd 4bcf d83c e460 a8bc 8b6b 80bc
000002c0: c940 893c 5bf9 993c 5ae9 18bd ac05 4b3c
000002d0: 056f c03b d6a1 c83c 5da0 ac3a c657 5d3c
000002e0: 123c 8d3b 6395 dfbc 34aa 09bd 5f9f c1bb
000002f0: aa67 81bc b9e8 443c 4a8c 17bc 4f4c 4e3b
00000300: 1a0d 103d 080f fc3c 454d bcbc 9f0e 59bb
00000310: 4ba3 b1bc bf70 483c 08cc 7d3b 364a efbb
00000320: d9e2 2b3d 3253 f3bc 73a8 12bc f78e 1d3c
00000330: 8a40 d43c 4dfa c63c 696d 2f3b 8ce4 07bd
00000340: 6c9c 7cbb c69c cbbc b1f2 403c 3874 5b3c
00000350: 8b73 b3b9 2419 bcba 7882 823b e302 23bc
00000360: 15a6 e9bc ce0c 933c c43e f9bc 60bc 843b
00000370: b218 fa3c 6be6 46bc d7da ba3c 9971 e6bb
00000380: 3dd0 203c d8ad 753c 7b28 0dbd 10be afbc
00000390: 4d5e 453b 555d 0cbd c95f d53b 985f 253c
000003a0: ef4e da3c f21d 53bc 576c be3c 141c 153d
000003b0: d659 06bc e54e 333c fd3d f53c 9cf5 0ebd
000003c0: 09dd e1bc 75ab 8ebc 0afe 12bd 4200 033d
000003d0: fec8 8f3c 4360 82bc 0cfc f5bc e7be e03c
000003e0: 0651 bfbc 7f01 803c a05f 89bc a7fb 063d
000003f0: 29f5 cc3c 755e 81ba 7744 afbc 8880 913c

weight f4 [64, 256]
0.047029626 -0.033815168 -0.03230004 -0.021059416 0.014128089 0.05681967 0.024957292 -0.02755857
0.057427064 -0.019165866 -0.0554416 0.04095575 0.044167496 -0.017606007 0.051748615 -0.06247002
-0.025011664 -0.038359135 0.042836513 0.063125126 0.031119505 0.023212764 0.062010344 -0.05967665
0.025451 -0.049593523 -0.05441017 -0.029035423 -0.056213688 -0.053836532 -0.034422327 -0.05667664
-0.014605212 0.036120914 -0.01905073 0.05129264 -0.024644388 -0.047648586 0.052684184 -0.009144603
0.054440644 0.06086402 0.016394235 0.026196932 -0.053181663 -0.047351617 0.030160176 0.057827815
0.047200717 -0.000339899 0.01496274 0.033070404 -0.0406788 -0.053166248 0.06070081 0.022978159
0.020286564 -0.036426827 -0.0136278 0.055209644 -0.016908221 -0.036550216 0.0041793357 -0.044815272
0.043516893 0.0066010356 0.006881324 0.014176749 0.0079994695 0.023431947 0.07784831 0.028275738
0.038615026 0.012543453 -0.058163386 -0.05502533 -0.04541761 0.04251279 -0.013929422 0.0056270827
0.049548995 -0.0018400128 -0.03487415 -0.04291609 0.061168086 0.038968794 -0.021101953 0.04116905
-0.013369712 0.05718453 -0.06220154 0.024134077 -0.05555571 -0.036186658 0.052929718 -0.0319451
0.051244423 -0.035707835 0.031537883 0.03772205 -0.05765412 0.010858209 -0.003121374 -0.056525916
-0.011344536 0.025117345 -0.032096647 0.05101753 -0.052177083 0.06387741 -0.014449091 0.037374105
0.041572057 0.0071798773 0.03069119 -0.028956227 0.025316115 -0.0050275438 0.030523835 0.012943006
0.017585807 -0.012819051 -0.003867789 -0.005209427 -0.021339536 0.015099861 0.044140518 0.055876754
-0.037712328 0.017663667 0.026529696 0.008629115 -0.04178122 0.07263123 -0.057528157 -0.016880104
-0.04779621 0.030111328 0.0072437036 0.04062588 -0.025813766 0.0032809933 -0.04969168 -0.0043389713
-0.04223732 -0.008520223 0.012655353 0.018779628 -0.04578423 0.0030048415 -0.056491163 -0.023665227
0.032137893 -0.005467147 -0.037746884 -0.036400143 0.0075761997 0.04004634 0.006850503 -0.01010515
0.0067750737 0.04115763 0.045509294 -0.035660993 0.0653437 -0.03633958 -0.001144733 -0.026397172
-0.010289899 0.015402463 0.045488335 0.011308334 -0.027858559 -0.049380824 0.008376464 0.053658098
0.01677735 -0.045252312 -0.011994203 0.033854455 -0.05351558 -0.01686411 0.027150342 0.025858266
-0.019140825 0.010321809 0.005065238 -0.004382372 -0.01701742 0.06531363 -0.015508788 0.054118786
0.0516206 0.01156629 0.042356715 0.060571503 0.05969306 0.0023830682 -0.032564383 -0.019686721
-0.000363315 -0.03543007 0.014743883 0.021547353 0.05668879 0.0024793665 0.045125514 0.065960705
0.050313137 0.054724433 0.019459965 -0.00076517125 -0.010038103 -0.008696885 0.027409675 0.008803857
0.052536972 0.0383185 0.0408066 -0.053605694 -0.054533415 -0.044109456 -0.053697523 -0.006373917
0.03526391 -0.052706398 0.01646517 0.034671538 0.06170497 0.027798606 0.003958409 0.07106311
-0.029264836 -0.057575203 0.03367691 0.0043981704 -0.059450716 -0.014909283 0.04137746 0.060007203
0.055506453 0.05008978 0.008608177 0.008142581 -0.017544657 0.015671324 0.04967145 -0.045708906
0.06272869 -0.060870256 -0.05051794 -0.03605423 -0.057897717 0.046551697 0.0370749 -0.0349059
00000000: 23a2 403d c681 0abd 0c4d 04bd cc84 acbc
00000010: 8079 673c bebb 683d 3c73 cc3c 83c2 e1bc
00000020: a438 6b3d bc01 9dbc bb16 63bd 37c1 273d
00000030: fae8 343d 793a 90bc 5bf6 533d 90e0 7fbd
00000040: 43e5 ccbc 781e 1dbd 5775 2f3d bf47 813d
00000050: 55ee fe3c b228 be3c 8ffe 7d3d 816f 74bd
00000060: 9e7e d03c 9422 4bbd 33dd 5ebd b2db edbc
00000070: 5340 66bd b283 5cbd 6dfe 0cbd c425 68bd
00000080: b34a 6fbc 86f3 133d 4710 9cbc 3b18 523d
00000090: 07e3 c9bc 2a2b 43bd 5fcb 573d 3fd3 15bc
000000a0: 27fd 5e3d 8d4c 793d 344d 863c f39a d63c
000000b0: 04d5 59bd c5f3 41bd 7912 f73c dcdc 6c3d
000000c0: 8a55 413d 7934 b2b9 4826 753c d574 073d
000000d0: d09e 26bd dac4 59bd 6aa1 783d b13c bc3c
000000e0: 0230 a63c 4c34 15bd 2347 5fbc 8223 623d
000000f0: 1c83 8abc aeb5 15bd cff2 883b 3890 37bd
00000100: c53e 323d 804d d83b bb7c e13b 9845 683c
00000110: 3510 033c 5bf4 bf3c ef6e 9f3d 85a2 e73c
00000120: ca2a 1e3d 0e83 4d3c bb3c 6ebd 3e62 61bd
00000130: d107 3abd e421 2e3d 3b38 64bc 6463 b83b
00000140: e3f3 4a3d 962c f1ba 32d8 0ebd c8c8 2fbd
00000150: 638b 7a3d be9d 1f3d 01de acbc e1a0 283d
00000160: a30c 5bbc 533a 6a3d 0bc7 7ebd d4b4 c53c
00000170: 628e 63bd 7638 14bd d5cc 583d ddd8 02bd
00000180: ace5 513d 6142 12bd de2d 013d 7082 1a3d
00000190: ba26 6cbd a1e6 313c f78f 4cbb b887 67bd
000001a0: 6fde 39bc e4c2 cd3c c677 03bd c2f7 503d
000001b0: a3b7 55bd 29d2 823d e1bb 6cbc 9715 193d
000001c0: 7647 2a3d 2d45 eb3b 176c fb3c 9c35 edbc
000001d0: be63 cf3c 18be a4bb 1f0d fa3c e70e 543c
000001e0: 1c10 903c ff06 52bc bb7a 7dbb d7b3 aabb
000001f0: 40d0 aebc 6865 773c b0cc 343d 06df 643d
00000200: 3e78 1abd 65b3 903c ce54 d93c 2261 0d3c
00000210: c922 2bbd afbf 943d a5a2 6bbd 2548 8abc
00000220: f5c5 43bd 08ac f63c 975c ed3b 5367 263d
00000230: 6477 d3bc ef05 573b 8189 4bbd ee2d 8ebb
00000240: 0a01 2dbd 6898 0bbc 6658 4f3c bcd7 993c
00000250: 3f88 3bbd e0ec 443b 4763 67bd 94dd c1bc
00000260: 06a3 033d c125 b3bb 7a9c 1abd 5118 15bd
00000270: c541 f83b a207 243d 2f7a e03b 1290 25bc
00000280: 7001 de3b e794 283d f467 3a3d 4311 12bd
00000290: ebd2 853d d0d8 14bd de0a 96ba e23e d8bc
000002a0: f796 28bc 9d5a 7c3c fa51 3a3d 9746 393c
000002b0: a237 e4bc 8c43 4abd 703d 093c 98c8 5b3d
000002c0: a770 893c 7d5a 39bd 5583 44bc f8aa 0a3d
000002d0: 2733 5bbd 9a26 8abc 656a de3c b7d4 d33c
000002e0: 38cd 9cbc ce1c 293c 4cfa a53b 009a 8fbb
000002f0: 1e68 8bbc 27c3 853d 9218 7ebc a9ab 5d3d
00000300: 1f70 533d 8980 3d3c 3c7e 2d3d d319 783d
00000310: b680 743d 402d 1c3b 3b62 05bd 0c46 a1bc
00000320: 507b beb9 1f1f 11bd 5490 713c 1384 b03c
00000330: 8132 683d de7c 223b 88d5 383d 6816 873d
00000340: 2615 4e3d ba26 603d 816a 9f3c c695 48ba
00000350: db76 24bc 617d 0ebc 418a e03c 0d3e 103c
00000360: 0231 573d dcf3 1c3d d224 273d a591 5bbd
00000370: 6e5e 5fbd 1eac 34bd eff1 5bbd 4bdc d0bb
00000380: e470 103d aae2 57bd f7e1 863c be03 0e3d
00000390: 5abe 7c3d e7b9 e33c 8bb5 813b 8989 913d
000003a0: cfbc efbc fad3 6bbd cdf0 093d 871e 903b
000003b0: 9882 73bd 1146 74bc 697b 293d 1dca 753d
000003c0: bc5a 633d f12a 4d3d 5009 0d3c 7668 053c
000003d0: d0b9 8fbc 2661 803c 4a74 4b3d 4339 3bbd
000003e0: e677 803d 1753 79bd e6eb 4ebd 9aad 13bd
000003f0: 2826 6dbd feac 3e3d dadb 173d 7df9 0ebd

bias f4 [64]
0.05461393 3.0215908e-06 0.03966402 -0.0032434405 -0.026766209 0.0037551324 -0.012315031 -0.0041374937
-0.014009564 -0.052502714 0.04584333 0.0161765 -0.06211387 0.0075941654 0.012415145 0.040437117
0.010076769 0.024900569 -0.014085752 -0.020637406 0.01667041 0.0050052046 -0.009552677 -0.03404737
-0.050841622 -0.01332263 0.012655244 -0.041067403 -0.0201485 0.05872991 0.040331658 0.0005229457
-0.002561818 0.02811109 0.0042205234 0.0022513077 0.00797487 -0.02960642 0.05566061 0.042678107
0.06246321 -0.0014494701 -0.043376327 0.027959256 0.042964444 -0.0621915 -0.054670043 0.038918566
-0.05598863 -0.005450622 0.0012873885 -0.04930569 -6.4353415e-05 0.031107457 0.04670083 -0.047011677
-0.0023225385 0.007903783 0.02360282 0.019117905 -0.03611633 0.03633999 -0.03714939 0.03696866
00000000: dbb2 5f3d 89c6 4a36 bd76 223d e78f 54bb
00000010: cf44 dbbc ab18 763b fcc4 49bc d093 87bb
00000020: 5f88 65bc 160d 57bd 37c6 3b3d 9484 843c
00000030: 1d6b 7ebd 7ad8 f83b e468 4b3c 64a1 253d
00000040: 0819 253c 47fc cb3c edc7 66bc c70f a9bc
00000050: 6290 883c b302 a43b d582 1cbc 4175 0bbd
00000060: 4e3f 50bd 2947 5abc f157 4f3c 4b36 28bd
00000070: 780e a5bc c68e 703d cf32 253d 4b16 093a
00000080: 2de4 27bb 3b49 e63c 514c 8a3b ad8a 133b
00000090: 07a9 023c 2a89 f2bc 61fc 633d 3dcf 2e3d
000000a0: 6cd9 7f3d 25fc bdba 60ab 31bd cf0a e53c
000000b0: 7cfb 2f3d 84bc 7ebd b2ed 5fbd 1369 1f3d
000000c0: 5554 65bd 229b b2bb 97bd a83a c3f4 49bd
000000d0: 7af5 86b8 11d5 fe3c 5f49 3f3d 518f 40bd
000000e0: bb35 18bb de7e 013c b35a c13c 279d 9c3c
000000f0: b8ee 13bd 3ed9 143d f529 18bd 736c 173d

weight f4 [16, 64]
-0.11475641 0.08622506 0.0067499103 -0.08394259 -0.09716885 -0.055546775 -0.11976648 0.06983325
-0.03574395 0.030174244 0.10378821 -0.012859079 -0.06901293 0.04354697 0.081273876 -0.09575653
-0.09326589 0.11607275 -0.007535676 0.04974865 0.057596873 0.066373885 -0.010085879 -0.0002640813
-0.11366138 0.064537644 -0.074963264 0.09008303 0.12016173 -0.022200936 0.054961517 0.037015088
-0.0027341205 0.07785017 -0.019807179 -0.114116475 0.100068904 0.034915213 -0.10072995 0.08323543
0.066892765 0.06720054 -0.11265318 -0.04989426 -0.02684849 -0.028457232 0.062228993 0.1126742
-0.06868501 0.021088077 0.08970097 0.1122422 0.059164587 0.04863869 -0.032602813 0.006837818
-0.074523434 -0.11631506 0.08518611 0.08844347 0.019621165 -0.014038613 0.12501487 -0.06229249
0.11232471 0.07963648 -0.047319017 0.08237075 -0.02034446 -0.0043143034 -0.021092376 0.010016688
0.03699278 0.13230021 -0.01644339 0.08559031 0.10325969 -0.07031097 0.10324254 0.10485922
-0.049815018 -0.030212663 0.004103964 -0.057626404 0.03756086 -0.04835616 0.050935615 -0.10200584
-0.00874815 -0.07069275 -0.08298034 0.049885657 -0.11893727 0.022182656 -0.0029569503 0.11940848
-0.07625798 -0.097494274 -0.067990735 0.04404242 0.11322377 -0.003909567 0.039194893 -0.021029066
-0.045529835 0.044332042 0.10159019 -0.027447328 -0.01029338 -0.03824071 0.089466825 0.046584576
0.07223882 0.087973036 -0.012689995 -0.101903416 0.10825127 -0.10905361 0.10630722 -0.04845001
0.111453146 -0.078270294 0.045604035 0.12608844 0.02490274 -0.1025104 0.023231149 0.11601206
0.095349856 0.12026593 0.021849114 0.014193508 -0.012889151 -0.09765497 0.036548633 -0.037955254
-0.078776136 0.049316328 -0.091905415 -0.036563188 -0.13186654 0.120505035 0.04282933 0.06370135
0.124941036 0.12361226 0.025445275 0.017096816 0.04691925 0.12350111 -0.042118933 0.060643267
0.002035594 -0.013036505 0.042461492 -0.073145546 -0.006617959 -0.062293276 0.04143895 0.015795318
-0.11648302 0.0022713807 -0.12857033 -0.03468286 0.08920564 -0.011264433 -0.09799044 -0.11521309
0.03257883 -0.038031682 0.06670064 -0.08771246 -0.0018926967 -0.09883453 -0.0007670969 -0.020950995
0.119241826 0.064226374 0.10539411 0.074526094 0.09855928 0.10163374 0.044897318 0.12374196
0.09872982 -0.09195618 0.012851338 0.027380016 0.095611356 0.052464142 0.03710104 -0.06521053
0.10733519 -0.060043696 0.045653284 -0.026306782 0.02337519 -0.07610253 -0.06338605 0.096354485
-0.06925068 0.05010895 -0.042546697 0.07870046 0.13306479 0.12283417 -0.0066439896 0.08744919
0.010370937 -0.015771352 -0.08639036 0.09035926 0.092505984 -0.097091325 -0.004791734 -0.088592865
-0.0033170278 -0.073764905 0.10371526 0.0831222 0.09730606 0.019297255 -0.105311446 -0.0554399
-0.0855757 0.054549698 -0.012125893 -0.08223625 -0.0795697 0.11847188 0.043439467 -0.10517841
0.013017686 0.063901834 -0.035835087 -0.10414668 -0.06738761 0.015273208 0.009667844 0.102450095
-0.023702402 0.058558296 0.10821086 -0.0414012 -0.12372416 -0.033714842 0.037787043 0.06116467
0.10596888 0.07250521 -0.13714673 -0.1117948 0.047260605 -0.10208888 -0.0631838 -0.08890515
00000000: 6905 ebbd c496 b03d 5a2e dd3b 18ea abbd
00000010: 7600 c7bd 0485 63bd 2148 f5bd bc04 8f3d
00000020: 4068 12bd fa2f f73c ea8e d43d e3ae 52bc
00000030: a756 8dbd 4f5e 323d eb72 a63d 001c c4bd
00000040: 3002 bfbd 8db7 ed3d d5ed f6bb 3ec5 4b3d
00000050: b3ea 6b3d 08ef 873d 3e3f 25bc 6474 8ab9
00000060: 4cc7 e8bd 502c 843d 5786 99bd 747d b83d
00000070: 5a17 f63d bdde b5bc 541f 613d 229d 173d
00000080: ee2e 33bb e96f 9f3d aa42 a2bc e6b5 e9bd
00000090: edf0 cc3d 4103 0f3d 814b cebd 5677 aa3d
000000a0: 13ff 883d 70a0 893d b6b6 e6bd ec5d 4cbd
000000b0: 5df1 dbbc 241f e9bc d4e3 7e3d bbc1 e63d
000000c0: baaa 8cbd e7c0 ac3c 24b5 b73d 3ddf e53d
000000d0: 9156 723d 5d39 473d 878a 05bd c60f e03b
000000e0: be9f 98bd 9736 eebd 0e76 ae3d da21 b53d
000000f0: 91bc a03c 3602 66bc e603 003e 6926 7fbd
00000100: 7f0a e63d 7318 a33d 96d1 41bd ffb1 a83d
00000110: 6da9 a6bc 005f 8dbb ebc9 acbc 091d 243c
00000120: be85 173d b579 073e 4ab4 86bc f949 af3d
00000130: d179 d33d 33ff 8fbd d370 d33d 6ec0 d63d
00000140: d50a 4cbd 8c80 f7bc 8c7a 863b aa09 6cbd
00000150: 6bd9 193d 1c11 46bd dda1 503d 70e8 d0bd
00000160: 6754 0fbc 5cc7 90bd 99f1 a9bd e754 4c3d
00000170: 6295 f3bd 67b8 b53c 65c9 41bb 6f8c f43d
00000180: 252d 9cbd 14ab c7bd ba3e 8bbd d365 343d
00000190: dde1 e73d d31b 80bb d38a 203d 2645 acbc
000001a0: 7e7d 3abd 8495 353d 840e d03d 38d9 e0bc
000001b0: 91a5 28bc 4aa2 1cbd 623a b73d 78cf 3e3d
000001c0: f2f1 933d 352b b43d b2e9 4fbc bdb2 d0bd
000001d0: d8b2 dd3d 8057 dfbd 9ab7 d93d 8573 46bd
000001e0: 8c41 e43d 2d4c a0bd 4ccb 3a3d 541d 013e
000001f0: d500 cc3c f9f0 d1bd 404f be3c bb97 ed3d
00000200: c946 c33d fc4d f63d eafc b23c e38b 683c
00000210: 052d 53bc 54ff c7bd 05b4 153d f876 1bbd
00000220: 6255 a1bd ebff 493d e838 bcbd 48c3 15bd
00000230: 0608 07be 58cb f63d cf6d 2f3d da75 823d
00000240: 16e1 ff3d 6d28 fd3d 9c72 d03c 9f0e 8c3c
00000250: 662e 403d 26ee fc3d e784 2cbd 1365 783d
00000260: 9a67 053b 1197 55bc 1aec 2d3d 55cd 95bd
00000270: 77db d8bb 3c27 7fbd e3bb 293d 2f65 813c
00000280: a68e eebd 72db 143b f1a7 03be 9d0f 0ebd
00000290: 72b1 b63d 758e 38bc 36af c8bd d7f4 ebbd
000002a0: 6171 053d 1cc7 1bbd 589a 883d 97a2 b3bd
000002b0: 5d14 f8ba c269 cabd 0017 49ba 6ca1 abbc
000002c0: 0f35 f43d 1e89 833d ded8 d73d 23a1 983d
000002d0: 73d9 c93d 5a25 d03d 40e6 373d 6d6c fd3d
000002e0: dc32 ca3d 8653 bcbd 6b8e 523c 0e4c e03c
000002f0: e3cf c33d a4e4 563d 43f7 173d 198d 85bd
00000300: 8dd2 db3d 61f0 75bd f0fe 3a3d 5281 d7bc
00000310: 547d bf3c a5db 9bbd 8cd0 81bd 8055 c53d
00000320: 4dd3 8dbd 0b3f 4d3d 7245 2ebd b52d a13d
00000330: 2342 083e 7b90 fb3d d3b5 d9bb 9018 b33d
00000340: ddea 293c ec32 81bc 6eed b0bd 470e b93d
00000350: c773 bd3d d1d7 c6bd fa03 9dbb 2d70 b5bd
00000360: 7e62 59bb 0e12 97bd ab68 d43d f93b aa3d
00000370: 6648 c73d 4715 9e3c 87ad d7bd f314 63bd
00000380: 5042 afbd 816f 5f3d aeab 46bc 7b6b a8bd
00000390: 70f5 a2bd 63a1 f23d 95ed 313d c767 d7bd
000003a0: 2248 553c f7de 823d d0c7 12bd db4a d5bd
000003b0: 8402 8abd 7a3c 7a3c e065 1e3c 5bd1 d13d
000003c0: 8a2b c2bc d3da 6f3d a89d dd3d 4e94 29bd
000003d0: 1863 fdbd 9318 0abd 96c6 1a3d ce87 7a3d
000003e0: 3606 d93d 9d7d 943d 3170 0cbe acf4 e4bd
000003f0: 5694 413d fa13 d1bd 8266 81bd e713 b6bd

bias f4 [16]
-0.08826202 -0.07900973 -0.025705757 0.026487209 0.004572541 -0.106583 0.018401252 -0.053237427
-0.08366367 0.10547601 -0.12031634 0.072334506 -0.015249074 -0.07204659 0.039974507 0.02227985
00000000: b8c2 b4bd dacf a1bd e194 d2bc b4fb d83c
00000010: 41d5 953b 3048 dabd 39be 963c 7d0f 5abd
00000020: dc57 abbd ce03 d83d 6a68 f6bd 1d24 943d
00000030: 41d7 79bc 2a8d 93bd 4fbc 233d 3b84 b63c

weight f4 [2, 16]
0.13075656 0.09704339 0.17335588 -0.17633666 0.23616816 -0.20545475 0.13846691 -0.087004825
-0.12068252 0.2043034 -0.2056733 -0.10213022 0.118959926 0.2089631 -0.10912132 -0.027284829
-0.099146456 -0.13625525 -0.078361735 0.11307246 -0.060944382 0.20913962 -0.04298581 -0.039402485
-0.0100992555 0.21741615 -0.14328703 0.15780461 0.051333386 0.17543438 -0.11952385 -0.14777146
00000000: 0ce5 053e afbe c63d 3484 313e 9991 34be
00000010: 11d6 713e bb62 52be 45ca 0d3e 962f b2bd
00000020: 6628 f7bd e934 513e 069c 52be a629 d1bd
00000030: 43a1 f33d 6cfa 553e 007b dfbd 6f84 dfbc
00000040: 4c0d cbbd 7f86 0bbe 1e7c a0bd 8992 e73d
00000050: d1a0 79bd b228 563e e411 30bd 8064 21bd
00000060: 5977 25bc 57a2 5e3e d6b9 12be 8897 213e
00000070: f542 523d 12a5 333e ecc8 f4bd 6751 17be

bias f4 [2]
-0.087795705 -0.14899202
00000000: 3cce b3bd 5d91 18be
