Saved Models/model2.pt (torch_old, 763093 bytes, 14 tensors)

weight f4 [6, 3, 5, 5]
0	0xbc1fac86	-0.009745723
1	0x3ba7950c	0.0051142033
2	0xbb924207	-0.0044634375
3	0xbcff3c50	-0.031156689
4	0xbd31cd9d	-0.04340898
5	0x3cf25f8f	0.029586582
6	0x3d84f227	0.064914994
7	0xbd844eee	-0.06460367
8	0xbd1d6128	-0.038422734
9	0x39f0fd7c	0.00045965228
10	0xb9ad01c9	-0.0003299846
11	0xbdee6033	-0.11639442
12	0xbd3ea616	-0.04654511
13	0x3cded5c6	0.027201544
14	0xbd67265a	-0.05643306
15	0x3b40646f	0.0029356738
16	0xbd883c40	-0.06652117
17	0xbd27ca34	-0.04096432
18	0x3d129c39	0.035793517
19	0xbd8efa1f	-0.069813006
20	0x3d8d946b	0.06913074
21	0xbd7f9c92	-0.062405176
22	0x3dd768a1	0.10518003
23	0xbcb14aaa	-0.021642048
24	0xbd0309d6	-0.031991802
25	0x3d218e72	0.039442487
26	0xbd53825e	-0.051638
27	0x3d6dd0fe	0.05806064
28	0x3d611f0e	0.054961257
29	0x3de19e40	0.11016512
30	0xbd933690	-0.07188141
31	0x3db7a9c8	0.0896793
32	0xbc6e19bf	-0.014532506
33	0x3d714ff6	0.058914147
34	0xbda9f41a	-0.08298512
35	0x3d9f5eb9	0.07781739
36	0xbd823639	-0.063579984
37	0x3d3d9b73	0.046290826
38	0x3deed04c	0.11660823
39	0x3cfbfc03	0.030759817
40	0xbdb3d96c	-0.08781704
41	0x3db57d45	0.08861784
42	0xbdde77ca	-0.10862692
43	0x3b570c23	0.003281363
44	0xbc76c66a	-0.015061954
45	0x3dc1abed	0.0945662
46	0xbda58936	-0.080828115
47	0xbd11d959	-0.03560767
48	0xbd641108	-0.055680305
49	0x3c586fb0	0.013210222
50	0x3d8b046a	0.06787951
51	0x3d4392cc	0.04774742
52	0xbdaaf9ca	-0.08348425
53	0xbcfa410a	-0.030548591
54	0xbd3fd268	-0.04683152
55	0xbd8ac382	-0.067755714
56	0xbd509a18	-0.050928205
57	0xbcd1ed4b	-0.025625845
58	0x3ce42017	0.027847333
59	0x3db61a83	0.088917755
60	0xbdc353af	-0.09537446
61	0x3c0221f6	0.007942667
62	0x3d3f3920	0.046685338
63	0x3d640fb4	0.05567904
64	0x3dc850e1	0.097810514
65	0x3d5adad9	0.053431366
66	0x3a386e44	0.0007035474
67	0xbda3de1f	-0.080013506
68	0xbd00a996	-0.03141173
69	0x3d40287b	0.046913605
70	0x3d863ba2	0.06554343
71	0x3dd3a2ff	0.103338234
72	0xbdbec6da	-0.09315272
73	0x3db42a7e	0.08797167
74	0xbde6603a	-0.112488225
75	0xbc58e2e6	-0.013237691
76	0xbc034fed	-0.008014661
77	0x3db8007c	0.089844674
78	0x3d614e01	0.05500603
79	0x3e044ad4	0.1291917
80	0x3dfc365b	0.12315055
81	0x3dc581e0	0.09643912
82	0x3d55f239	0.052232955
83	0xbd404cc1	-0.0469482
84	0x3d306ad1	0.043070618
85	0xbd2ccf21	-0.04218972
86	0x3df3f411	0.11911786
87	0x3d810047	0.06298881
88	0xbd269662	-0.04067076
89	0xbc81e0a0	-0.01585418
90	0x3df1e4c2	0.1181121
91	0xbc898533	-0.016787147
92	0xbdb5b83a	-0.08873029
93	0x3c97f55b	0.018549612
94	0x3c93be72	0.018035147
95	0x3dadebbf	0.084922306
96	0x3d63fc3b	0.055660468
97	0x3d61cd73	0.055127572
98	0xbdc2d1a9	-0.09512646
99	0x3d79a273	0.06094594
100	0xbd0846b2	-0.033270545
101	0xbd1f898c	-0.038949534
102	0xbdbe9257	-0.09305256
103	0x3dd93947	0.10606628
104	0xbdc04b64	-0.093893796
105	0x3b35ce2d	0.0027741299
106	0x3d1aacbf	0.0377624
107	0xba6292b8	-0.00086430786
108	0x3e044db2	0.12920263
109	0xbd916c71	-0.07100762
110	0xbd9b578b	-0.07585057
111	0xbd80b65e	-0.06284784
112	0xbcdacb28	-0.0267082
113	0xbd443a4c	-0.04790716
114	0xbb23a51a	-0.0024970234
115	0x3d1be3e8	0.038059145
116	0xbd662d3e	-0.05619549
117	0x3db5e666	0.08881836
118	0x3cd7a25b	0.026322534
119	0x3d20f403	0.039295208
120	0xbd9080e2	-0.070558324
121	0x3d90bd6b	0.070673786
122	0x3d78e12f	0.060761627
123	0x3d3fc62a	0.046819843
124	0xbdb7c963	-0.08973958
125	0x3db20e66	0.086941525
126	0xbc4691b1	-0.0121196965
127	0x3ddb567d	0.10709856
128	0xbdafe2f1	-0.085882075
129	0x3d2f5c79	0.0428128
130	0x3cc00aa7	0.02344258
131	0x3d97b795	0.07408062
132	0x3e044908	0.12918484
133	0xbd83f6d2	-0.064435616
134	0x3ded1c61	0.115776785
135	0xbd2b797c	-0.041863903
136	0x3df659e2	0.120288625
137	0xbda570c1	-0.08078147
138	0x3cf3cf3c	0.029761903
139	0x3e02f1f0	0.12787604
140	0x3da4a0ac	0.08038458
141	0xbcea4d2b	-0.02860125
142	0x3de6564b	0.11246928
143	0x3b974baa	0.004617174
144	0x3df5a419	0.1199419
145	0xb9a10436	-0.0003071145
146	0x3d992bf9	0.0747909
147	0xbdc9b7af	-0.09849488
148	0xbd15b003	-0.03654481
149	0x3d0f9b38	0.035060138
150	0xbd423299	-0.047411535
151	0xbdc3b422	-0.09555842
152	0x3c74bf4b	0.014938186
153	0xbcc4001b	-0.023925832
154	0xba189b0c	-0.00058214436
155	0xbd1267e2	-0.0357436
156	0x3e041338	0.12897956
157	0x3c58ded2	0.013236718
158	0xbd99f70d	-0.07517824
159	0xbd33a7d3	-0.04386122
160	0x3de03a42	0.10948612
161	0xbdb0fce4	-0.08641985
162	0xbccf2777	-0.025287373
163	0x3d901515	0.07035271
164	0xbdaaa5cf	-0.08332407
165	0x3d444c93	0.04792459
166	0x3caf9ebb	0.021437993
167	0x3e078ab8	0.13236511
168	0xbd991001	-0.07473756
169	0xbd0bef7a	-0.03416393
170	0x3dbc013a	0.091799214
171	0x3b9b3cf6	0.0047374917
172	0x3ceb6ad0	0.028737456
173	0xbc926f25	-0.017875263
174	0x3d8d29a3	0.06892707
175	0x3dd49b40	0.10381174
176	0xbc3d8d38	-0.011569314
177	0x3d919c56	0.07109897
178	0x3dc58798	0.09645003
179	0xbcfbce52	-0.03073803
180	0xbcee441a	-0.029085208
181	0xbd016ac7	-0.03159597
182	0xbc833202	-0.016015057
183	0x3dc89334	0.09793702
184	0x3dd1f1f9	0.10251231
185	0x3c85b3a6	0.016321015
186	0xbd7ebb88	-0.062190562
187	0x3d4b67ec	0.049659654
188	0x3e00a8a1	0.12564327
189	0xbdab27a9	-0.08357174
190	0x3db1a2ce	0.08673631
191	0x3d64be72	0.055845685
192	0xbd9a76b6	-0.075421736
193	0x3e06e20a	0.13172165
194	0xbda0f43f	-0.07859086
195	0x3dc39011	0.09548963
196	0x3e060341	0.13087179
197	0xbd51158c	-0.05104594
198	0xbd8961ac	-0.067080826
199	0x3b1d38f7	0.0023990253
200	0xbd856535	-0.06513444
201	0x3daab80e	0.08335887
202	0x3ded6178	0.11590856
203	0x3df98a4f	0.121845834
204	0x3c4a0cbe	0.01233214
205	0xbd072dfb	-0.033002835
206	0x3dc475ca	0.09592779
207	0x3ce1317f	0.027489422
208	0x3d21acc4	0.039471403
209	0xbd861d4f	-0.06548559
210	0x3d84fc6a	0.06493457
211	0x3dd0d3ea	0.101966694
212	0x3e0412df	0.12897824
213	0x3dadf9e9	0.08494932
214	0xbda0ca12	-0.07851042
215	0xbd0d9e2f	-0.034574684
216	0xbda076d7	-0.07835167
217	0x3d4c76ca	0.049917974
218	0x3e07bd09	0.13255705
219	0x3dc3fa5f	0.09569239
220	0xbd926a77	-0.07149213
221	0xbd63fe55	-0.05566247
222	0x3e01202c	0.12609929
223	0x3dfd802b	0.12377962
224	0x3dc453a0	0.09586263
225	0x3d8706e1	0.06593109
226	0x3da75bdf	0.0817182
227	0x3cf7b298	0.030236527
228	0xbddf1bcb	-0.10893973
229	0xbd65c3e3	-0.056095015
230	0x3db06409	0.0861283
231	0x3d85633b	0.06513067
232	0xbdcc3ac4	-0.09972146
233	0x3d9813bc	0.07425639
234	0xbdcd3e31	-0.10021628
235	0x3db858d5	0.09001318
236	0xbdacc767	-0.084364705
237	0xbcaaa5d7	-0.020831032
238	0x3d80364e	0.06260358
239	0x3cb956b9	0.02262436
240	0x3bcd8d3c	0.00627294
241	0xbd8ac947	-0.06776672
242	0xbd54cf01	-0.051955227
243	0xbd19b3d6	-0.03752502
244	0x3dcaee47	0.09908729
245	0xbc45a798	-0.012063883
246	0x3db23cb9	0.08702988
247	0xbdd7fc99	-0.10546226
248	0x3d904b70	0.070456386
249	0x3cda53c3	0.026651269
250	0xbcc41399	-0.023935126
251	0xbc65a0a1	-0.014015348
252	0xbd80ebd1	-0.062949784
253	0xbdb3c04a	-0.087769106
254	0x3d8e279f	0.06941151
255	0xbda98e7d	-0.082791306

bias f4 [6]
0	0x3d4f147d	0.05055665
1	0xbca1e071	-0.019760342
2	0xbc96283d	-0.018329734
3	0x3d1bbf44	0.038024202
4	0xbd76625b	-0.060152393
5	0x3cc769bd	0.024342412

weight f4 [16, 6, 5, 5]
0	0x3d88b7b1	0.06675661
1	0x3d29ae4a	0.04142598
2	0x3dae4971	0.085101016
3	0x3d198bb7	0.037486758
4	0xbd863ad4	-0.06554189
5	0x3da105fc	0.078624696
6	0x3d4abfce	0.049499325
7	0x3dae3567	0.085062794
8	0xbd6af654	-0.057363823
9	0x3c2b52ea	0.01045678
10	0x3d6e0eec	0.0581197
11	0xbb9c6730	-0.004773043
12	0x3d20e9a4	0.039285317
13	0x3c3c5e18	0.011497043
14	0xbd994bd8	-0.07485169
15	0xbd43222d	-0.047640014
16	0x3d8953cf	0.06705438
17	0x3befb2ae	0.0073150015
18	0xbc43df44	-0.011955086
19	0xbb9d6d9c	-0.004804326
20	0x3bffc3ce	0.007805324
21	0x3d87d8b5	0.066331305
22	0xbc24510c	-0.010029089
23	0x3d2f203a	0.042755343
24	0xbc9e2448	-0.01930441
25	0xbdabd56c	-0.08390316
26	0xbd539b32	-0.051661678
27	0xbd8e0b44	-0.069357425
28	0xbc958528	-0.01825197
29	0x3cccfff1	0.025024386
30	0x3b365826	0.0027823537
31	0x3d9ecc24	0.077537805
32	0x3cf5423a	0.029938806
33	0x3d9c97bc	0.076461285
34	0x3da4da8f	0.08049499
35	0x3da0e255	0.078556694
36	0xbb3dfb81	-0.002898902
37	0x3d322436	0.043491565
38	0x3cbea813	0.023273503
39	0xbc7bf80e	-0.015378965
40	0xbbf0e9b3	-0.007352078
41	0xbd246a6a	-0.040140547
42	0xbd6fd393	-0.058551382
43	0x3d92c7f9	0.07167048
44	0xbc66f846	-0.014097279
45	0x3c2f0a76	0.010683646
46	0xbd7d5290	-0.061846316
47	0xbcef2ccc	-0.029196166
48	0xbd446413	-0.047947
49	0xbd15e69a	-0.036596872
50	0x3d90ddd3	0.070735596
51	0xbca7a7e9	-0.020465808
52	0xbc82cf83	-0.01596809
53	0xbce2aff4	-0.027671792
54	0xbc661dda	-0.014045203
55	0xbc987787	-0.018611683
56	0x3d367342	0.044543512
57	0x3dad8642	0.08472873
58	0x3cbdb105	0.023155699
59	0x3d10bdad	0.03533714
60	0x3bc0396a	0.0058662193
61	0x3c27306a	0.010204414
62	0x3d0e4182	0.034730442
63	0x3d5ec5f7	0.054388013
64	0xbc55880a	-0.0130329225
65	0xbcdd344d	-0.027002478
66	0xbd6279b3	-0.055291843
67	0x3da54fad	0.080718376
68	0xbd882bf0	-0.066490054
69	0x3d83b049	0.06430108
70	0x3cf95500	0.030436039
71	0xbd737efb	-0.05944727
72	0xbc83b8c7	-0.01607932
73	0x3d71aff1	0.05900568
74	0xbb58834d	-0.0033037246
75	0xbcd8b121	-0.02645165
76	0xbd19f9df	-0.03759181
77	0xbd2f6e54	-0.042829826
78	0x3d4afe0b	0.04955868
79	0x3d9a04ed	0.07520471
80	0xbcdff0c3	-0.027336484
81	0xbd38f141	-0.045151953
82	0x3cbc8721	0.023013653
83	0xbd5ecea9	-0.054396305
84	0x3d8a513b	0.06753775
85	0x3cb58ffe	0.022163387
86	0xbd5a2d0b	-0.053265613
87	0x3c4f6e36	0.012660554
88	0x3d4986fc	0.049200997
89	0x3d90a28e	0.07062255
90	0x3d51ac9e	0.05119001
91	0x3d9553c1	0.072913654
92	0xbcfa3fca	-0.030547995
93	0xbbdaaa17	-0.0066731083
94	0xbc992af1	-0.018697234
95	0x3d7762e7	0.060397055
96	0xbc321072	-0.010868179
97	0x3d528da2	0.051404603
98	0xbc9d049a	-0.019167233
99	0x3cfe4074	0.031036593
100	0xbb0d4880	-0.0021558106
101	0xbc06ed95	-0.008235355
102	0x3d83f263	0.06442716
103	0x3c664362	0.014054151
104	0xb90baeb1	-0.0001332115
105	0xbd29a912	-0.041421004
106	0xbd4f5a52	-0.050623246
107	0x3d4d2a99	0.050089452
108	0x3d09ae67	0.03361359
109	0x3cd583ea	0.026063878
110	0x3da06597	0.07831877
111	0x3ceaa27a	0.028641928
112	0x3d422864	0.0474018
113	0x3d4676f3	0.048453283
114	0x3d2405e7	0.04004469
115	0x3d65591a	0.055993177
116	0x3ba54fbf	0.005044907
117	0x3afa3adc	0.0019091028
118	0x3cd70c52	0.026250992
119	0xbccd7f84	-0.025085218
120	0x3d1ad34b	0.03779916
121	0xbda308bb	-0.079606496
122	0xbd51308b	-0.051071685
123	0x3c99d1e5	0.018776843
124	0xbda1e04b	-0.079041086
125	0xbd48954e	-0.048970513
126	0xbb0981da	-0.0020981939
127	0xbc28c699	-0.010301256
128	0xbd837e92	-0.06420626
129	0x3daca26f	0.08429419
130	0x3d993814	0.07481399
131	0xbc609ad0	-0.013708785
132	0x3da92e74	0.08260813
133	0x3d1259c2	0.03573013
134	0xbd9367bb	-0.071975194
135	0xbd566a69	-0.052347574
136	0x3d09f677	0.033682313
137	0x3ce2eb8e	0.027700212
138	0x3d499ba6	0.049220704
139	0xbd39c209	-0.045351062
140	0xbd8a39a6	-0.06749277
141	0x3da3d1a6	0.07998972
142	0xbc3a4320	-0.011368543
143	0xbbf09fd6	-0.0073432727
144	0xbd7ff36d	-0.06248801
145	0x3d59b089	0.053146873
146	0xbd700ca0	-0.05860579
147	0x3d787026	0.060653828
148	0xbd013918	-0.03154859
149	0x3d6e8ea1	0.05824149
150	0x3dafa33f	0.085760586
151	0x3d7266a0	0.059179902
152	0xbcb4e00a	-0.022079486
153	0xbd8f70a5	-0.07003907
154	0xbc44d819	-0.012014412
155	0x3bc0b340	0.0058807433
156	0x3c1eea88	0.009699471
157	0x3dbbe54f	0.091745965
158	0xbc719693	-0.014745372
159	0x3d9b30f2	0.07577695
160	0xbcb4d73c	-0.022075288
161	0xbc9b6664	-0.018969722
162	0xbd3e1af8	-0.04641244
163	0x3d122604	0.035680786
164	0xbd24ab84	-0.040202633
165	0x3d753d9f	0.05987322
166	0x3c0dd0df	0.008655756
167	0xbcc07151	-0.023491533
168	0x3d1ed36c	0.038775846
169	0xbcccc9da	-0.024998594
170	0x3d9f18f5	0.07768432
171	0xbd49ca44	-0.04926516
172	0xbc02480d	-0.007951749
173	0x3da8d12d	0.08243022
174	0x3d1cdd82	0.038297184
175	0x3bbd0dcf	0.0057694684
176	0x3cb2b574	0.02181504
177	0x3c7b2525	0.01532868
178	0xbd94e8bd	-0.07270954
179	0xbd8e6955	-0.06953684
180	0x3da492cc	0.08035812
181	0x3cbe1737	0.02320443
182	0x3d7e4be0	0.06208408
183	0x3aa4144c	0.0012518256
184	0x3cd456ae	0.025920238
185	0xbda64b39	-0.08119816
186	0xbca923aa	-0.020646889
187	0xbda344a5	-0.07972077
188	0x3d5e81a8	0.05432287
189	0xbca597bd	-0.020213956
190	0xbceb4edd	-0.028724128
191	0x3d67f54a	0.05663041
192	0xbd5e9b90	-0.054347575
193	0xbc9dcd09	-0.019262807
194	0x3bf89100	0.0075856447
195	0x3da1d20a	0.0790139
196	0xbd852882	-0.06501867
197	0x3d863a5c	0.065541
198	0xbc94a032	-0.018142793
199	0xbc23b9a2	-0.009992989
200	0xbc0d9186	-0.0086406525
201	0xbc99077e	-0.01868033
202	0xbc8d530d	-0.017251516
203	0xbb0e8a7d	-0.0021750026
204	0x3ba27749	0.0049580676
205	0xbbd2f425	-0.0064377957
206	0xbd98d278	-0.07462019
207	0xbba7a0b3	-0.0051155924
208	0xbd563fea	-0.052307047
209	0x3d903b91	0.070426114
210	0x3c6b2077	0.014351002
211	0xbc06b162	-0.008221002
212	0xbd10d4ae	-0.035359077
213	0x3d73ff7f	0.059569832
214	0x3cdf0e11	0.027228387
215	0x3d4d0020	0.050048947
216	0xbd9d7a7e	-0.07689379
217	0x3d1266c5	0.03574254
218	0xbd8cd6da	-0.06876917
219	0xbd56e642	-0.052465685
220	0xbcb55677	-0.022135956
221	0x3d28014f	0.041016873
222	0x3d39888a	0.04529623
223	0xbc6fb6c0	-0.014630973
224	0x3ca57b7c	0.020200484
225	0xbcdf0a95	-0.027226726
226	0xbd06a52d	-0.032872368
227	0xbca23cba	-0.019804347
228	0xbd15d8a8	-0.036583573
229	0xbd168a72	-0.036753125
230	0x3d26c0f4	0.04071136
231	0x3d9d7ccb	0.07689818
232	0x3c049f20	0.008094579
233	0x3d820efa	0.06350513
234	0xbd0880b6	-0.033325873
235	0xbca8de90	-0.020613939
236	0x3c7581ce	0.014984561
237	0xbd95f04a	-0.07321222
238	0xbd47ef4c	-0.048812196
239	0xbc86f84c	-0.016475819
240	0x3bf4c634	0.0074699167
241	0xbd1bd224	-0.038042203
242	0x3d1efcb0	0.0388152
243	0xbd5c7432	-0.05382175
244	0x3db08798	0.086196125
245	0x3c50241b	0.012703921
246	0x3c8a8bb6	0.016912322
247	0xbd9105e6	-0.07081203
248	0x3c3d8f06	0.011569744
249	0xbb92a124	-0.004474776
250	0x3da2b318	0.07944316
251	0xbcba4c76	-0.022741538
252	0x3d090afc	0.03345774
253	0xbd88f51c	-0.06687376
254	0x3d6b0016	0.05737313
255	0xbd84e8e6	-0.06489734

bias f4 [16]
0	0x3b7a3df2	0.0038183895
1	0x3d88b2ca	0.06674726
2	0x3d43f182	0.04783774
3	0xbd58df90	-0.05294758
4	0x3d7e9955	0.062157948
5	0x3d6b9978	0.057519406
6	0x3d993bb4	0.074820906
7	0xbd13e51e	-0.036107175
8	0x3cbb68ef	0.022877185
9	0xbcfd9161	-0.030953111
10	0x3bff0d6b	0.007783582
11	0xbc9e51a7	-0.019326044
12	0xbd918cc1	-0.07106925
13	0x3c8078f1	0.01568267
14	0x3b7b9ef7	0.003839431
15	0x3c1c2dbf	0.009532391

weight f4 [8, 16, 5, 5]
0	0x3d483ba7	0.048885014
1	0xbcd57e90	-0.026061326
2	0xbd2d54e0	-0.04231727
3	0x3cc29525	0.023752758
4	0xbca683bd	-0.02032649
5	0xbc2455d5	-0.01003023
6	0x3d15d832	0.036583133
7	0x3d1d0a7a	0.03834007
8	0xbd2ccda5	-0.042188305
9	0x3bcd1f09	0.006259803
10	0xbd24c270	-0.040224493
11	0x3c80d531	0.015726658
12	0xbc115d9e	-0.008872418
13	0xbc64fac5	-0.013975804
14	0x3d36b4aa	0.04460589
15	0x3bbc109e	0.0057392856
16	0x3d00e48d	0.031467963
17	0xbcb7238f	-0.022355823
18	0xbcc58bf3	-0.024114585
19	0x3d22ba61	0.039728526
20	0x3cfa7d44	0.03057731
21	0x3d18e80b	0.03733067
22	0xbba7a791	-0.005116411
23	0xbce3062c	-0.027712904
24	0xbd18f88a	-0.0373464
25	0x3d044254	0.032289818
26	0x3c86b94a	0.016445775
27	0xbd504f55	-0.050856907
28	0xbd1cffa1	-0.038329724
29	0x3c184142	0.009292902
30	0x3d21fedd	0.039549697
31	0xbcc57762	-0.024104778
32	0xbc0d3fda	-0.00862118
33	0x3d2ab81f	0.041679498
34	0xbb6e9dd6	-0.0036409996
35	0x3c1a9558	0.00943502
36	0x3c4d86ad	0.012544316
37	0x3c7312d2	0.01483603
38	0xbcdd04aa	-0.026979763
39	0xbd23cd3d	-0.039990652
40	0x3c340faa	0.010990063
41	0x3ce5a0ce	0.02803078
42	0xbd0b8fbb	-0.03407262
43	0xbd2af800	-0.041740417
44	0x3cbcf24a	0.023064751
45	0xbcea5f56	-0.028609913
46	0x3cc22ec9	0.02370395
47	0xbbd1fc5b	-0.006408257
48	0x3c8880c0	0.016662955
49	0x3cd8d258	0.026467487
50	0x3d44ef8f	0.048080023
51	0x3c6708df	0.014101236
52	0xbccbbe5a	-0.02487104
53	0xbc42c8f2	-0.011888729
54	0x3d2e89b2	0.042611785
55	0xbcb11de8	-0.021620706
56	0x3baa1c2b	0.005191346
57	0xbc0a9029	-0.008457222
58	0xbcd52ea4	-0.026023217
59	0xbd2fbe1b	-0.042905908
60	0x3b357a8d	0.0027691454
61	0x3bd2aa44	0.0064289887
62	0xbd3ac8a9	-0.04560152
63	0xbd430395	-0.047610838
64	0xbc146937	-0.009058288
65	0x3d26d394	0.04072912
66	0x3c9ab7db	0.018886497
67	0xbcf277c2	-0.02959812
68	0x3c34b78e	0.011030091
69	0x3d26d614	0.040731505
70	0x3cb1820b	0.021668455
71	0x3d00d029	0.031448517
72	0xbb1b5cf7	-0.0023706534
73	0xbcd5f06f	-0.026115624
74	0x3d2b650b	0.04184441
75	0x3d45f6c2	0.04833103
76	0x3c917ebe	0.01776063
77	0x3ac5ee72	0.001510097
78	0x3d030fc6	0.031997465
79	0xbaef44a2	-0.0018254707
80	0x3c608908	0.013704546
81	0x3d1a2348	0.037631303
82	0x3c1be9fb	0.0095162345
83	0x3d2ec883	0.04267169
84	0xbcf30ee8	-0.029670194
85	0xbc6237c5	-0.013807242
86	0xbb0f3049	-0.0021848849
87	0x3cbe9f93	0.02326945
88	0x3d4e6091	0.05038506
89	0x3cc0b806	0.02352525
90	0xbca52e9c	-0.020163827
91	0xbc6ee915	-0.014581938
92	0xbd5f0c3d	-0.05445503
93	0x3c056ca9	0.008143582
94	0xbd470dc0	-0.048597097
95	0xbbce78e8	-0.0063010342
96	0xbd1a8462	-0.037723906
97	0x3cb8cbb0	0.022558063
98	0xbd6324ec	-0.055455133
99	0x3c6cce10	0.014453426
100	0xbd1dc248	-0.03851536
101	0x3b1a2a86	0.002352388
102	0x3d4508ba	0.048104025
103	0x3d41947f	0.047260758
104	0xbcf893ab	-0.030343851
105	0xbd0e23cb	-0.034702104
106	0xbd08eb42	-0.033427484
107	0x3c0195c1	0.007909239
108	0x3d4411aa	0.04786841
109	0x3d198fea	0.037490763
110	0xbd3af647	-0.045645025
111	0x3d45ae4b	0.04826192
112	0x3cd8f61c	0.026484542
113	0x3d26bf6d	0.0407099
114	0x3cd4dde4	0.025984712
115	0x3c6d122b	0.014469664
116	0x3d377f6d	0.044799257
117	0x3c7682e5	0.015045856
118	0x3bc1a9e4	0.005910145
119	0xbc0f4bc5	-0.008746092
120	0x3c8c86c8	0.017154112
121	0xbcb78c16	-0.022405665
122	0xbd17037c	-0.036868557
123	0x3c8cccf2	0.01718757
124	0xbd38a621	-0.045080308
125	0x3b8cf499	0.0043016193
126	0xbd3bbf8c	-0.04583697
127	0xbd16b965	-0.0367979
128	0x3c97d07b	0.018532028
129	0x3d3210c6	0.043473028
130	0x3d02558b	0.03181986
131	0x3cd080e6	0.025452089
132	0xbcc5ccba	-0.024145473
133	0xbbfe3f56	-0.007759015
134	0x3ce9c710	0.028537303
135	0x3c8fffb0	0.017577976
136	0x3c71e4a9	0.0147639895
137	0x3d42d873	0.047569703
138	0x3d4be05f	0.049774524
139	0x3d61d9b5	0.055139262
140	0xbce8472a	-0.028354246
141	0x3d2c90a4	0.042130128
142	0xbcd583fe	-0.026063915
143	0x3c9c9317	0.019113107
144	0x3d39e056	0.04537996
145	0xbadfbaf7	-0.001706927
146	0x3bbb98a9	0.0057249856
147	0xbd432fba	-0.047652937
148	0xbd0aa3bb	-0.03384755
149	0x3aceeed2	0.0015787727
150	0x3d4c91fe	0.049943916
151	0xbc7f3ec3	-0.015578928
152	0x3ccbb3c3	0.02486599
153	0xbba94555	-0.0051657357
154	0x3d17508b	0.036942046
155	0xbca377ce	-0.019954588
156	0x3cf09ffd	0.029373163
157	0x3caf9dd3	0.021437561
158	0x3cf95d35	0.030439952
159	0xbd1b7c5f	-0.037960406
160	0x3d3d9233	0.046282005
161	0xbc1485d9	-0.009065115
162	0x3c735ee1	0.014854164
163	0x3d4bf8c0	0.049797773
164	0xbc75ea4f	-0.015009477
165	0x3c904988	0.017613187
166	0x3ca62302	0.020280365
167	0x3cbd6ff1	0.023124667
168	0xbbee362e	-0.0072696423
169	0xbd2981a9	-0.04138342
170	0xbc03cc75	-0.008044352
171	0x3beff7c1	0.0073232357
172	0x3cb7a4b4	0.022417404
173	0x3d4d9215	0.050188143
174	0x3c5220ab	0.012825171
175	0xbc9133aa	-0.01772483
176	0xbcaf10f9	-0.021370398
177	0x3caffae7	0.021481944
178	0xbd3afb14	-0.045649603
179	0x3d40167f	0.046896454
180	0x3d217d04	0.039425865
181	0xbcb10c01	-0.02161217
182	0x3c5739fe	0.013136385
183	0x3bbde057	0.0057945657
184	0xbd1bf605	-0.03807642
185	0x3d57453f	0.052556273
186	0x3d4c7a7b	0.049921494
187	0xbca76ef4	-0.020438649
188	0xbbbe4ac3	-0.005807252
189	0xbd0f69d8	-0.03501305
190	0x3c79d86e	0.015249355
191	0xbd325e42	-0.043546923
192	0xbcaeee83	-0.021353966
193	0xbd2bc26e	-0.04193347
194	0x3d085e11	0.033292834
195	0x3c446aaf	0.011988326
196	0xba2d0d42	-0.0006601402
197	0x3d365b56	0.0445207
198	0xbd425b8a	-0.04745058
199	0xbc8feb59	-0.017568277
200	0x3d10a331	0.03531188
201	0x3bb2135b	0.0054344363
202	0x3d2d7f77	0.042357888
203	0xbd0df051	-0.03465301
204	0x3b07ba25	0.0020710316
205	0x3cee6113	0.029099023
206	0xbb8e6ccc	-0.0043464657
207	0xbcf9e304	-0.030503757
208	0xbcb41522	-0.021982733
209	0xbcd27d87	-0.025694622
210	0xbb470c1e	-0.0030372213
211	0x3b48247d	0.0030539327
212	0xbaf60b68	-0.001877171
213	0x3d5d5c61	0.054043178
214	0x3d06b939	0.032891486
215	0xbc994737	-0.018710716
216	0x3c5dbede	0.013534276
217	0x3c11ef8c	0.00890721
218	0x3d298c0c	0.041393325
219	0x3cb21bb9	0.021741735
220	0xbc4182d2	-0.011810975
221	0xbca10be0	-0.019658983
222	0x3d137a1c	0.036005124
223	0xbc618219	-0.013763928
224	0x3d275be3	0.040859114
225	0xbcdc70a2	-0.026909176
226	0xbb7742b0	-0.0037728958
227	0x3d34619a	0.044038393
228	0xbd0fa45a	-0.035068847
229	0x3d2697e0	0.040672183
230	0x3be7139f	0.0070518996
231	0xbd12f74b	-0.03588037
232	0x3ce7a8d6	0.02827875
233	0x39ac4e8c	0.00032864918
234	0xbc9518cc	-0.0182003
235	0x3c8b7bbc	0.017026775
236	0x3ce9c037	0.028534038
237	0x3d00b5f6	0.03142353
238	0x3d5b6770	0.053565443
239	0x3c82a8ac	0.01594957
240	0x3ccb1df4	0.024794556
241	0x3c728386	0.014801865
242	0xbcd11ec4	-0.025527366
243	0xbc9c7219	-0.019097375
244	0xbc298f00	-0.010349035
245	0xbcd6e744	-0.026233323
246	0x3d08abec	0.033367082
247	0x3d23936d	0.039935518
248	0x3cb768ad	0.02238878
249	0x3c6d932a	0.014500419
250	0xbcbca77f	-0.023029087
251	0xbb757039	-0.0037450923
252	0xbcf13dd2	-0.029448424
253	0xbce95005	-0.02848054
254	0x3cf76dd0	0.03020373
255	0xbc31d618	-0.010854267

bias f4 [8]
0	0xbc51a151	-0.0127948085
1	0x39caf8e7	0.0003871389
2	0x3c14f54f	0.009091689
3	0x3b8182ed	0.003952375
4	0x3d43283e	0.0476458
5	0x3c33fd6e	0.010985715
6	0x3d5111c0	0.05104232
7	0x3d26c6b8	0.040716857

weight f4 [256, 648]
0	0xbd0d4fc3	-0.034499895
1	0x3d10f1c2	0.03538681
2	0x3d224bd3	0.039623093
3	0xbcfbb07e	-0.030723806
4	0x3d271133	0.040787887
5	0xbcf8e953	-0.030384695
6	0xbcfacd70	-0.030615538
7	0x3c20ea02	0.009821417
8	0x3c57a977	0.013162962
9	0xbd04ed44	-0.032452837
10	0x3d23a8b9	0.03995583
11	0x3cc4696f	0.023976056
12	0x3bca3ad4	0.0061715636
13	0x3d114d43	0.035474073
14	0xbc580247	-0.013184137
15	0xbcd15add	-0.025556022
16	0x3ca01394	0.019540586
17	0xbd053e07	-0.032529857
18	0xbd121d3d	-0.035672415
19	0xbc38bd20	-0.01127556
20	0x3c57bc57	0.013167462
21	0xbcb24595	-0.021761695
22	0x3c4a88ff	0.012361764
23	0xbc6423e3	-0.013924572
24	0x3d08ef67	0.033431437
25	0xbc79f252	-0.015255528
26	0x3c743d20	0.014907151
27	0x3cbaa534	0.022783853
28	0xbced7261	-0.028985204
29	0x3c6db8f1	0.0145094255
30	0xbd042fd1	-0.032272164
31	0x3c9aa3a7	0.018876864
32	0xbca1f587	-0.019770397
33	0xbbec9c29	-0.007220764
34	0xbcf77860	-0.030208766
35	0x3aa12f51	0.0012297427
36	0x3d03e7c8	0.032203466
37	0xbc832388	-0.016008154
38	0x3c1ebe04	0.009688858
39	0x3d05b7eb	0.0326461
40	0xbd01edbb	-0.031720858
41	0x3c9316b3	0.01795516
42	0xbc81aa5d	-0.015828306
43	0xbc82013a	-0.015869725
44	0x3a791eb0	0.0009503169
45	0xbc063f54	-0.00819381
46	0x3c995112	0.018715415
47	0xbcc62bf7	-0.024190886
48	0x3becc6e1	0.0072258567
49	0xbc239c74	-0.009986032
50	0xb95a25a5	-0.00020804124
51	0xbd188208	-0.037233382
52	0x3c334873	0.010942566
53	0xbc08d38d	-0.008351219
54	0xbd13d039	-0.03608725
55	0x3bba5552	0.0056864405
56	0x3cae699c	0.021290593
57	0xbca8d1ec	-0.020607911
58	0x3bc7d816	0.0060987575
59	0x3c88415b	0.016632726
60	0x3cbb56de	0.02286857
61	0xbd05866b	-0.032598894
62	0xbcbaae2a	-0.022788126
63	0x3cbd094d	0.023075724
64	0x3c2db277	0.010601631
65	0xbceff49b	-0.029291442
66	0x3c88711e	0.016655501
67	0x3d1a9e62	0.037748702
68	0xbd046f6b	-0.03233282
69	0xbbbf9205	-0.0058462643
70	0x3d253bbf	0.04034018
71	0xbd1c7414	-0.03819664
72	0x3b101396	0.002198433
73	0x3d00de79	0.031462166
74	0x3cf1f61b	0.029536298
75	0x3cd509a6	0.026005577
76	0x3d118292	0.035524912
77	0x3ca1aa3e	0.019734498
78	0xbcb02848	-0.021503583
79	0x3d1a3339	0.037646506
80	0x3cc70e02	0.024298672
81	0xbd1006c4	-0.035162702
82	0xbc53e2b3	-0.012932467
83	0xbb23759a	-0.0024941922
84	0x3ce7cfd5	0.028297344
85	0xbbe5ca95	-0.007012675
86	0x3d127d48	0.03576401
87	0xbcd24c8f	-0.025671272
88	0xbc716c24	-0.014735255
89	0x3d0ae61a	0.03391085
90	0xbc2c1ce8	-0.010504939
91	0x3ce6b0d6	0.028160494
92	0xbbe2972c	-0.0069149937
93	0xbb685bb6	-0.0035455055
94	0x3cc2ad7b	0.023764363
95	0x3d103b44	0.03521277
96	0xbca4aa28	-0.020100668
97	0x3d03a47e	0.032139294
98	0xbd00373d	-0.03130268
99	0xbc08b9cf	-0.0083450815
100	0x3d2364ab	0.039890926
101	0xbc8bb3a3	-0.01705343
102	0x3cb3d9ce	0.021954443
103	0xbd113ba9	-0.035457287
104	0x3bcba059	0.0062141833
105	0x3d14e4c2	0.036350973
106	0x3d1052a8	0.035235077
107	0x3c28c7c5	0.010301535
108	0x3c5a9853	0.013341981
109	0xbd193751	-0.03740627
110	0x38daff04	0.000104425504
111	0x3c47cbe2	0.012194606
112	0xbbc41464	-0.005983876
113	0xbd0fd347	-0.0351136
114	0xbcc910a1	-0.024544062
115	0xbc7cbd41	-0.015425981
116	0xbc8e672c	-0.01738318
117	0x3ce0ee61	0.027457418
118	0xbc229b78	-0.009924762
119	0xbbb2ba7f	-0.005454361
120	0xbd362ca7	-0.044476178
121	0xbc9d168e	-0.019175794
122	0xbc8f4324	-0.01748807
123	0x39206064	0.00015294697
124	0x3c49f50c	0.01232649
125	0x3c3de32c	0.0115898065
126	0x3d110a8b	0.035410445
127	0xbd1c48aa	-0.038155235
128	0xbb44a302	-0.0030004387
129	0x3c1f6669	0.009729006
130	0xbd19f55e	-0.037587516
131	0x3cd1847d	0.02557587
132	0xbc889daf	-0.016676752
133	0xbb2b81a1	-0.0026169794
134	0xbcd9bc56	-0.026579063
135	0x3cb08505	0.021547804
136	0x3d028896	0.03186854
137	0x3d113064	0.03544654
138	0x3ce58c24	0.028020926
139	0xbd12d263	-0.03584517
140	0xbc93f1ea	-0.01805969
141	0xbb87a034	-0.0041389707
142	0x3cf64897	0.03006391
143	0xbc06aadf	-0.00821945
144	0xbc8ef3dc	-0.017450266
145	0xbc70a809	-0.0146885
146	0x3d1215b0	0.035665214
147	0x3c864e7b	0.016394844
148	0xbc428840	-0.011873305
149	0x3d1b83cf	0.0379675
150	0x3cc4b818	0.024013564
151	0xb77c2f2c	-1.50313535e-05
152	0xbcd6f918	-0.026241824
153	0x3cc39f6f	0.023879735
154	0xbcc8b102	-0.024498466
155	0xbd1a9de2	-0.037748225
156	0xbbb4481f	-0.0055017616
157	0xbc0f82be	-0.008759199
158	0x3b57bc2e	0.003291856
159	0x3c8bf6cd	0.017085457
160	0xbc2802aa	-0.010254541
161	0xbc18f4e7	-0.009335733
162	0x3b0a1069	0.002106691
163	0xbcf9779b	-0.03045254
164	0xbc42d00c	-0.011890423
165	0x3beaf740	0.007170588
166	0xbac45fac	-0.0014982126
167	0x3c1edc28	0.009696044
168	0xbcab9ddf	-0.020949302
169	0xbcc77674	-0.024348475
170	0x3d03e579	0.032201264
171	0x3d13ae25	0.03605475
172	0x3ccc489d	0.024936968
173	0x3c4de7bf	0.01256746
174	0xbd0ac139	-0.033875678
175	0x3c4d632e	0.012535853
176	0xbc9a4943	-0.018833762
177	0x3b94dc79	0.004542884
178	0xbd156b4b	-0.036479276
179	0xbc6453ae	-0.013935966
180	0x3ca94a85	0.020665416
181	0x3d0d78fc	0.034539208
182	0x3cfc1476	0.030771475
183	0x3c257782	0.010099294
184	0xbcd566ef	-0.02605006
185	0xbd11c718	-0.03559026
186	0x3ba2259a	0.00494833
187	0xbcb463aa	-0.02202018
188	0x3c8a7ee9	0.016906219
189	0xbcbdb63a	-0.023158181
190	0xbcac6024	-0.021041937
191	0xbbb6d677	-0.0055797654
192	0xbd0e9785	-0.03481247
193	0x3cb771b7	0.02239309
194	0xbcd52317	-0.026017709
195	0x3c10cd0b	0.008837949
196	0x3ca10275	0.019654492
197	0x3c92862b	0.017886242
198	0xbd091487	-0.033466842
199	0x3d02df6d	0.031951357
200	0x3bd0b9dc	0.0063698124
201	0x3b1a9015	0.0023584415
202	0x3b9bfde9	0.004760493
203	0xbc52297e	-0.012827275
204	0xbc02e9de	-0.007990329
205	0x3c1b67c6	0.009485191
206	0xbc5ba1da	-0.013405288
207	0xbc56a928	-0.013101853
208	0xbc08cab2	-0.008349108
209	0xbc128e86	-0.008945113
210	0x3c24d977	0.010061613
211	0x3c52d0c6	0.012867158
212	0x3bfa75c5	0.0076434338
213	0x3c81944e	0.015817787
214	0x3cc1c9a7	0.023655726
215	0xbce29442	-0.027658585
216	0x3b137280	0.0022498667
217	0x3d057715	0.03258427
218	0x3d13dacf	0.036097344
219	0x3b6bc779	0.003597705
220	0xbd08b268	-0.033373266
221	0x3d0473e0	0.03233707
222	0xbcd09efb	-0.025466433
223	0x3cb273f3	0.021783805
224	0xbd0a4b8d	-0.033763457
225	0x3b85d97e	0.004084765
226	0x3cae0a96	0.021245282
227	0x3d139494	0.036030367
228	0xbc2e15ab	-0.010625283
229	0xbbac9d23	-0.0052677556
230	0xbcbe1faf	-0.023208467
231	0x3d15a4e4	0.036534205
232	0x3cf181ea	0.029480893
233	0x3cafc489	0.02145602
234	0x3caa5ea0	0.020797074
235	0xbc0f58c4	-0.008749191
236	0xbc9b4a1e	-0.01895624
237	0xbc871c4b	-0.016492983
238	0xbcc6a5b7	-0.02424894
239	0x3cf9fdb8	0.03051649
240	0x3cf4f68a	0.029902715
241	0x3cade1b8	0.021225795
242	0x3d1cf243	0.038316976
243	0x3b946c3f	0.0045295055
244	0x3cbf684e	0.023365166
245	0xbc9fe6c2	-0.019519214
246	0x3d03f396	0.032214724
247	0x3d06c71d	0.032904733
248	0xbc42cf04	-0.011890177
249	0xbd0786d4	-0.033087566
250	0xbced8fd9	-0.028999256
251	0x3af3b434	0.0018593133
252	0xbbbbc53f	-0.0057303007
253	0x3ba8b77d	0.0051488266
254	0x3d108157	0.035279598
255	0x3c00d9bf	0.007864415

bias f4 [256]
0	0xbce4ab02	-0.027913574
1	0x3c9018d2	0.01758996
2	0xbcdf8889	-0.027286785
3	0xbd1d73c7	-0.038440492
4	0xbc60b5e4	-0.013715241
5	0x3c93a304	0.018022068
6	0x3c9cf077	0.019157631
7	0xbd18b0fc	-0.03727816
8	0x3c1d35a9	0.009595313
9	0xbc4505f3	-0.012025344
10	0xbd0deddc	-0.03465067
11	0x3c4dccb6	0.012561014
12	0x3ba05ef3	0.0048941313
13	0xbc579d38	-0.013160042
14	0x3c147b47	0.009062595
15	0x3c6d5055	0.014484485
16	0x3d05e298	0.0326868
17	0x3d17bdf2	0.03704638
18	0x3cd0ca57	0.025487108
19	0x3c3c25f7	0.011483661
20	0x3c8b7009	0.017021196
21	0x3c28a5af	0.010293408
22	0x3cbc3a92	0.022977147
23	0xbc1cbb5e	-0.009566156
24	0x3b669fc1	0.0035190436
25	0xbd04cd87	-0.03242257
26	0xbc197185	-0.009365444
27	0x3cd03708	0.025416866
28	0xba6d471c	-0.00090514286
29	0x3cc7f4af	0.024408666
30	0x3c49b974	0.012312282
31	0x3d04373d	0.03227924
32	0xbc8cac86	-0.01717211
33	0xbcb6bd5d	-0.022307092
34	0xbc534265	-0.012894248
35	0x3b9d5c3b	0.0048022545
36	0xbcfe1711	-0.031016858
37	0xbd178f4a	-0.037001885
38	0x3b9e6b2b	0.0048345528
39	0x3d20b238	0.039232463
40	0xbcfa039a	-0.030519295
41	0x3ca9f6a5	0.020747492
42	0xbce3059a	-0.027712632
43	0xbcf0db27	-0.029401375
44	0x3d229810	0.0396958
45	0x3cc03f09	0.023467558
46	0x39630941	0.00021651854
47	0x3cad1fa0	0.021133244
48	0x3bbb0459	0.0057073054
49	0xbc2f507b	-0.01070034
50	0xbd055f9d	-0.032561887
51	0x3c2526cf	0.0100800535
52	0x3cfac42a	0.030611116
53	0xbd07529c	-0.033037767
54	0x3cb94f78	0.022620901
55	0xbcbd38e3	-0.023098415
56	0x3c425cd8	0.011862956
57	0x367fc5b4	3.811304e-06
58	0x3c2b2fc8	0.010448404
59	0xbd07b208	-0.03312877
60	0xbc9ad75e	-0.018901523
61	0xbb87eb7d	-0.0041479454
62	0xbc0e06cb	-0.008668612
63	0x3c8395b0	0.016062587
64	0x3bd32dc4	0.0064446647
65	0xbc3d94dd	-0.011571136
66	0xbd15629e	-0.036471
67	0x3d085eff	0.03329372
68	0x3c5365a1	0.012902648
69	0xbd0e2642	-0.034704454
70	0x3d00bb2e	0.03142851
71	0x3c54ba70	0.012983903
72	0xbcdf7545	-0.027277598
73	0xbd1f60f4	-0.03891082
74	0xbce78eb8	-0.028266296
75	0xbbb74bf0	-0.0055937693
76	0xbc3e72af	-0.011624022
77	0x3c86c9a8	0.016453579
78	0xbcbeccde	-0.023291048
79	0xbd0be4f8	-0.03415391
80	0x3c8a8d1e	0.016912993
81	0xbd1ae28a	-0.0378137
82	0x3c13b744	0.009015862
83	0x3cc6df32	0.02427635
84	0x3cb8f5ed	0.022578204
85	0x3ce9ebf2	0.02855489
86	0x3c93c383	0.018037563
87	0x3cffc54b	0.031222006
88	0x3cdef07b	0.02721428
89	0xbd045a5b	-0.032312732
90	0xbcadbbb8	-0.021207675
91	0xbc3f764a	-0.011685917
92	0x3cc5fab7	0.024167402
93	0xbcb5d84a	-0.022197861
94	0x3c8f01e6	0.01745696
95	0xbc0ad199	-0.008472824
96	0xbc5cbe80	-0.013473153
97	0x3cd13c07	0.025541319
98	0x3d0a58b4	0.033776
99	0x3a9cbd3c	0.0011958252
100	0x3c252b1f	0.010081082
101	0x3c38589d	0.011251596
102	0xbcc2b640	-0.023768544
103	0x3b533f4b	0.003223377
104	0x3d043c0e	0.032283835
105	0xbd1ea0a6	-0.038727425
106	0xbb93d6cd	-0.0045116902
107	0x3cdd616f	0.027023999
108	0x3a1047c3	0.00055038574
109	0xbc659e75	-0.01401483
110	0x3c9ed518	0.01938872
111	0xbcfc1322	-0.030770842
112	0x3d06e192	0.032929964
113	0x3c0a24d7	0.008431635
114	0xbceb4282	-0.028718237
115	0xbca6ce5a	-0.020362068
116	0x3bd7a7fa	0.0065813037
117	0xbd1cf16a	-0.038316168
118	0x3c86b0e5	0.016441772
119	0xbcf95dc8	-0.030440226
120	0x3c964dab	0.018347582
121	0xbcb72dfe	-0.022360798
122	0x3bc3c911	0.0059748967
123	0x3c3bcfd6	0.011463126
124	0xbd043413	-0.032276224
125	0xbcc6ca36	-0.024266344
126	0x3c3e419d	0.011612323
127	0x3cdfe0ab	0.02732881
128	0x3d019e9b	0.0316454
129	0x3d0ba5fa	0.034093834
130	0x3c88087e	0.016605612
131	0xb997c767	-0.0002894953
132	0x3c881e35	0.016615966
133	0xbd1f744e	-0.038929276
134	0xbc9e6e6a	-0.019339759
135	0x3bb93302	0.0056518326
136	0xbd1020ec	-0.035187647
137	0xbcf229e6	-0.029560994
138	0x39fd75dd	0.00048343735
139	0xbc3e0099	-0.011596822
140	0xbc701f67	-0.014655924
141	0x3cc2def2	0.02378795
142	0xbcb9516e	-0.022621837
143	0x3d1744c1	0.036930803
144	0xbbba8b48	-0.005692873
145	0xbcbd796f	-0.023129193
146	0x3d1c007d	0.038086403
147	0xbca4c6af	-0.020114271
148	0xbd1cdbd7	-0.038295593
149	0xbcad46a5	-0.02115185
150	0x3d15d499	0.036579702
151	0xbc703ff0	-0.014663681
152	0x3cc8c29e	0.024506863
153	0x3bcbd579	0.0062205163
154	0x3ccf49fc	0.025303833
155	0xbd007886	-0.03136494
156	0xbceaf56c	-0.02868148
157	0x3cbd4eb3	0.023108816
158	0x3d08bf1d	0.033385385
159	0x3d1a6155	0.03769048
160	0xbc40e208	-0.01177264
161	0xbcc19637	-0.023631198
162	0xbc96d522	-0.018412177
163	0xbbeef359	-0.007292193
164	0xbbd477f9	-0.0064840284
165	0xbd072f37	-0.033004012
166	0xbc08a25e	-0.008339493
167	0x3990b45e	0.00027600204
168	0x3cc74d53	0.024328863
169	0x3cbc7eb6	0.02300964
170	0xbbe14171	-0.0068742563
171	0x3c74b5fb	0.014935966
172	0xbd05ac0c	-0.03263478
173	0x3cda374d	0.026637698
174	0xbcad8806	-0.021183025
175	0xbc804b76	-0.015660983
176	0x3c8b22a7	0.016984297
177	0x3c995a08	0.018719688
178	0xbd1977e8	-0.037467867
179	0x3c4b05ac	0.012391489
180	0x3bc2be6e	0.005943111
181	0x3ccb00c1	0.024780633
182	0x3a9a2f79	0.0011763416
183	0x3c5c3009	0.013439187
184	0x3b965817	0.004588138
185	0xbcde83dd	-0.027162487
186	0xbd0955f9	-0.033529256
187	0xbbbe51cd	-0.0058080913
188	0xbc830f1c	-0.015998416
189	0x3c41eb52	0.01183589
190	0xbc1deea2	-0.009639414
191	0x3b530936	0.0032201535
192	0x3d1062bd	0.035250414
193	0x3cfd0574	0.03088639
194	0xbcbc4d45	-0.022986064
195	0xbb47cc38	-0.0030486714
196	0xbcb31f8c	-0.021865629
197	0x3c42761d	0.011868981
198	0x3b81c3ab	0.003960093
199	0xbbf81ead	-0.007572016
200	0x3d2b6b87	0.041850593
201	0xbcf26530	-0.029589266
202	0xbc109f7c	-0.008827087
203	0x3c2008b1	0.009767697
204	0x3cd2dd8c	0.025740407
205	0x3cc967c9	0.024585621
206	0x3b2f6d69	0.0026768094
207	0xbd094fad	-0.03352325
208	0xbb8812a8	-0.0041526146
209	0xbccb9cc6	-0.024855029
210	0x3c41133d	0.011784372
211	0x3c5c56fc	0.013448473
212	0xba27faa5	-0.00064078934
213	0xbaba3124	-0.0014205319
214	0x3b661fb1	0.0035114104
215	0xbc224295	-0.00990357
216	0xbce6eb42	-0.028188352
217	0x3c93048f	0.01794651
218	0xbcf80a62	-0.030278388
219	0x3b73f6c9	0.0037225953
220	0x3cf9a8b2	0.030475948
221	0xbc4c0979	-0.01245343
222	0x3cbadad7	0.02280943
223	0xbbe7d0f5	-0.00707447
224	0x3c22d2b2	0.009937929
225	0x3c75add8	0.014995061
226	0xbd0aff15	-0.03393467
227	0xbcafbe10	-0.021452934
228	0x3b34e813	0.0027604147
229	0xbd0c59f7	-0.034265485
230	0x3be5de0b	0.007014995
231	0x3c2249d7	0.0099053
232	0x3cd7995c	0.026318245
233	0xbc52bcc4	-0.012862388
234	0x3cbfeedd	0.023429329
235	0x3d13476b	0.03595678
236	0xbc009c0c	-0.0078497045
237	0x3c3a82d5	0.011383732
238	0x3cf5f76f	0.030025212
239	0xbd0e6582	-0.034764774
240	0xbce4b263	-0.027917093
241	0xbc8bee6a	-0.017081458
242	0xbd1453fa	-0.0362129
243	0x3d0058a7	0.031334545
244	0x3c90f8b4	0.017696716
245	0xbc824e5c	-0.015906505
246	0xbcf5fc0c	-0.030027412
247	0x3ce13513	0.027491128
248	0xbcbfb1a8	-0.023400143
249	0x3c824723	0.015903061
250	0xbc908c3a	-0.01764499
251	0x3d082c18	0.033245176
252	0x3cccb2ff	0.024987696
253	0xba56de4b	-0.00081965764
254	0xbcae397e	-0.021267649
255	0x3c9323d6	0.017961424

weight f4 [64, 256]
0	0x3d373a59	0.04473338
1	0xbd0c1daf	-0.034207996
2	0xbd21038f	-0.039310034
3	0xbcac84cc	-0.021059416
4	0x3c677980	0.014128089
5	0x3d4dbbc1	0.050227884
6	0x3cb40cc9	0.021978753
7	0xbcfe2b9b	-0.031026652
8	0x3d734044	0.05938746
9	0xbcb114f9	-0.021616446
10	0xbd5511cb	-0.05201892
11	0x3d2eb8d1	0.042656723
12	0x3d35737f	0.0442996
13	0xbca73125	-0.020409176
14	0x3d3ca4f0	0.046055734
15	0xbd76eb15	-0.060282785
16	0xbcc4f112	-0.024040733
17	0xbd33d5ac	-0.043904945
18	0x3d2cec5e	0.042217605
19	0x3d81839a	0.06323929
20	0x3d104233	0.035219382
21	0x3cd04593	0.0254238
22	0x3d746e49	0.05967549
23	0xbd768502	-0.06018544
24	0x3ccf8e40	0.025336385
25	0xbd4b2294	-0.049593523
26	0xbd4d069c	-0.05005513
27	0xbd0ecf5c	-0.034865722
28	0xbd5783cb	-0.052615922
29	0xbd5d76bc	-0.054068312
30	0xbd018b2c	-0.031626865
31	0xbd6825c4	-0.05667664
32	0xbc703115	-0.01466014
33	0x3d2853fa	0.04109571
34	0xbc93e6f0	-0.018054456
35	0x3d5a3ead	0.05328243
36	0xbce5a7d1	-0.028034123
37	0xbd432b2a	-0.047648586
38	0x3d49794b	0.04918794
39	0xbc018da6	-0.007907307
40	0x3d62a0a3	0.055328976
41	0x3d736ae1	0.0594281
42	0x3c97dbf4	0.018537499
43	0x3cee6633	0.029101467
44	0xbd61cdd8	-0.05512795
45	0xbd5e2ea0	-0.054243684
46	0x3d0579e0	0.032586932
47	0x3d72ea7b	0.05930565
48	0x3d4831a6	0.048875473
49	0xb9b23479	-0.000339899
50	0x3ca2c5a8	0.01986964
51	0x3d0f9767	0.035056498
52	0xbd1dc3f5	-0.038516957
53	0xbd59c4da	-0.053166248
54	0x3d8034a3	0.0626004
55	0x3cd07588	0.025446668
56	0x3cc05bb8	0.023481235
57	0xbd223c1c	-0.039608106
58	0xbc816f82	-0.015800241
59	0x3d622382	0.055209644
60	0xbc89924a	-0.016793389
61	0xbd1b6679	-0.037939522
62	0x3bb47df6	0.00550818
63	0xbd379038	-0.044815272
64	0x3d314726	0.043280743
65	0x3c11b471	0.008893118
66	0x3c2e2afd	0.010630366
67	0x3c4589cc	0.012056779
68	0x3c015c8d	0.007895601
69	0x3cb21a94	0.021741189
70	0x3d92b59f	0.07163548
71	0x3ce8cc67	0.02841778
72	0x3d26f516	0.040761076
73	0x3c751903	0.014959577
74	0xbd6da69c	-0.05802022
75	0xbd5f16e6	-0.054465197
76	0xbd319d01	-0.04336262
77	0x3d33630f	0.04379564
78	0xbc9ea06f	-0.01936361
79	0x3be0ab4f	0.006856359
80	0x3d48c5e9	0.049016867
81	0xbb74837c	-0.0037309816
82	0xbd010649	-0.031500135
83	0xbd310b85	-0.043223877
84	0x3d717dec	0.05895798
85	0x3d1f65b6	0.03891536
86	0xbc99fcd1	-0.01879731
87	0x3d1437d4	0.036186054
88	0xbc862fac	-0.016380154
89	0x3d648564	0.055791274
90	0xbd737640	-0.059438944
91	0x3cf02961	0.029316606
92	0xbd596790	-0.05307728
93	0xbd1466a4	-0.0362307
94	0x3d4cb852	0.04998047
95	0xbd05b49f	-0.032642957
96	0x3d51e5ac	0.051244423
97	0xbd1120df	-0.03543174
98	0x3cfb036c	0.03064128
99	0x3d1a8270	0.03772205
100	0xbd673f79	-0.056457017
101	0x3c31e64d	0.010858131
102	0xbb548f43	-0.0032434023
103	0xbd667a20	-0.05626881
104	0xbc5e4757	-0.013566813
105	0x3cca2914	0.02467779
106	0xbd12aa9e	-0.035807244
107	0x3d49fe6e	0.04931491
108	0xbd4c4793	-0.049872946
109	0x3d6d38b1	0.057915393
110	0xbc6cbbe1	-0.014449091
111	0x3d059433	0.032612037
112	0x3d2ec081	0.042664055
113	0x3c23f216	0.010006448
114	0x3cf90500	0.030397892
115	0xbccdfe5e	-0.025145706
116	0x3ccf63be	0.025316115
117	0xbbff0992	-0.0077831233
118	0x3ce64827	0.028110577
119	0x3c70fbcd	0.0147084715
120	0x3cad87fe	0.02118301
121	0xbc557078	-0.013027303
122	0x39c81720	0.00038164202
123	0xbc345246	-0.011005944
124	0xbca75828	-0.020427778
125	0x3c776568	0.015099861
126	0x3d331640	0.04372239
127	0x3d71a16f	0.058991846
128	0xbd10fd9e	-0.03539812
129	0x3ca96f8e	0.020683076
130	0x3cd954ce	0.026529696
131	0x3c460efa	0.012088532
132	0xbd29280d	-0.04129796
133	0x3d85062b	0.06495317
134	0xbd6ba2a5	-0.057528157
135	0xbca86cb4	-0.020559646
136	0xbd4d6a5d	-0.050150264
137	0x3cf6ac08	0.030111328
138	0x3bed5c97	0.0072437036
139	0x3d261b1a	0.04055319
140	0xbcd3d3ab	-0.025857767
141	0x3bcfeca7	0.00634535
142	0xbd58c8c6	-0.052925847
143	0xbab06187	-0.00134568
144	0xbd2bf9d8	-0.041986316
145	0xbc0d1a2e	-0.008612199
146	0x3c17ebbf	0.009272515
147	0x3cacd871	0.021099301
148	0xbd33b23d	-0.043871153
149	0x3b44ece0	0.0030048415
150	0xbd6e414d	-0.058167744
151	0xbcd3d77b	-0.025859585
152	0x3d0f9169	0.035050783
153	0xbc0479ba	-0.0080856625
154	0xbd1ba7f1	-0.03800196
155	0xbd151a5b	-0.036402088
156	0x3ad8f1f6	0.0016551602
157	0x3d23fcaa	0.04003588
158	0x3be06d13	0.00684894
159	0xbc1a2343	-0.009407821
160	0x3bde0170	0.0067750737
161	0x3d2ed027	0.04267898
162	0x3d320892	0.043465205
163	0xbd0c1e50	-0.034208596
164	0x3d7b6fcf	0.061385926
165	0xbd14d8d0	-0.03633958
166	0x3ad45bd9	0.0016201689
167	0xbccbee93	-0.024894034
168	0xbc0a39e8	-0.0084366575
169	0x3c877b76	0.016538363
170	0x3d2a0931	0.04151267
171	0x3c5fe1fa	0.013664717
172	0xbcfbb61a	-0.030726481
173	0xbd409c20	-0.047023892
174	0x3bacc7ac	0.005272826
175	0x3d494ffc	0.049148545
176	0x3c9dfd0e	0.019285705
177	0xbd300a15	-0.042978365
178	0xbc314667	-0.010820008
179	0x3d0aaaf8	0.033854455
180	0xbd503868	-0.050835043
181	0xbca9f05e	-0.020744499
182	0x3d024ba4	0.031810418
183	0x3cbd95ae	0.023142662
184	0xbc88c8cd	-0.016697312
185	0x3c277e49	0.01022298
186	0x3ba4bd9b	0.0050274855
187	0xbb3496ad	-0.002755563
188	0xbca37f9e	-0.019958314
189	0x3d7126a6	0.05887475
190	0xbc9fde4c	-0.01951518
191	0x3d639769	0.055564318
192	0x3d52bcc8	0.051449567
193	0x3c37bb87	0.011214144
194	0x3d2d7e3c	0.042356715
195	0x3d797731	0.060904685
196	0x3d710932	0.05884666
197	0x3bd1f3cf	0.006407238
198	0xbd01af3b	-0.031661253
199	0xbccbf53a	-0.024897207
200	0x3a2a37de	0.000649331
201	0xbd0ffd78	-0.035153836
202	0x3c6e156e	0.014531476
203	0x3c80edb4	0.015738346
204	0x3d6c767d	0.057730187
205	0xba06579d	-0.000512475
206	0x3d38d588	0.045125514
207	0x3d726783	0.059180748
208	0x3d42c780	0.04755354
209	0x3d6026ba	0.054724433
210	0x3c9f6634	0.019457914
211	0x3b0830da	0.002078107
212	0xbc19c99e	-0.009386448
213	0xbc0f222a	-0.008736173
214	0x3cb66bf3	0.022268271
215	0x3bb5d50f	0.00554908
216	0x3d4ff0e1	0.05076683
217	0x3d167ea4	0.036741868
218	0x3d326970	0.043557584
219	0xbd4eb254	-0.050463036
220	0xbd6c44ee	-0.057682924
221	0xbd48b120	-0.048997045
222	0xbd5bf1ef	-0.053697523
223	0xbb8ed0e1	-0.0043583964
224	0x3d1b17de	0.03786456
225	0xbd57e2aa	-0.052706398
226	0x3c9504fe	0.018190857
227	0x3d0e03be	0.034671538
228	0x3d76d778	0.06026408
229	0x3ce37274	0.027764536
230	0x3bb7f4b2	0.0056138868
231	0x3d86edc7	0.06588321
232	0xbcddf2be	-0.027093288
233	0xbd6bdf05	-0.057585735
234	0x3d12cd2e	0.035840206
235	0x3bb9fb8d	0.005675739
236	0xbd7a89f9	-0.061166737
237	0xbc77b0f1	-0.01511787
238	0x3d3254f0	0.043538034
239	0x3d7f1744	0.062278047
240	0x3d6730a9	0.05644289
241	0x3d4a09d4	0.04932578
242	0x3b9e9042	0.004838974
243	0x3b2cb3c2	0.0026352261
244	0xbc7064f1	-0.014672504
245	0x3c7c8564	0.015412662
246	0x3d4b744a	0.04967145
247	0xbd32ffff	-0.04370117
248	0x3d81b58f	0.06333458
249	0xbd74dd38	-0.059781283
250	0xbd5a8155	-0.053345997
251	0xbd1bb8ea	-0.038018145
252	0xbd77167d	-0.06032418
253	0x3d43f1ca	0.04783801
254	0x3d14d42f	0.036335167
255	0xbd0b1210	-0.033952773

bias f4 [64]
0	0x3d61f28b	0.055162948
1	0x38d2bd5b	0.000100488505
2	0x3d236515	0.03989132
3	0xbb693843	-0.0035586513
4	0xbcdcf816	-0.026973765
5	0x3b7618ab	0.0037551324
6	0xbc4b007c	-0.012390252
7	0xbb79f5d9	-0.0038140921
8	0xbc639cbd	-0.01389235
9	0xbd5893b9	-0.052875254
10	0x3d38096b	0.044930857
11	0x3c84cc5c	0.016210727
12	0xbd7fe3e7	-0.062473204
13	0x3c0005a4	0.007813845
14	0x3c29350b	0.010327588
15	0x3d2508f5	0.040291745
16	0x3c23a72e	0.009988589
17	0x3cce63dd	0.025194103
18	0xbc6ac52a	-0.014329234
19	0xbca90fc7	-0.020637406
20	0x3c86157f	0.016367672
21	0x3ba6ceca	0.005090569
22	0xbc1f8233	-0.009735632
23	0xbd0b20a8	-0.03396669
24	0xbd568198	-0.052369684
25	0xbc59922f	-0.013279482
26	0x3c4f69bf	0.012659489
27	0xbd298ae2	-0.041392215
28	0xbca50e78	-0.0201485
29	0x3d709422	0.05873502
30	0x3d24ef1b	0.04026709
31	0x3a635b2e	0.00086729496
32	0xbb3fa96a	-0.0029245266
33	0x3ce7db27	0.028302742
34	0x3b86d6d5	0.0041149654
35	0x3b1450b4	0.002263111
36	0x3c02107b	0.0079385
37	0xbcf423df	-0.02980226
38	0x3d63da60	0.05562818
39	0x3d2da8f5	0.042397458
40	0x3d80d922	0.06291415
41	0xba6e3859	-0.0009087376
42	0xbd31ab60	-0.043376327
43	0x3ce50acf	0.027959256
44	0x3d303a54	0.043024376
45	0xbd7d6d2d	-0.061871696
46	0xbd5fedb2	-0.054670043
47	0x3d1dba85	0.038507957
48	0xbd6c013c	-0.057618365
49	0xbbb28988	-0.005448524
50	0x3ab20b83	0.0013583753
51	0xbd489b76	-0.048976384
52	0x394aaa69	0.00019327704
53	0x3cfc57a2	0.030803505
54	0x3d3c4d14	0.045971945
55	0xbd408f51	-0.047011677
56	0xbb40d3ef	-0.0029423197
57	0x3be2fee0	0.006927356
58	0x3cc19984	0.023632772
59	0x3c9d3f0f	0.019195108
60	0xbd135781	-0.035972122
61	0x3d152791	0.036414687
62	0xbd154435	-0.036442
63	0x3d157bbb	0.03649495
