Saved Models/model1.pt (torch_old, 763093 bytes, 14 tensors)

weight f4 [6, 3, 5, 5]
-0.010583179 0.0045503555 -0.0047366046 -0.03140342 -0.043878146 0.029854754 0.06451891 -0.06479086
-0.039576765 -0.00064909755 0.00060653925 -0.11487326 -0.046289317 0.025849862 -0.05750328 0.0024358619
-0.06622898 -0.039903354 0.035348218 -0.07026442 0.067571014 -0.062396307 0.10589803 -0.021143435
-0.03102112 0.038158655 -0.05263057 0.057359923 0.05429845 0.10930795 -0.07206269 0.088869095
-0.015168205 0.0573564 -0.08448746 0.07833343 -0.06251699 0.04614162 0.11492638 0.029345652
-0.08869506 0.08851465 -0.10796079 0.0025239913 -0.015841331 0.09272304 -0.08114996 -0.035214398
-0.055484697 0.013841557 0.06758521 0.04787683 -0.08295464 -0.03004326 -0.046528354 -0.06667559
-0.050529514 -0.024960138 0.027325042 0.08848749 -0.093503535 0.010513363 0.047889136 0.054931235
0.09743192 0.053690657 0.0020081692 -0.07775122 -0.030944746 0.047398984 0.06445342 0.104230076
-0.0913208 0.08949691 -0.11036936 -0.022865657 -0.017803824 0.08026667 0.04544941 0.1195109
0.11356346 0.087074734 0.042671453 -0.05683281 0.033227623 -0.052278645 0.10939532 0.05293345
-0.050854284 -0.025691433 0.108399 -0.026926938 -0.09878718 0.008453463 0.008268266 0.07509515
0.04604807 0.045146175 -0.105374806 0.05084372 -0.042422764 -0.048299205 -0.102172285 0.09693349
-0.10317436 -0.006324031 0.02893454 -0.009947473 0.11973477 -0.08040329 -0.08554592 -0.07210796
-0.036355738 -0.057694215 -0.011841753 0.02880625 -0.06593585 0.07917534 0.016621444 0.030007832
-0.07994038 0.061553583 0.051197097 0.03694056 -0.09941642 0.07765783 -0.021591116 0.09782111
-0.095178984 0.03337907 0.0141473375 0.06503946 0.11991201 -0.07406983 0.10620999 -0.05174165
0.110807456 -0.09061696 0.019793767 0.11830716 0.07085074 -0.038563527 0.10257346 -0.005337455
0.11035744 -0.010006895 0.065325774 -0.10836685 -0.046700053 0.025075953 -0.058212798 -0.10634417
0.0042954497 -0.034589946 -0.011300851 -0.046653092 0.11820388 0.0023528712 -0.086106546 -0.05474942
0.098722324 -0.097355105 -0.036104336 0.0595522 -0.09446786 0.037107896 0.010515388 0.12151744
-0.08559275 -0.045202874 0.08101079 -0.006115339 0.01779048 -0.028901331 0.058034316 0.09313208
-0.022224413 0.06060847 0.08593143 -0.041334733 -0.039858837 -0.042221766 -0.02674934 0.08716185
0.09178008 0.0057137487 -0.07297456 0.039024077 0.11502571 -0.094562925 0.07607866 0.045070067
-0.08609595 0.121068545 -0.08943146 0.08487072 0.12018495 -0.061817944 -0.07790133 -0.008257563
-0.07565174 0.0728617 0.105555296 0.11146291 0.0018727122 -0.04364588 0.085412204 0.016892334
0.028819636 -0.076101854 0.054377995 0.0912605 0.1184031 0.074396834 -0.089400336 -0.04521882
-0.08910237 0.039273504 0.12193377 0.08488997 -0.08215855 -0.06638677 0.11531303 0.11294675
0.08515839 0.06427111 0.080037534 0.028224014 -0.110557914 -0.058001924 0.08440646 0.06275095
-0.10254519 0.07223231 -0.102018744 0.08820631 -0.087326124 -0.02416733 0.059974086 0.020175936
0.0033336526 -0.07097447 -0.05565717 -0.04120677 0.09583146 -0.0155164255 0.084085956 -0.10873574
0.06705703 0.0234407 -0.02595452 -0.016038142 -0.06533624 -0.08974239 0.06721845 -0.0847452
00000000: 1265 2dbc 261b 953b 8535 9bbb dfa0 00bd
00000010: 92b9 33bd f591 f43c 7e22 843d 12b1 84bd
00000020: 3f1b 22bd 3328 2aba 2900 1f3a ac42 ebbd
00000030: de99 3dbd 17c3 d33c 8f88 6bbd fba2 1f3b
00000040: 0fa3 87bd b371 23bd 4bc9 103d cbe6 8fbd
00000050: ac62 8a3d 4593 7fbd 11e1 d83d ff34 adbc
00000060: 0120 febc 404c 1c3d 2793 57bd 3df2 6a3d
00000070: 0d68 5e3d d9dc df3d 9b95 93bd 0001 b63d
00000080: 1084 78bc 8bee 6a3d c307 adbd 476d a03d
00000090: e808 80bd fffe 3c3d 865e eb3d 4b66 f03c
000000a0: c1a5 b5bd 2b47 b53d 8c1a ddbd 8c69 253b
000000b0: aec5 81bc 94e5 bd3d f331 a6bd f93c 10bd
000000c0: ec43 63bd b3c7 623c 1d6a 8a3d 7f1a 443d
000000d0: 1fe4 a9bd 481d f6bc 8494 3ebd 368d 88bd
000000e0: 09f8 4ebd 3479 ccbc c4d8 df3c ee38 b53d
000000f0: c87e bfbd 3e40 2c3c 6627 443d 93ff 603d
00000100: 638a c73d bcea 5b3d 7d9b 033b 083c 9fbd
00000110: d67f fdbc 7025 423d 2800 843d 9476 d53d
00000120: 6606 bbbd 284a b73d 5509 e2bd c250 bbbc
00000130: 53d9 91bc da62 a43d 2929 3a3d 21c2 f43d
00000140: f693 e83d 3d54 b23d 43c8 2e3d 85c9 68bd
00000150: b019 083d 2222 56bd a70a e03d bfd0 583d
00000160: 954c 50bd d776 d2bc 4b00 de3d e295 dcbc
00000170: ef50 cabd 6580 0a3c 9f77 073c 7ccb 993d
00000180: e79c 3c3d 32eb 383d bfce d7bd 8141 503d
00000190: 7ec3 2dbd 63d5 45bd b43f d1bd 1185 c63d
000001a0: 144d d3bd d139 cfbb 2108 ed3c bafa 22bc
000001b0: 8137 f53d 7baa a4bd b332 afbd 57ad 93bd
000001c0: c1e9 14bd c550 6cbd e903 42bc 16fb eb3c
000001d0: 6009 87bd ae26 a23d b229 883c fcd2 f53c
000001e0: c8b7 a3bd 9c1f 7c3d 0cb4 513d fc4e 173d
000001f0: d69a cbbd 120b 9f3d dadf b0bc 6f56 c83d
00000200: 33ed c2bd 7eb8 083d 3cca 673c 6933 853d
00000210: 6e94 f53d ecb1 97bd a084 d93d 0def 53bd
00000220: 05ef e23d 6295 b9bd 8a26 a23c 064b f23d
00000230: 311a 913d caf4 1dbd 0912 d23d d1e5 aebb
00000240: 1503 e23d f6f3 23bc 85c9 853d 70ef ddbd
00000250: 8e48 3fbd 166c cd3c 8b70 6ebd f9ca d9bd
00000260: d8c0 8c3b 30ae 0dbd 3427 39bc 5017 3fbd
00000270: e014 f23d a132 1a3b a158 b0bd ee40 60bd
00000280: ee2e ca3d 1d62 c7bd 24e2 13bd 02ed 733d
00000290: 5e78 c1bd 73fe 173d bc48 2c3c 23de f83d
000002a0: 404b afbd a626 39bd fce8 a53d 2f63 c8bb
000002b0: 57bd 913c 7cc2 ecbc 64b5 6d3d 08bc be3d
000002c0: f90f b6bc 9640 783d d1fc af3d 9c4e 29bd
000002d0: 0543 23bd bbf0 2cbd 6f21 dbbc e981 b23d
000002e0: 32f7 bb3d 663a bb3b b073 95bd b6d7 1f3d
000002f0: 9992 eb3d 35aa c1bd 21cf 9b3d 649b 383d
00000300: 1353 b0bd c9f2 f73d d727 b7bd b3d0 ad3d
00000310: 8723 f63d d034 7dbd bc8a 9fbd bb4a 07bc
00000320: 4def 9abd 8438 953d 602d d83d ab46 e43d
00000330: cb75 f53a 06c6 32bd 98ec ae3d cb61 8a3c
00000340: 2817 ec3c 4adb 9bbd 76bb 5e3d c9e6 ba3d
00000350: 537d f23d 5e5d 983d 8617 b7bd 5f37 39bd
00000360: 4e7b b6bd 41dd 203d 6ab8 f93d cbda ad3d
00000370: be42 a8bd c9f5 87bd 3d29 ec3d a050 e73d
00000380: 8667 ae3d 92a0 833d b8ea a33d 0c36 e73c
00000390: 306c e2bd 6d93 6dbd 4bdd ac3d 9283 803d
000003a0: 3603 d2bd 89ee 933d 34ef d0bd 83a5 b43d
000003b0: 0ad8 b2bd 90fa c5bc 63a7 753d 0148 a53c
000003c0: 6979 5a3b 105b 91bd c6f8 63bd 6ec8 28bd
000003d0: 4943 c43d 9b38 7ebc 4235 ac3d d8b0 debd
000003e0: 3255 893d b606 c03c 939e d4bc 6c62 83bc
000003f0: 02cf 85bd dcca b7bd d4a9 893d e48e adbd

bias f4 [6]
0.045651767 -0.019432418 -0.019862678 0.03442943 -0.057679556 0.023348669
00000000: 59fd 3a3d bc30 9fbc 0eb7 a2bc e005 0d3d
00000010: 6641 6cbd b545 bf3c

weight f4 [16, 6, 5, 5]
0.061888985 0.037792273 0.08216165 0.034667406 -0.0685804 0.07320536 0.04497453 0.08182749
-0.060398065 0.0073056347 0.05241774 -0.010288263 0.035225265 0.008271137 -0.07769782 -0.05307081
0.061354022 0.0023116814 -0.015299752 -0.007725177 0.0024054362 0.061112884 -0.015194847 0.038566973
-0.022287568 -0.08396308 -0.05372363 -0.07283544 -0.022704385 0.020223944 0.0029608589 0.075575896
0.02652681 0.07215859 0.0758082 0.07857494 -0.0048448485 0.039994515 0.018883444 -0.020155294
-0.0070981984 -0.041921437 -0.06194904 0.06727815 -0.018972814 0.011175441 -0.063141875 -0.03218294
-0.05221976 -0.041553386 0.07030593 -0.02285471 -0.019908275 -0.032438725 -0.019296205 -0.018967522
0.04200466 0.08053825 0.018269747 0.029983614 0.0055592675 0.0075895716 0.030450722 0.04933618
-0.018575955 -0.027299384 -0.05763782 0.07659763 -0.0715699 0.05866319 0.030005358 -0.061491992
-0.019953284 0.054050952 -0.008993612 -0.027088417 -0.036569953 -0.040635817 0.05020208 0.074756764
-0.027665265 -0.045875695 0.02375097 -0.05521175 0.06651811 0.023091223 -0.053712912 0.013136993
0.04860963 0.06930811 0.052760947 0.07316587 -0.030513112 -0.006554857 -0.0193944 0.061777182
-0.009535424 0.052446544 -0.018474162 0.03282686 -0.0006689344 -0.006630189 0.06690472 0.015478072
0.0023680686 -0.039989162 -0.049845487 0.051676583 0.035994615 0.027037954 0.07833272 0.030088136
0.049694255 0.050013967 0.040340014 0.05572478 0.0061931936 0.0036410727 0.026033798 -0.023062391
0.038024683 -0.07899762 -0.05080594 0.021948019 -0.07656603 -0.04940119 -0.0042363824 -0.013848028
-0.068595216 0.07947061 0.07460338 -0.015665378 0.07914811 0.031388298 -0.076779924 -0.05240052
0.031637058 0.024178527 0.044816665 -0.050198328 -0.06736476 0.078128375 -0.014870139 -0.011809667
-0.06741912 0.053200938 -0.059940625 0.05755299 -0.035830457 0.053293146 0.0786506 0.05190273
-0.0293012 -0.076843426 -0.019057356 -0.0009854276 0.0025999036 0.08427225 -0.022229766 0.06836475
-0.02892706 -0.025896821 -0.053301107 0.028740818 -0.047496058 0.052780543 0.001902797 -0.030285962
0.03220248 -0.031824205 0.0701379 -0.05624671 -0.014742247 0.07546796 0.031306185 0.0030945356
0.018637965 0.011813098 -0.076248795 -0.07296825 0.07934189 0.021924132 0.060426444 -0.00064792176
0.02394824 -0.08073123 -0.020209232 -0.07914024 0.054198466 -0.020701917 -0.028256668 0.05724335
-0.05342665 -0.018402483 0.008194479 0.079277486 -0.064377464 0.06630114 -0.017312713 -0.00946918
-0.0113473 -0.02197181 -0.021144299 -0.00615397 0.001307277 -0.007844152 -0.07612689 -0.007083411
-0.054534167 0.0680068 0.013551281 -0.008587934 -0.035872485 0.058367856 0.026008928 0.049110807
-0.0771311 0.035553847 -0.069147825 -0.05307303 -0.022935122 0.040361628 0.044838276 -0.015142891
0.019541742 -0.029086616 -0.034521475 -0.02242174 -0.041598845 -0.043248244 0.037144907 0.07356574
0.0052569928 0.059385646 -0.039622128 -0.025175268 0.010287242 -0.07528026 -0.05219712 -0.021743607
0.002259724 -0.04301122 0.03377097 -0.058327187 0.08104935 0.006054229 0.01124979 -0.07628022
0.005574823 -0.010898466 0.08042245 -0.021984141 0.03502037 -0.06509667 0.060541615 -0.06419864
00000000: 4e7f 7d3d 12cc 1a3d 5e44 a83d 69ff 0d3d
00000010: e173 8cbd b1ec 953d 3637 383d 2c95 a73d
00000020: f663 77bd 1b64 ef3b fcb3 563d 1a90 28bc
00000030: 5e48 103d aa83 073c 0920 9fbd c760 59bd
00000040: 5b4e 7b3d 947f 173b d0ab 7abc 7b23 fdbb
00000050: 86a4 1d3b 8151 7a3d cff3 78bc 67f8 1d3d
00000060: 6b94 b6bc d6f4 abbd 4f0d 5cbd bf2a 95bd
00000070: 8cfe b9bc afac a53c f80a 423b 89c7 9a3d
00000080: c14e d93c e2c7 933d 5441 9b3d e6eb a03d
00000090: 89c1 9ebb 4ad1 233d 74b1 9a3c b71c a5bc
000000a0: 0198 e8bb d0b5 2bbd 47be 7dbd 20c9 893d
000000b0: e06c 9bbc 3219 373c 8750 81bd 42d2 03bd
000000c0: 63e4 55bd e233 2abd 8efc 8f3d cd39 bbbc
000000d0: ae16 a3bc 78de 04bd 1313 9ebc c761 9bbc
000000e0: 140d 2c3d 3df1 a43d 70aa 953c 32a0 f53c
000000f0: 842a b63b f1b1 f83b cb73 f93c bc14 4a3d
00000100: 9a2c 98bc f5a2 dfbc a215 6cbd 38df 9c3d
00000110: 3d93 92bd d048 703d cccd f53c 07df 7bbd
00000120: 1275 a3bc 8864 5d3d f159 13bc 87e8 ddbc
00000130: 60ca 15bd be71 26bd b2a0 4d3d 131a 993d
00000140: 44a2 e2bc 27e8 3bbd 6591 c23c b725 62bd
00000150: a63a 883d ce29 bd3c 1202 5cbd 8b3c 573c
00000160: e41a 473d 69f1 8d3d dd1b 583d fdd7 953d
00000170: a2f6 f9bc 20ca d6bb 01e1 9ebc 120a 7d3d
00000180: 783a 1cbc 30d2 563d 2057 97bc 7575 063d
00000190: 6d5b 2fba 0e42 d9bb 5805 893d bd97 7d3c
000001a0: 9931 1b3b adcb 23bd c82a 4cbd d3aa 533d
000001b0: 176f 133d b37e dd3c e86c a03d 657b f63c
000001c0: 348c 4b3d 72db 4c3d 923b 253d ab3f 643d
000001d0: 46f0 ca3b 109f 6e3b d544 d53c 57ed bcbc
000001e0: c5bf 1b3d 81c9 a1bd e419 50bd 55cc b33c
000001f0: a7ce 9cbd e758 4abd 5ad1 8abb d7e2 62bc
00000200: a67b 8cbd 7dc1 a23d a8c9 983d ae54 80bc
00000210: 6718 a23d 0491 003d cb3e 9dbd eda1 56bd
00000220: dc95 013d 0c12 c63c ae91 373d c39c 4dbd
00000230: 89f6 89bd c501 a03d e2a1 73bc 557d 41bc
00000240: 0913 8abd 3ae9 593d 4d84 75bd afbc 6b3d
00000250: f5c2 12bd ea49 5a3d 9113 a13d f597 543d
00000260: 1209 f0bc 1660 9dbd 2c1e 9cbc 7729 81ba
00000270: 2563 2a3b ee96 ac3d 331b b6bc d102 8c3d
00000280: 71f8 ecbc 9225 d4bc 4352 5abd dd71 eb3c
00000290: 3a8b 42bd 6930 583d 4667 f93a 441a f8bc
000002a0: bfe6 033d 195a 02bd 76a4 8f3d f362 66bd
000002b0: 7789 71bc f28e 9a3d ea3a 003d b1cd 4a3b
000002c0: a5ae 983c b98b 413c 5428 9cbd 6170 95bd
000002d0: 007e a23d 3d9a b33c b881 773d 4bd9 29ba
000002e0: 192f c43c 6a56 a5bd d58d a5bc 4714 a2bd
000002f0: 36ff 5d3d 1197 a9bc 877a e7bc 0178 6a3d
00000300: e7d5 5abd cec0 96bc 2342 063c 3c5c a23d
00000310: 55d8 83bd e4c8 873d 64d3 8dbc 9f24 1bbc
00000320: 07ea 39bc 3afe b3bc cf36 adbc 3ea7 c9bb
00000330: f058 ab3a c284 00bc 6ae8 9bbd f51b e8bb
00000340: 385f 5fbd 2647 8b3d 3106 5e3c 68b4 0cbc
00000350: 07ef 12bd 2213 6f3d ad10 d53c 6a28 493d
00000360: e9f6 9dbd e9a0 113d 609d 8dbd 1b63 59bd
00000370: 70e2 bbbc 3c52 253d 57a8 373d e319 78bc
00000380: 0116 a03c 0e47 eebc 6466 0dbd ccad b7bc
00000390: 8d63 2abd 1225 31bd 4225 183d a2a9 963d
000003a0: da42 ac3b 5d3e 733d d04a 22bd 5d3c cebc
000003b0: d28b 283c 892c 9abd a6cc 55bd a61f b2bc
000003c0: e117 143b 882c 30bd 6e53 0a3d 7de8 6ebd
000003d0: 34fd a53d 8e62 c63b 0a51 383c ce38 9cbd
000003e0: 01ad b63b 7b8f 32bc 87b4 a43d 1618 b4bc
000003f0: 8571 0f3d 6751 85bd 7cfa 773d 947a 83bd

bias f4 [16]
0.0007856536 0.06314961 0.04342465 -0.05977662 0.06233434 0.053442646 0.07322024 -0.03819158
0.019905787 -0.03781256 0.00507501 -0.020920878 -0.074555494 0.01542035 -6.8868205e-05 0.007133465
00000000: 52f4 4d3a 9554 813d 0cde 313d 54d8 74bd
00000010: 4b52 7f3d ade6 5a3d 7ef4 953d c66e 1cbd
00000020: 7611 a33c 58e1 1abd 454c a63b 4362 abbc
00000030: 8db0 98bd a3a5 7c3c 566d 90b8 d7bf e93b

weight f4 [8, 16, 5, 5]
0.047798004 -0.02757864 -0.044538848 0.021508036 -0.02207879 -0.011288186 0.034007948 0.03486416
-0.045770243 0.002998885 -0.043040916 0.01177848 -0.0137266675 -0.01908032 0.039863974 0.0021928926
0.027414495 -0.0266997 -0.028435629 0.036074925 0.02825139 0.035174903 -0.0062699057 -0.027517602
-0.036109865 0.030492589 0.017146867 -0.04896413 -0.03765228 0.008103188 0.038610507 -0.022980643
-0.007521093 0.042237423 -0.0033405493 0.010877578 0.012804486 0.014011499 -0.028015338 -0.04045028
0.0117356535 0.026131941 -0.036735985 -0.044137616 0.020968055 -0.029875979 0.021753319 -0.009036635
0.014506723 0.024061203 0.046290673 0.009999455 -0.028586475 -0.013538407 0.042919938 -0.024207847
0.0013900346 -0.010456204 -0.024703639 -0.03945305 0.0009102193 0.0035825672 -0.046704765 -0.046666913
-0.006801631 0.03821601 0.016708117 -0.031397294 0.0087016225 0.038078785 0.01745028 0.027725508
-0.0054578916 -0.030052634 0.037835233 0.04453193 0.010146787 -0.0063677374 0.027782364 -0.0016474443
0.00883302 0.030108903 0.004654253 0.039697886 -0.027594207 -0.019123865 -0.0076113753 0.02269096
0.049855847 0.023847036 -0.024387956 -0.016465845 -0.04985791 0.014064931 -0.042415384 -0.011284547
-0.037085097 0.030468747 -0.046251033 0.021045994 -0.04018023 0.0001237004 0.045362104 0.044468235
-0.032780576 -0.036869064 -0.03630178 0.0044799424 0.04438727 0.03434916 -0.04820589 0.045137525
0.022871422 0.037036892 0.022705782 0.0121732 0.042312443 0.012532506 0.003552291 -0.010741513
0.015995424 -0.023405125 -0.03724907 0.01743106 -0.04449616 0.0025059362 -0.04808579 -0.03957404
0.015562054 0.040775083 0.02945168 0.02243985 -0.027743533 -0.011536084 0.025014812 0.014836376
0.0115203615 0.043804687 0.045919016 0.051645596 -0.030637646 0.039664242 -0.02853188 0.016928721
0.043613322 -0.0027114355 0.0049021775 -0.047848005 -0.03332451 0.002515897 0.048068278 -0.017808318
0.021950088 -0.008573315 0.033479296 -0.022258712 0.026949333 0.018498432 0.026970787 -0.041436244
0.044737644 -0.010433008 0.013172365 0.04764202 -0.017231874 0.017063515 0.020016229 0.022892725
-0.007440995 -0.041836847 -0.0081766145 0.0070674517 0.022174727 0.050210696 0.013158633 -0.019441346
-0.023568984 0.018765602 -0.04844394 0.044403907 0.03722162 -0.024500294 0.009687914 0.0022285557
-0.04137245 0.049848758 0.046641126 -0.02422142 -0.009712878 -0.038596813 0.012707156 -0.046331715
-0.024265971 -0.044766083 0.0308565 0.010589977 -0.0018905088 0.043802008 -0.047571443 -0.017270522
0.035016045 0.005634653 0.042628195 -0.034235258 0.0028841908 0.029855406 -0.0040500206 -0.03149609
-0.023346562 -0.02696946 -0.004661233 -0.00011046906 -0.0063311486 0.049038503 0.02802968 -0.02333128
0.008238805 0.0030311148 0.035253033 0.015758222 -0.016584907 -0.0243994 0.03137144 -0.018228251
0.036974918 -0.028431315 -0.004658827 0.04115877 -0.04021663 0.03439529 0.0020680376 -0.040465653
0.023106458 -0.0048265164 -0.023622427 0.016316924 0.027345698 0.029303046 0.05164717 0.015187484
0.031140044 0.02063782 -0.020013127 -0.013244348 -0.0029375525 -0.01938647 0.038534746 0.045418784
0.02891291 0.022014782 -0.025814692 -0.0070010433 -0.031586602 -0.031698827 0.024199963 -0.015970325
00000000: d7c7 433d 9aec e1bc 5e6e 36bd 9f31 b03c
00000010: 94de b4bc 15f2 38bc eb4b 0b3d b9cd 0e3d
00000020: 9479 3bbd f188 443b ac4b 30bd 87fa 403c
00000030: d1e5 60bc 554e 9cbc 6848 233d a2b6 0f3b
00000040: 5d94 e03c 54b9 dabc d6f1 e8bc 4dc3 133d
00000050: 766f e73c 8f13 103d c873 cdbb 986c e1bc
00000060: f0e7 13bd 98cb f93c 9677 8c3c 9d8e 48bd
00000070: 4739 1abd 3cc3 043c 0d26 1e3d e741 bcbc
00000080: 8073 f6bb 2601 2d3d 1eed 5abb de37 323c
00000090: e8c9 513c 7c90 653c 6c80 e5bc 31af 25bd
000000a0: e646 403c a712 d63c 7978 16bd a5c9 34bd
000000b0: 33c5 ab3c 78be f4bc 0434 b23c 650e 14bc
000000c0: 9bad 6d3c 001c c53c 4a9b 3d3d c1d4 233c
000000d0: 2f2e eabc 32d0 5dbc d1cc 2f3d 894f c6bc
000000e0: d231 b63a 8050 2bbc 495f cabc 8599 21bd
000000f0: c99b 6e3a 81c9 6a3b 7f4d 3fbd ce25 3fbd
00000100: 37e0 debb 6488 1c3d 76df 883c 739a 00bd
00000110: 4091 0e3c 80f8 1b3d e4f3 8e3c 9b20 e33c
00000120: 1dd8 b2bb f130 f6bc 1ef9 1a3d 1d67 363d
00000130: b63e 263c 74a8 d0bb d797 e33c 0fef d7ba
00000140: 5fb8 103c f2a6 f63c b482 983b 409a 223d
00000150: 3f0d e2bc a7a9 9cbc d868 f9bb 64e2 b93c
00000160: a535 4c3d dc5a c33c 40c9 c7bc 61e3 86bc
00000170: cf37 4cbd 9970 663c c1bb 2dbd d2e2 38bc
00000180: 8be6 17bd 9899 f93c b971 3dbd a668 ac3c
00000190: 0694 24bd 93b5 0139 9dcd 393d 5324 363d
000001a0: ed44 06bd 0404 17bd 2db1 14bd 7bcc 923b
000001b0: 6dcf 353d b4b1 0c3d 8a73 45bd 20e2 383d
000001c0: d95c bb3c ffb3 173d 7a01 ba3c 1a72 473c
000001d0: d04f 2d3d 2455 4d3c 8ecd 683b 2cfd 2fbc
000001e0: d608 833c 1bbc bfbc 7b92 18bd 95cb 8e3c
000001f0: 9b41 36bd a23a 243b 9bf5 44bd 6318 22bd
00000200: fcf7 7e3c c603 273d a644 f13c c7d3 b73c
00000210: 6846 e3bc d801 3dbc ddeb cc3c 4514 733c
00000220: e6bf 3c3c 8b6c 333d 9415 3c3d 558a 533d
00000230: cdfb fabc f976 223d b0bb e9bc 1aae 8a3c
00000240: e2a3 323d 57b2 31bb 72a2 a03b 45fc 43bd
00000250: 487f 08bd bfe1 243b 3ee3 443d c0e2 91bc
00000260: acd0 b33c 1777 0cbc 9621 093d e757 b6bc
00000270: d9c4 dc3c 068a 973c d7f1 dc3c 0db9 29bd
00000280: d23e 373d 35ef 2abc e7d0 573c 4724 433d
00000290: dc29 8dbc c9c8 8b3c 13f9 a33c 8689 bb3c
000002a0: 97d3 f3bb 1d5d 2bbd 35f7 05bc 1596 e73b
000002b0: c6a7 b53c bba9 4d3d 4f97 573c 7543 9fbc
000002c0: be13 c1bc 52ba 993c 276d 46bd dfe0 353d
000002d0: b375 183d d7b4 c8bc 0eba 1e3c f60c 123b
000002e0: 2876 29bd 362e 4c3d c40a 3f3d 006c c6bc
000002f0: c322 1fbc b117 1ebd ad31 503c 53c6 3dbd
00000300: 6ec9 c6bc a45c 37bd c5c6 fc3c 9581 2d3c
00000310: f3ca f7ba bc69 333d 46da 42bd e97a 8dbc
00000320: fc6c 0f3d e5a2 b83b e79a 2e3d 453a 0cbd
00000330: b104 3d3b 5393 f43c 09b6 84bb 0b02 01bd
00000340: 4a41 bfbc 0fef dcbc 42bd 98bb a0ab e7b8
00000350: 8675 cfbb 99dc 483d 809e e53c 3e21 bfbc
00000360: 0efc 063c aba5 463b 7c65 103d 6317 813c
00000370: 12dd 87bc 40e1 c7bc 577f 003d 6a53 95bc
00000380: 0373 173d cae8 e8bc 13a9 98bb 1996 283d
00000390: 31ba 24bd 13e2 0c3d ea87 073b 50bf 25bd
000003a0: c149 bd3c c127 9ebb d283 c1bc 12ab 853c
000003b0: 1604 e03c f10c f03c fc8b 533d edd4 783c
000003c0: 6819 ff3c a510 a93c 92f2 a3bc d2fe 58bc
000003d0: f483 40bb 60d0 9ebc 9cd6 1d3d 0c09 3a3d
000003e0: c4da ec3c 5858 b43c 5579 d3bc 0269 e5bb
000003f0: f460 01bd a1d6 01bd 003f c63c 33d4 82bc

bias f4 [8]
-0.014076966 0.00021683797 0.0074492777 0.004158728 0.043295864 0.010349825 0.04848162 0.038147304
00000000: 13a3 66bc 005f 6339 1219 f43b f045 883b
00000010: 0157 313d 5092 293c aa94 463d 5940 1c3d

weight f4 [256, 648]
-0.03388799 0.03496963 0.038469255 -0.030727495 0.040624946 -0.03207155 -0.032034297 0.00939563
0.012956923 -0.035145614 0.03674253 0.021462746 0.0052884095 0.034411866 -0.01628443 -0.029143851
0.016025722 -0.035174124 -0.036306735 -0.011439612 0.013412473 -0.020902742 0.012921943 -0.0141740795
0.033619598 -0.0148858465 0.013663462 0.02286991 -0.029018905 0.016392328 -0.029975059 0.02026528
-0.018321374 -0.0053943805 -0.029170293 0.0026819294 0.031241363 -0.015997242 0.01186525 0.034718696
-0.030165456 0.020431168 -0.013249628 -0.015001826 0.002633779 -0.008575596 0.021863313 -0.019131826
0.011220644 -0.006224185 0.00438769 -0.03362889 0.012870758 -0.0076412396 -0.03719565 0.0077656177
0.022562489 -0.020411478 0.006102334 0.01700475 0.02317005 -0.032377798 -0.022640051 0.021937158
0.011547224 -0.030101147 0.015619887 0.037360534 -0.033460464 -0.006855718 0.040273275 -0.037797727
0.0013496793 0.031334702 0.028383855 0.024393648 0.0343583 0.018009337 -0.022572575 0.038453307
0.025100501 -0.035875384 -0.014031911 -0.0039276965 0.02722935 -0.007238336 0.034683965 -0.02803112
-0.016958123 0.03253016 -0.01128418 0.026748028 -0.008478154 -0.0046828054 0.023281647 0.034420785
-0.021623932 0.030557724 -0.032548632 -0.008499641 0.03954024 -0.016587442 0.022759845 -0.034844585
0.0067873104 0.036760945 0.0349368 0.010142733 0.014538039 -0.035656307 0.0026583602 0.014842258
-0.003975133 -0.033010848 -0.021654787 -0.013300146 -0.016631493 0.027969321 -0.008089539 -0.0015479103
-0.04012891 -0.015600884 -0.013925609 0.004381559 0.015303434 0.012729749 0.034699712 -0.0370068
0.00024716512 0.012896369 -0.03448365 0.028676957 -0.013344397 0.00051581644 -0.02525656 0.020586673
0.03302755 0.037488792 0.028877469 -0.034573846 -0.016432308 -0.0027769003 0.032265227 -0.0066341357
-0.018091481 -0.013747886 0.036530357 0.015755795 -0.012269183 0.037883725 0.02408553 0.0013810154
-0.024427528 0.023968896 -0.022819359 -0.036108464 -0.004834959 -0.008139802 0.0039590974 0.018176189
-0.007994558 -0.006461845 0.0012225138 -0.031921957 -0.013031081 0.0075488947 -0.0025394997 0.0071804016
-0.022600386 -0.025397286 0.032128427 0.034370717 0.023229767 0.01156194 -0.033786993 0.011763845
-0.021017186 0.0029896384 -0.03738483 -0.013440311 0.019868027 0.034821685 0.031671017 0.01115991
-0.025119748 -0.035102725 0.004811842 -0.022883836 0.017706465 -0.02262091 -0.018981721 -0.0029188
-0.033089716 0.024372721 -0.023129398 0.010600806 0.019644506 0.019566882 -0.033295337 0.034530006
0.009926785 0.0047724694 0.0074388157 -0.0090797385 -0.0055695614 0.009337186 -0.012593895 -0.012541404
-0.0052862084 -0.0064737457 0.011674428 0.014670831 0.009912867 0.017555652 0.023978492 -0.028203156
0.0030297341 0.034386907 0.03595493 0.0042016306 -0.033001453 0.032355476 -0.024411602 0.022376545
-0.034483362 0.004574516 0.02170231 0.034253657 -0.011445297 -0.0058131614 -0.024416309 0.036700502
0.030760132 0.020827554 0.021546321 -0.008005508 -0.019620344 -0.01661986 -0.023909077 0.030593585
0.031229174 0.023741346 0.038687475 0.004205529 0.02232915 -0.0206253 0.032049116 0.032181744
-0.013903683 -0.035047796 -0.030367168 0.0014985016 -0.008223308 0.0020441376 0.032592632 0.0062891985
00000000: 22ce 0abd 513c 0f3d f091 1d3d 3ab8 fbbc
00000010: 5866 263d 755d 03bd 6536 03bd 21f0 193c
00000020: 4649 543c d9f4 0fbd 567f 163d a4d2 af3c
00000030: 654a ad3b 75f3 0c3d ed66 85bc 16bf eebc
00000040: 6048 833c be12 10bd 5fb6 14bd 366d 3bbc
00000050: fdbf 5b3c 3a3c abbc 8fb6 533c 663a 68bc
00000060: b4b4 093d c4e3 73bc b7dc 5f3c ad59 bb3c
00000070: 0eb9 edbc 3449 863c 418e f5bc 5f03 a63c
00000080: b516 96bc 58c3 b0bb 8af6 eebc 4fc3 2f3b
00000090: e3ed ff3c a60c 83bc 7766 423c 3135 0e3d
000000a0: 8c1d f7bc 445f a73c f814 59bc 38ca 75bc
000000b0: 7b9b 2c3b a880 0cbc b11a b33c 59ba 9cbc
000000c0: cbd6 373c 40f4 cbbb 9dc6 8f3b 72be 09bd
000000d0: dfdf 523c 5d63 fabb 775a 18bd b976 fe3b
000000e0: f8d4 b83c f935 a7bc 16f6 c73b 8c4d 8b3c
000000f0: 1ecf bd3c 959e 04bd a177 b9bc 8eb5 b33c
00000100: 9130 3d3c ae96 f6bc 8eea 7f3c 5c07 193d
00000110: d70d 09bd eea5 e0bb 97f5 243d cad1 1abd
00000120: b9e7 b03a d158 003d 4285 e83c 30d5 c73c
00000130: 4abb 0c3d 5188 933c 1fea b8bc 3781 1d3d
00000140: 919f cd3c 11f2 12bd 1ae6 65bc e8b3 80bb
00000150: 1610 df3c 902f edbb c610 0e3d 85a1 e5bc
00000160: c3eb 8abc 583e 053d 48e1 38bc ae1e db3c
00000170: f5e7 0abc 3872 99bb 27b9 be3c cffc 0c3d
00000180: ac24 b1bc 3154 fa3c b751 05bd 1442 0bbc
00000190: f2f4 213d 63e2 87bc db72 ba3c 32b9 0ebd
000001a0: 1668 de3b a592 163d e419 0f3d b52d 263c
000001b0: f530 6e3c 590c 12bd e237 2e3b f12c 733c
000001c0: d541 82bb 6236 07bd 6165 b1bc dbe8 59bc
000001d0: c53e 88bc eb1f e53c fc89 04bc 40e3 caba
000001e0: 365e 24bd da9a 7fbc 3d28 64bc 2e93 8f3b
000001f0: 41bb 7a3c 7090 503c 4921 0e3d 7194 17bd
00000200: f195 8139 4b4b 533c ba3e 0dbd f0eb ea3c
00000210: 75a2 5abc db37 073a d8e6 cebc 62a5 a83c
00000220: e547 073d d98d 193d 7190 ec3c 4e9d 0dbd
00000230: 0c9d 86bc a8fc 35bb 8b28 043d 2a63 d9bb
00000240: 9634 94bc d03e 61bc dba0 153d 4c12 813c
00000250: af04 49bc f72b 1b3d 044f c53c 3003 b53a
00000260: 3d1c c8bc 6b5a c43c aaef babc 78e6 13bd
00000270: 936e 9ebb ce5c 05bc 51bb 813b 3be6 943c
00000280: 9bfb 02bc e2bd d3bb c23c a03a 99c0 02bd
00000290: 5180 55bc b85c f73b bc6d 26bb 9349 eb3b
000002a0: 7224 b9bc f80d d0bc 1999 033d 4fc8 0c3d
000002b0: 5a4c be3c 4b6e 3d3c 3b64 0abd 24bd 403c
000002c0: 3c2c acbc cfed 433b d620 19bd c034 5cbc
000002d0: 46c2 a23c 2fa1 0e3d 78b9 013d 0ed8 363c
000002e0: eec7 cdbc e0c7 0fbd a8ac 9d3b e276 bbbc
000002f0: 260d 913c 7d4f b9bc 8e7f 9bbc 5749 3fbb
00000300: 1589 07bd 4da9 c73c dd79 bdbc 01af 2d3c
00000310: 84ed a03c ba4a a03c b160 08bd 566f 0d3d
00000320: f4a3 223c 6062 9c3b 4fc1 f33b 2fc3 14bc
00000330: de80 b6bb fffa 183c a056 4ebc 767a 4dbc
00000340: ee37 adbb b721 d4bb 1a46 3f3c ed5d 703c
00000350: 9469 223c dfd0 8f3c 8b6e c43c 4e0a e7bc
00000360: 818e 463b 49d9 0c3d 7a45 133d d5ad 893b
00000370: 882c 07bd 2d87 043d d7fa c7bc 044f b73c
00000380: 6d3e 0dbd d2e5 953b 0bc9 b13c 904d 0c3d
00000390: 0e85 3bbc 557c bebb b604 c8bc 4453 163d
000003a0: acfc fb3c 8c9e aa3c e981 b03c 8929 03bc
000003b0: d8ba a0bc 5f26 88bc f8dc c3bc 669f fa3c
000003c0: 53d4 ff3c 367d c23c c276 1e3d 89ce 893b
000003d0: 9feb b63c 64f6 a8bc ef45 033d 01d1 033d
000003e0: 46cc 63bc 478e 0fbd 91c4 f8bc 5f69 c43a
000003f0: 0ebb 06bc f0f6 053b da7f 053d 9f15 ce3b

bias f4 [256]
-0.028201545 0.01754697 -0.027362563 -0.038440492 -0.013715241 0.017208355 0.018198533 -0.037681643
0.009180801 -0.011690113 -0.03364744 0.012380741 0.004813234 -0.013226635 0.00850604 0.014228213
0.032208275 0.036776286 0.024414718 0.011654858 0.01711316 0.0095792785 0.022388143 -0.011089744
0.0035190464 -0.03242257 -0.009546401 0.026063865 -0.00058682065 0.024418741 0.0119152935 0.03227924
-0.017082928 -0.022974294 -0.012599918 0.0053164493 -0.031772517 -0.037001885 0.0042315926 0.038690194
-0.031216362 0.020765575 -0.027330492 -0.02918046 0.038419522 0.023624161 0.00042026045 0.020958666
0.004574145 -0.0105824405 -0.032561887 0.009502928 0.03050451 -0.033037767 0.022618493 -0.023171997
0.011611405 -0.001317394 0.009794276 -0.03261662 -0.01857586 -0.004797895 -0.008642091 0.016062587
0.0066277664 -0.01213612 -0.036514014 0.03271662 0.013239417 -0.03444051 0.03148309 0.012155358
-0.02686587 -0.03901362 -0.029633211 -0.006351955 -0.011663029 0.016129635 -0.023478191 -0.035136063
0.01670898 -0.037889145 0.008882783 0.024662625 0.022358332 0.0286158 0.01749846 0.030012077
0.027845271 -0.032238908 -0.02163475 -0.010548599 0.023644444 -0.022138113 0.01695931 -0.007717249
-0.013473153 0.024851887 0.0317602 0.0011910441 0.0064159334 0.011509447 -0.023609567 0.0015410569
0.03172701 -0.03835323 -0.004344893 0.02655647 1.3757368e-05 -0.013816907 0.01938872 -0.030838218
0.03269913 0.008974269 -0.028409215 -0.019939817 0.0065813037 -0.03827402 0.015611467 -0.03066059
0.017992323 -0.022046603 0.006343751 0.011128121 -0.032310333 -0.024266344 0.010379508 0.02731681
0.03111159 0.034453966 0.016605826 -0.0011260958 0.016769117 -0.03972903 -0.01887397 0.004787673
-0.035680696 -0.029560994 0.00073028536 -0.011381683 -0.014508352 0.024096819 -0.023320984 0.037339937
-0.0062384754 -0.02290162 0.037196092 -0.020691203 -0.03841103 -0.02115185 0.035501465 -0.014494266
0.024226649 0.005665671 0.02549563 -0.031132732 -0.029967776 0.023245584 0.033579495 0.0376183
-0.01177264 -0.02406153 -0.018479718 -0.0066500823 -0.007070402 -0.033004012 -0.008271043 -0.0018525411
0.023901004 0.022889705 -0.0063062957 0.01555071 -0.033344943 0.0260463 -0.0212632 -0.015282649
0.017112562 0.018965408 -0.037673883 0.012391489 0.006148467 0.025155263 0.0009925552 0.013142367
0.0046441215 -0.02677782 -0.033043314 -0.0053944485 -0.016513519 0.01156486 -0.009821729 0.0034598578
0.033956073 0.029966999 -0.022986064 -0.003041286 -0.023272432 0.010798926 0.0038579071 -0.007937103
0.04107078 -0.03001632 -0.008827087 0.009164887 0.023104725 0.024445277 0.0026768094 -0.033758376
-0.004870187 -0.024855029 0.01194502 0.013433239 -0.0012980284 -0.0013005212 0.0024537833 -0.009923005
-0.02779755 0.017304905 -0.029794604 0.0030003977 0.030574137 -0.013489969 0.022810305 -0.0072059208
0.01059934 0.014995061 -0.033063307 -0.021452934 0.0023852198 -0.034152523 0.0068571256 0.009073408
0.025875902 -0.012420165 0.023608632 0.03430623 -0.008347016 0.011859221 0.0305174 -0.034418765
-0.029144917 -0.016897738 -0.03752765 0.029989533 0.017894415 -0.015802983 -0.030027412 0.02728721
-0.024500662 0.015301813 -0.01827509 0.033267196 0.023077883 -0.0013314346 -0.020726964 0.018207882
00000000: ed06 e7bc aabe 8f3c 7427 e0bc c773 1dbd
00000010: e4b5 60bc 89f8 8c3c 1715 953c 1158 1abd
00000020: 126b 163c e387 3fbc e6d1 09bd 97d8 4a3c
00000030: 55b8 9d3b 87b4 58bc eb5c 0b3c 731d 693c
00000040: d3ec 033d bba2 163d 6001 c83c 04f4 3e3c
00000050: e630 8c3c 68f2 1c3c 5767 b73c c2b1 35bc
00000060: cd9f 663b 87cd 04bd 8268 1cbc e383 d53c
00000070: ded4 19ba d009 c83c 5d38 433c 3d37 043d
00000080: 7ff1 8bbc 9634 bcbc e36f 4ebc 9c35 ae3b
00000090: e623 02bd 4a8f 17bd 2ca9 8a3b 9c79 1e3d
000000a0: 75b9 ffbc 911c aa3c 32e4 dfbc dc0b efbc
000000b0: ca5d 1d3d 7587 c13c 6756 dc39 82b1 ab3c
000000c0: b6e2 953b f961 2dbc 9d5f 05bd 2bb2 1b3c
000000d0: 98e4 f93c 9c52 07bd 6b4a b93c 33d3 bdbc
000000e0: c33d 3e3c 68ac acba 2c78 203c 0199 05bd
000000f0: 672c 98bc a937 9dbb 8f97 0dbc b095 833c
00000100: bc2d d93b 94d6 46bc b88f 15bd dd01 063d
00000110: 24ea 583c 7e11 0dbd 6af4 003d 4427 473c
00000120: d015 dcbc bfcc 1fbd 59c1 f2bc 0f24 d0bb
00000130: 4a16 3fbc 4c22 843c 5655 c0bc d5ea 0fbd
00000140: 45e1 883c a631 1bbd 1889 113c 4609 ca3c
00000150: d228 b73c af6b ea3c ee58 8f3c e3db f53c
00000160: c41b e43c f20c 04bd 5c3b b1bc 08d4 2cbc
00000170: feb1 c13c fd5a b5bc 40ee 8a3c fae0 fcbb
00000180: 80be 5cbc 2f96 cb3c fc16 023d cf1c 9c3a
00000190: c03c d23b 1f92 3c3c da68 c1bc 4afd c93a
000001a0: 2ef4 013d 4718 1dbd 9b5f 8ebb f48c d93c
000001b0: 72cf 6637 4f60 62bc 18d5 9e3c 6ea0 fcbc
000001c0: 86ef 053d d008 133c 71ba e8bc d458 a3bc
000001d0: faa7 d73b 38c5 1cbd 3dc7 7f3c eb2b fbbc
000001e0: a364 933c 149b b4bc 3edf cf3b b952 363c
000001f0: d757 04bd 36ca c6bc d00e 2a3c 81c7 df3c
00000200: bcdd fe3c 9a1f 0d3d f108 883c 8199 93ba
00000210: 635f 893c e8ba 22bd 959d 9abc e9e1 9c3b
00000220: ec25 12bd e629 f2bc 9f70 3f3a 3d7a 3abc
00000230: 70b4 6dbc b166 c53c a60b bfbc c3f1 183d
00000240: 206c ccbb 2e9c bbbc ee5a 183d 9980 a9bc
00000250: e254 1dbd a546 adbc fc69 113d 5c79 6dbc
00000260: f776 c63c 18a7 b93b 36dc d03c 120a ffbc
00000270: fb7e f5bc 866d be3c a78a 093d a615 1a3d
00000280: 08e2 40bc b01c c5bc c762 97bc efe8 d9bb
00000290: d5ae e7bb 372f 07bd 4583 07bc f7d0 f2ba
000002a0: 0acc c33c 3183 bb3c 0ba5 cebb 68c8 7e3c
000002b0: b594 08bd 0d5f d53c 2a30 aebc 1364 7abc
000002c0: a52f 8c3c 585d 9b3c ee4f 1abd ac05 4b3c
000002d0: 1479 c93b 6912 ce3c a018 823a 1553 573c
000002e0: b72d 983b 295d dbbc 6d58 07bd eac3 b0bb
000002f0: 5c47 87bc 8a7a 3d3c 51eb 20bc c8be 623b
00000300: 8615 0b3d 5a7d f53c 454d bcbc 5050 47bb
00000310: d4a5 bebc fbed 303c f1d4 7c3b 9f0a 02bc
00000320: d639 283d c9e4 f5bc 7c9f 10bc 5228 163c
00000330: 1f46 bd3c 7641 c83c 696d 2f3b 3946 0abd
00000340: 1796 9fbb c69c cbbc 0cb5 433c 1717 5c3c
00000350: 9b22 aaba 4076 aaba a7cf 203b 1994 22bc
00000360: b0b7 e3bc 04c3 8d3c d013 f4bc 52a2 443b
00000370: 9d76 fa3c 0805 5dbc addc ba3c a51f ecbb
00000380: dba8 2d3c d8ad 753c 646d 07bd 10be afbc
00000390: 5951 1c3b 84e3 0bbd bdb1 e03b a2a8 143c
000003a0: b3f9 d33c f37d 4bbc e466 c13c b084 0c3d
000003b0: ecc1 08bc 2e4d 423c a0ff f93c b1fa 0cbd
000003c0: 52c1 eebc 206d 8abc 98b6 19bd 9cac f53c
000003d0: 4f97 923c 4275 81bc 0cfc f5bc 6d89 df3c
000003e0: 9db5 c8bc 75b4 7a3c a4b5 95bc 2f43 083d
000003f0: d40d bd3c 8883 aeba 98cb a9bc b228 953c

weight f4 [64, 256]
0.04209712 -0.036848675 -0.04283562 -0.021059416 0.014128089 0.04460313 0.016561415 -0.03428772
0.06077773 -0.022095628 -0.04669079 0.044362303 0.041520692 -0.02005777 0.038178273 -0.057075445
-0.025596347 -0.051538493 0.039863314 0.0623416 0.039484374 0.026772456 0.057739045 -0.061222613
0.025336385 -0.049593523 -0.043837912 -0.03804116 -0.05052041 -0.054068018 -0.029155329 -0.05667664
-0.014948057 0.044276044 -0.019599449 0.054879908 -0.03114013 -0.047648586 0.046723913 -0.0076530357
0.055554405 0.058017887 0.020397037 0.032366388 -0.056859475 -0.05495731 0.03489164 0.061341226
0.05037091 -0.0003461981 0.01986964 0.035887863 -0.037731774 -0.053166248 0.06375026 0.027466387
0.02660238 -0.04505864 -0.019899512 0.05516049 -0.022551738 -0.04176994 0.0065289703 -0.044815272
0.04325905 0.010065253 0.01511393 0.008272847 0.0074136187 0.021139627 0.06476724 0.027321246
0.041881967 0.018209752 -0.058757514 -0.057235025 -0.04190905 0.042831767 -0.024655432 0.007259424
0.053829838 -0.0054511377 -0.027124263 -0.04343179 0.05685272 0.038928483 -0.017086059 0.030814553
-0.017759098 0.055831447 -0.057270117 0.03172787 -0.051291708 -0.03636291 0.046166066 -0.03387133
0.051244423 -0.036596958 0.028884437 0.037716188 -0.057072658 0.010793389 -0.003450762 -0.057085678
-0.01744458 0.024536422 -0.03619163 0.04618251 -0.0475946 0.051716235 -0.014449091 0.02766944
0.04262095 0.012155037 0.0301218 -0.02203298 0.025316115 -0.01145476 0.024430688 0.015851991
0.02534355 -0.013868019 0.0037847569 -0.0151636675 -0.019526115 0.015099861 0.04319859 0.06196364
-0.03276888 0.023312353 0.026529469 0.015593683 -0.04197412 0.060170323 -0.057762474 -0.028373096
-0.054159373 0.030111328 0.0072448375 0.040577177 -0.02590825 0.009728823 -0.057757914 0.0010065973
-0.04428618 -0.009379747 0.0029937269 0.022642963 -0.044734668 0.0030048415 -0.060533356 -0.029492043
0.038010404 -0.012030779 -0.03794381 -0.03647377 -0.007498159 0.0400334 0.006833607 -0.008523225
0.0067750737 0.04325037 0.04178509 -0.033706322 0.05723126 -0.03633958 0.004261671 -0.02420885
-0.007514229 0.019940611 0.038683858 0.015626417 -0.036785435 -0.044029012 0.0040884516 0.048064627
0.021496195 -0.041304834 -0.011398346 0.033854455 -0.04822056 -0.0235 0.03813883 0.018906642
-0.014871879 0.009872381 0.0049856976 -0.0019499741 -0.024492716 0.05129455 -0.019124493 0.058096156
0.050432943 0.009188683 0.042356715 0.060337476 0.056313038 0.012048068 -0.030562343 -0.02690005
0.000490139 -0.036748488 0.014531476 0.0068234354 0.058176458 -0.0037397773 0.045125514 0.05531961
0.047510806 0.054724433 0.019421348 0.0047912267 -0.01069077 -0.008714413 0.017399706 0.005020929
0.051259078 0.033445954 0.04546969 -0.04844822 -0.06134349 -0.053632576 -0.053697523 -0.0037474025
0.039770257 -0.052706398 0.019076953 0.034671538 0.05698453 0.027770083 0.0067024906 0.060066022
-0.025133349 -0.05765806 0.038186505 0.00512911 -0.06112478 -0.015040071 0.04377915 0.064310156
0.05638856 0.046753272 -0.00032087328 -0.003122381 -0.012252936 0.015269491 0.04967145 -0.043260727
0.06360779 -0.06002902 -0.05580305 -0.041407727 -0.06256934 0.047908682 0.039192233 -0.03440921
00000000: 086e 2c3d a3ee 16bd 6774 2fbd cc84 acbc
00000010: 8079 673c c6b1 363d ceab 873c 4871 0cbd
00000020: 12f2 783d e401 b5bc d83e 3fbd 3fb5 353d
00000030: 9a11 2a3d 3150 a4bc d260 1c3d f1c7 69bd
00000040: 6eaf d1bc 071a 53bd b747 233d e859 7f3d
00000050: 5eba 213d e951 db3c c77f 6c3d 90c4 7abd
00000060: 408e cf3c 9422 4bbd 628f 33bd 0cd1 1bbd
00000070: 7dee 4ebd 6d76 5dbd 28d7 eebc c425 68bd
00000080: b2e8 74bc cc5a 353d 068f a0bc c1c9 603d
00000090: 9619 ffbc 2a2b 43bd 9361 3f3d 51c6 fabb
000000a0: 048d 633d 2aa4 6d3d b017 a73c 9e92 043d
000000b0: 7be5 68bd eb1a 61bd 89ea 0e3d f040 7b3d
000000c0: ba51 4e3d ec81 b5b9 a8c5 a23c 27ff 123d
000000d0: a28c 1abd dac4 59bd 7f8f 823d 3001 e13c
000000e0: 3ced d93c 698f 38bd 4d04 a3bc f7ef 613d
000000f0: 6cbe b8bc f516 2bbd f9f0 d53b 3890 37bd
00000100: 6730 313d bbe8 243c 6ba0 773c d68a 073c
00000110: f1ed f23b 032d ad3c b0a4 843d ced0 df3c
00000120: 6d8c 2b3d 9e2c 953c b8ab 70bd 466f 6abd
00000130: d3a8 2bbd 5d70 2f3d 30fa c9bc 76e0 ed3b
00000140: ad7c 5c3d 759f b2bb b433 debc 88e5 31bd
00000150: 66de 683d 7973 1f3d 10f8 8bbc cd6e fc3c
00000160: 877b 91bc 84af 643d 1294 6abd 15f5 013d
00000170: 4117 52bd 46f1 14bd a118 3d3d aabc 0abd
00000180: ace5 513d b1e6 15bd 0e9f ec3c 4a7c 1a3d
00000190: 05c5 69bd c1d6 303c 2e26 62bb acd2 69bd
000001a0: f0e7 8ebc 9b00 c93c ad3d 14bd df29 3d3d
000001b0: 8ef2 42bd 67d4 533d e1bb 6cbc 05ab e23c
000001c0: 4e93 2e3d ec25 473c fec1 f63c 827e b4bc
000001d0: be63 cf3c bfac 3bbc de22 c83c 09dc 813c
000001e0: 479d cf3c b036 63bc af09 783b 0871 78bc
000001f0: 3bf5 9fbc 6865 773c 01f1 303d 96cd 7d3d
00000200: a938 06bd 8cf9 be3c 5454 d93c a67c 7f3c
00000210: 0eed 2bbd 2875 763d 5898 6cbd b26e e8bc
00000220: 38d6 5dbd 08ac f63c 1a66 ed3b 4134 263d
00000230: 8a3d d4bc a465 1f3c 9093 6cbd cdef 833a
00000240: 6d65 35bd 83ad 19bc 6732 443b bc7d b93c
00000250: b33b 37bd e0ec 443b d3f1 77bd 4c99 f1bc
00000260: ccb0 1b3d bf1c 45bc f86a 1bbd 8565 15bd
00000270: 1eb3 f5bb 10fa 233d 73ec df3b ffa4 0bbc
00000280: 7001 de3b 4d27 313d d826 2b3d a40f 0abd
00000290: 536b 6a3d d0d8 14bd 7da5 8b3b a351 c6bc
000002a0: ec39 f6bb 7e5a a33c f772 1e3d f902 803c
000002b0: 53ac 16bd c457 34bd 6bf8 853b 6adf 443d
000002c0: ca18 b03c 422f 29bd 21c0 3abc f8aa 0a3d
000002d0: ec82 45bd 1283 c0bc 7637 1c3d 1ae2 9a3c
000002e0: 2ea9 73bc c4bf 213c 105f a33b 4696 ffba
000002f0: f3a4 c8bc 3c1a 523d f8aa 9cbc 3cf6 6d3d
00000300: c692 4e3d 218c 163c 3c7e 2d3d 6e24 773d
00000310: 80a8 663d 4365 453c e15d fabc 7e5d dcbc
00000320: ac7c 003a 9585 16bd 6e15 6e3c 2097 df3b
00000330: 704a 6e3d 0d17 75bb 88d5 383d d196 623d
00000340: b19a 423d ba26 603d 8519 9f3c b9ff 9c3b
00000350: 5728 2fbc e6c6 0ebc d489 8e3c 9b86 a43b
00000360: 0af5 513d a0fe 083d 6d3e 3a3d a471 46bd
00000370: 5043 7bbd d5ad 5bbd eff1 5bbd fb96 75bb
00000380: 23e6 223d aae2 57bd 4547 9c3c be03 0e3d
00000390: 9c68 693d 167e e33c 91a0 db3b ca07 763d
000003a0: 74e4 cdbc dc2a 6cbd 7469 1c3d 1812 a83b
000003b0: fa5d 7abd a16a 76bc c451 333d 0bb5 833d
000003c0: b1f7 663d 5c80 3f3d e23a a8b9 dca0 4cbb
000003d0: 8ac0 48bc e32c 7a3c 4a74 4b3d 2932 31bd
000003e0: cd44 823d fde0 75bd bd91 64bd 269b 29bd
000003f0: 5b24 80bd e53b 443d 0988 203d acf0 0cbd

bias f4 [64]
0.05489324 0.00042609527 0.039830063 -0.0023724018 -0.030129537 0.0037551324 -0.01338529 -0.0026171631
-0.014636536 -0.053265356 0.04245073 0.017099667 -0.06338791 0.005019089 0.010327588 0.038956102
0.009387368 0.025581347 -0.014324105 -0.020199945 0.015309052 0.005113459 -0.008771819 -0.033516467
-0.052369684 -0.012293233 0.0126747545 -0.042600814 -0.02014816 0.058045793 0.040234562 0.0014385792
-0.0030433915 0.028470248 0.002633075 0.0023518286 0.0071678176 -0.031242017 0.054594137 0.041415837
0.061218463 -0.0020999624 -0.043376327 0.027959256 0.043622546 -0.060643867 -0.054670043 0.03765372
-0.057012666 -0.0054387623 -0.00070446386 -0.048206966 0.0004211009 0.029785393 0.045914568 -0.046991665
-0.004889783 0.006301716 0.023699267 0.019371968 -0.034994088 0.03625623 -0.03679167 0.036405955
00000000: bcd7 603d 8a65 df39 d924 233d 4c7a 1bbb
00000010: 38d2 f6bc ab18 763b fa4d 5bbc b684 2bbb
00000020: 15ce 6fbc c62c 5abd d1e0 2d3d 9a14 8c3c
00000030: 85d1 81bd 2c77 a43b 0b35 293c 6f90 1f3d
00000040: 7acd 193c f98f d13c a7af 6abc 5b7a a5bc
00000050: d1d2 7a3c ce8e a73b adb7 0fbc 9048 09bd
00000060: 9881 56bd 8e69 49bc c6a9 4f3c 317e 2ebd
00000070: c10d a5bc 6dc1 6d3d ffcc 243d b58e bc3a
00000080: a373 47bb 703a e93c ab8f 2c3b 2321 1a3b
00000090: 03e0 ea3b 42ef ffbc 1a9e 5f3d a7a3 293d
000000a0: 36c0 7a3d 869f 09bb 60ab 31bd cf0a e53c
000000b0: 8ead 323d b465 78bd b2ed 5fbd c93a 1a3d
000000c0: 1d86 69bd a537 b2bb c5ab 38ba ab74 45bd
000000d0: 35c7 dc39 7f00 f43c ea10 3c3d 557a 40bd
000000e0: 793a a0bb a07e ce3b f724 c23c f6b1 9e3c
000000f0: f655 0fbd 6a81 143d ddb2 16bd 691e 153d

weight f4 [16, 64]
-0.11874392 0.07430825 -0.0016953698 -0.08285032 -0.088503584 -0.055546775 -0.120924205 0.06122332
-0.025152477 0.020934373 0.1095924 -0.018059878 -0.057094425 0.04123031 0.07331936 -0.08781141
-0.09140016 0.10903961 -0.024193384 0.049073994 0.06709933 0.059176717 -0.017812757 -0.006182322
-0.11014128 0.06340544 -0.075842366 0.09075429 0.12016173 -0.013608232 0.049200058 0.028488629
0.00047786793 0.068841584 -0.0088887615 -0.114781514 0.087734014 0.039251667 -0.09020621 0.09018609
0.06603185 0.06691254 -0.11265318 -0.04989426 -0.032673277 -0.031109944 0.062228993 0.120703414
-0.069503464 0.020614222 0.0888398 0.09958408 0.05007411 0.05905803 -0.038809214 0.006473601
-0.07336293 -0.10594983 0.07694879 0.08080077 0.012884439 -0.021734156 0.118392676 -0.06943742
0.1103427 0.06785701 -0.05633482 0.084931895 -0.009496599 -0.0043143034 -0.021065986 0.002527284
0.050094165 0.1236999 -0.008420846 0.082648136 0.11788209 -0.070718855 0.09492834 0.11570015
-0.04547805 -0.036952518 -0.011315548 -0.058203813 0.048602607 -0.05646157 0.042660143 -0.10857697
-0.006568983 -0.07181014 -0.08374195 0.0528464 -0.11893727 0.03366948 -0.009054942 0.110851735
-0.07433082 -0.10674574 -0.05436956 0.04353859 0.10057737 0.0035031738 0.052373193 -0.01123821
-0.043766845 0.046366192 0.10159019 -0.027447328 -0.015397601 -0.0405447 0.089466825 0.057705775
0.07446298 0.08754313 -0.010448872 -0.11397706 0.09866831 -0.09580109 0.10144371 -0.048650622
0.115955085 -0.069434576 0.037205383 0.11796486 0.017854884 -0.11108525 0.016694846 0.10794744
0.093092434 0.10961643 0.014694639 0.016750604 -0.0035476387 -0.09765497 0.037073296 -0.04531174
-0.066803485 0.0400443 -0.084560804 -0.039631907 -0.11800704 0.11954945 0.034888 0.07311025
0.12857561 0.11746453 0.009768874 0.016598703 0.056667287 0.11750782 -0.048778366 0.05541262
0.0055673867 -0.014105589 0.041873824 -0.071246214 -0.0066185705 -0.05250892 0.037636854 0.00837215
-0.1119872 -0.0051332014 -0.11637268 -0.03472445 0.07822453 -0.005214677 -0.08633354 -0.106562406
0.03323713 -0.036954712 0.06670064 -0.08771246 -0.0062305727 -0.10055927 -0.0007670969 -0.011087442
0.120843075 0.064057015 0.10612117 0.06292352 0.09093643 0.11322128 0.04177523 0.123719506
0.10197604 -0.081972 0.0058115325 0.020952955 0.089536 0.046080645 0.03148126 -0.07101487
0.10820489 -0.048055682 0.05748717 -0.028624896 0.011113554 -0.07610253 -0.06292445 0.10495616
-0.08205402 0.05550974 -0.050042924 0.08082154 0.11784802 0.122143485 -0.0002222971 0.076426044
0.00427888 -0.0062354687 -0.07284392 0.090857774 0.082746856 -0.08532723 0.0072904844 -0.07779745
-0.0039795637 -0.07298114 0.10373469 0.07758373 0.09730662 0.008003382 -0.094988205 -0.045539908
-0.07585311 0.064665996 -0.025307333 -0.08221752 -0.06598783 0.110123 0.030861285 -0.115166925
0.0102114985 0.061127488 -0.035835087 -0.10414668 -0.064596236 0.016756859 0.009667844 0.09084082
-0.028280513 0.058568276 0.10366612 -0.03000244 -0.11256982 -0.04609515 0.04020302 0.061187103
0.09880667 0.07572358 -0.12648807 -0.10015828 0.05833057 -0.09057796 -0.055748127 -0.07734794
00000000: 0330 f3bd ec2e 983d 2c37 deba 6ead a9bd
00000010: 5e41 b5bd 0485 63bd 1ca7 f7bd 4ec5 7a3d
00000020: 910c cebc 907e ab3c fb71 e03d 4ff2 93bc
00000030: d8db 69bd 1de1 283d 7628 963d 78d6 b3bd
00000040: 0230 bbbd 2950 df3d 3431 c6bc d001 493d
00000050: 606b 893d 4963 723d 0fec 91bc 1395 cabb
00000060: c091 e1bd b6da 813d 3e53 9bbd 63dd b93d
00000070: 5a17 f63d 10f5 5ebc 0086 493d fc60 e93c
00000080: 598a fa39 d1fc 8c3d 2ba2 11bc 9212 ebbd
00000090: e4ad b33d 5bc6 203d 09be b8bd 7cb3 b83d
000000a0: b53b 873d 7109 893d b6b6 e6bd ec5d 4cbd
000000b0: 6ad4 05bd 48da febc d4e3 7e3d 5a33 f73d
000000c0: d557 8ebd 28df a83c a4f1 b53d bdf2 cb3d
000000d0: 831a 4d3d d5e6 713d 69f6 1ebd 8020 d43b
000000e0: 4e3f 96bd 39fc d8bd 5497 9d3d e07a a53d
000000f0: 4119 533c d40b b2bc dc77 f23d 3535 8ebd
00000100: 5afb e13d 9ef8 8a3d 57bf 66bd c6f0 ad3d
00000110: a097 1bbc 005f 8dbb 9392 acbc caa0 253b
00000120: 8a2f 4d3d 6056 fd3d 97f7 09bc 6d43 a93d
00000130: 2a6c f13d 0cd5 90bd ca69 c23d 33f4 ec3d
00000140: 3147 3abd 865b 17bd d964 39bc 1f67 6ebd
00000150: 8713 473d 3f44 67bd 67bc 2e3d 9a5d debd
00000160: a040 d7bb 3211 93bd e680 abbd 7775 583d
00000170: 6295 f3bd 02e9 093d 2e5b 14bc 3c06 e33d
00000180: c23a 98bd 839d dabd 9eb2 5ebd 8555 323d
00000190: 82fb cd3d 8195 653b 4685 563d 7820 38bc
000001a0: dd44 33bd 7aea 3d3d 840e d03d 38d9 e0bc
000001b0: 3846 7cbc 3312 26bd 623a b73d e45c 6c3d
000001c0: 0c80 983d d049 b33d bf31 2bbc ce6c e9bd
000001d0: 9c12 ca3d 5d33 c4bd b8c1 cf3d e045 47bd
000001e0: dc79 ed3d b733 8ebd ac64 183d 8f97 f13d
000001f0: 6844 923c aa80 e3bd a1c3 883c 8c13 dd3d
00000200: 3fa7 be3d 947e e03d c8c1 703c 9038 893c
00000210: 807f 68bb 54ff c7bd 2bda 173d ce98 39bd
00000220: 44d0 88bd 7e05 243d 372e adbd 1155 22bd
00000230: adad f1bd 58d6 f43d b8e6 0e3d d4ba 953d
00000240: 53a9 033e 3e91 f03d a10d 203c 01fa 873c
00000250: f51b 683d f1a7 f03d d3cb 47bd 58f8 623d
00000260: a06e b63b 211b 67bc e383 2b3d 89e9 91bd
00000270: 98e0 d8bb 9813 57bd 1a29 1a3d 582b 093c
00000280: 8c59 e5bd 6a34 a8bb cd54 eebd 3a3b 0ebd
00000290: 2f34 a03d e2df aabb a4cf b0bd 643d dabd
000002a0: a823 083d d35d 17bd 589a 883d 97a2 b3bd
000002b0: d529 ccbb 05f2 cdbd 0017 49ba 1aa8 35bc
000002c0: 937c f73d 5330 833d 0e56 d93d 0cde 803d
000002d0: e13c ba3d 8fe0 e73d 811c 2b3d a760 fd3d
000002e0: d0d8 d03d f0e0 a7bd ab6e be3b 88a5 ab3c
000002f0: a65e b73d 0fbf 3c3d 7ef2 003d 3f70 91bd
00000300: 869a dd3d 09d6 44bd ab77 6b3d c27e eabc
00000310: a015 363c a5db 9bbd 89de 80bd 41f3 d63d
00000320: f00b a8bd 2e5e 633d cff9 4cbd c385 a53d
00000330: 4d5a f13d 5d26 fa3d 6c18 69b9 4285 9c3d
00000340: d935 8c3b e752 ccbb 312f 95bd a413 ba3d
00000350: 2f77 a93d 0bc0 aebd 04e5 ee3b 4554 9fbd
00000360: 0067 82bb 2377 95bd da72 d43d 38e4 9e3d
00000370: b148 c73d 9e20 033c 2d89 c2bd 0e88 3abd
00000380: e058 9bbd 9b6f 843d 5351 cfbc a961 a8bd
00000390: a124 87bd 2b88 e13d ced0 fc3c a3dc ebbd
000003a0: 214e 273c d160 7a3d d0c7 12bd db4a d5bd
000003b0: 084b 84bd ae45 893c e065 1e3c c00a ba3d
000003c0: 89ac e7bc 4ae5 6f3d e74e d43d adc7 f5bc
000003d0: 018b e6bd 45ce 3cbd ecab 243d 549f 7a3d
000003e0: 275b ca3d f714 9b3d 1786 01be c91f cdbd
000003f0: 09ec 6e3d f080 b9bd 2658 64bd 9968 9ebd

bias f4 [16]
-0.08765166 -0.076403044 -0.024179833 0.024613252 0.005640537 -0.10826019 0.01785736 -0.05870223
-0.07997903 0.105458826 -0.12031634 0.070244566 -0.014658574 -0.07204659 0.0402059 0.021853311
00000000: b782 b3bd 3379 9cbd c914 c6bc bba1 c93c
00000010: 41d4 b83b 85b7 ddbd 9949 923c c071 70bd
00000020: 0ccc a3bd ccfa d73d 6a68 f6bd 62dc 8f3d
00000030: 842a 70bc 2a8d 93bd f1ae 243d b705 b33c

weight f4 [2, 16]
0.11899561 0.09436444 0.16353191 -0.16150801 0.22676462 -0.1909662 0.13031706 -0.07952738
-0.124699056 0.20430028 -0.2056733 -0.08933019 0.118556716 0.2089631 -0.1155511 -0.039402526
-0.087385446 -0.13357607 -0.06853802 0.098244 -0.051540777 0.19465105 -0.034836356 -0.046879947
-0.006082684 0.21741927 -0.14328703 0.14500466 0.051736467 0.17543438 -0.11309408 -0.13565369
00000000: f8b3 f33d 2542 c13d e974 273e 5b62 25be
00000010: fc34 683e a58c 43be d671 053e 40df a2bd
00000020: 3862 ffbd 1834 513e 069c 52be bff2 b6bd
00000030: ddcd f23d 6cfa 553e 0ea6 ecbd 8b64 21bd
00000040: 24f7 b2bd 2ac8 08be a95d 8cbd 2634 c93d
00000050: 6c1c 53bd 9b52 473e 91b0 0ebd 3005 40bd
00000060: 4051 c7bb 28a3 5e3e d6b9 12be 1a7c 143e
00000070: 9ee9 533d 12a5 333e de9d e7bd cde8 0abe

bias f4 [2]
-0.085952476 -0.15083526
00000000: da07 b0bd 8f74 1abe
